models/compliance_evaluator.onnx (onnx, 203960 bytes, 14 tensors)

feature_extractor.0.weight f4 [128, 64]
-0.034420446 0.08010332 0.015137494 0.10198745 0.033975467 0.10080926 0.07597534 -0.02883023
-0.018148616 -0.039749905 0.041977063 -0.07887487 -0.035810173 0.038942054 0.10350403 0.0104486495
0.052600563 -0.05952485 -0.07738207 0.0071226656 -0.117724314 0.06715526 0.118474215 0.032195568
0.04292412 0.008067384 0.06571007 0.070574 0.024390727 -0.08339165 -0.05512832 -0.060116634
0.05316253 0.12064864 -0.03141491 0.0397086 0.08937907 0.10363108 -0.036542878 0.08622514
-0.116838515 0.122265235 0.013961926 -0.048237085 0.034902856 -0.11292395 -0.07758427 -0.08837749
-0.10497132 0.019479066 -0.055887252 0.09763686 -0.026520073 -0.06076266 0.011704341 0.059705764
-0.02702555 0.005792126 0.092812136 0.12171885 -0.042676315 0.11700384 -0.0030547976 -0.027960435
-0.027325258 -0.11145763 -0.022421345 -0.070592314 0.12312487 -0.0013301224 0.04678914 -0.07237458
0.066586 0.083229095 -0.04727766 -0.009803429 0.11721291 0.028105497 -0.098556876 0.025909662
-0.051432088 0.11943555 0.095772535 0.054997593 -0.032249823 -0.05312839 0.1074266 -0.0004223734
-0.12352136 0.06342603 0.06235996 -0.038075045 -0.030175418 -0.06799017 0.10778023 -0.12149814
-0.009813845 -0.079820395 0.09117769 0.04556118 0.11003047 -0.034134984 0.065580174 -0.010655388
0.09859313 -0.014158502 0.060008988 -0.11180332 0.08503142 -0.003930256 -0.10685249 0.12090282
-0.1134906 -0.09661065 0.11978063 -0.11434065 -0.017586097 -0.018436491 -0.024453193 0.10593189
0.058186427 -0.051256612 -0.12247935 0.027349904 0.059345573 -0.017941594 0.03724362 -0.085025325
-0.115205824 0.09155062 0.019756556 -0.059598252 -0.06544021 -0.08199519 0.033627674 -0.031099677
0.09404853 0.042512655 -0.023519114 -0.07836717 -0.016157404 0.040904626 0.008598834 -0.014949396
0.05042991 0.090617284 -0.067855254 -0.056827053 -0.044240594 -0.041273013 -0.049575433 0.12088081
0.014061257 -0.0029872954 -0.10249461 -0.106542826 0.10580514 0.11488578 -0.057325035 -0.00921908
0.093385294 -0.015285894 -0.09550844 0.12302968 0.0547612 0.102673545 0.046395883 0.044408172
0.0005913675 0.033725515 0.0758528 0.038404554 -0.08377601 -0.063954815 0.020079881 -0.10973585
0.027771711 -0.0617442 0.059029996 -0.041658387 0.03361419 -0.045380324 -0.02426061 -0.01693353
-0.03808406 -0.08714616 -0.014826596 -0.11457029 0.039135188 -0.015116513 -0.07355845 -0.005409807
0.06761944 -0.10158564 0.041788414 -0.07342824 -0.09857491 0.002017364 -0.03665276 0.042502835
-0.032916516 0.095073014 -0.09369151 -0.03801468 -0.07975243 -0.0039483905 0.07365583 0.0073551387
0.028507367 0.05984837 -0.10789341 -0.12238638 -0.12276763 -0.116427004 0.0516641 -0.07282458
0.013163239 0.022361636 -0.09349488 0.06720264 -0.01585354 0.058476135 -0.07910462 -0.100844085
-0.07286708 0.023748279 -0.009039447 0.10082972 -0.098486215 -0.033639207 -0.10460791 -0.06712276
-0.056324035 -0.09160219 -0.055919692 0.09271218 0.08506419 -0.014145687 -0.009414345 0.04361555
0.08019611 0.06706752 0.124409616 0.10163987 0.049580663 0.03687358 -0.11379227 0.0573747
0.06747557 -0.08731207 -0.016319573 0.12287824 -0.0014664829 -0.101431414 0.08836466 0.010855973
00000000: 74fc 0cbd 360d a43d 4003 783c ccde d03d
00000010: dc29 0b3d 1675 ce3d f698 9b3d 602d ecbc
00000020: 68ac 94bc ccd0 22bd 24f0 2b3d 2689 a1bd
00000030: b0ad 12bd b481 1f3d ecf9 d33d d030 2b3c
00000040: b073 573d 54d0 73bd 7e7a 9ebd 4065 e93b
00000050: 7219 f1bd b288 893d 9ca2 f23d 80df 033d
00000060: 34d1 2f3d 102d 043c 0093 863d 1a89 903d
00000070: 10cf c73c 3ec9 aabd 3cce 61bd dc3c 76bd
00000080: f4c0 593d a216 f73d ecac 00bd 7ca5 223d
00000090: 600c b73d 883c d43d fcad 15bd ce96 b03d
000000a0: 0849 efbd 3266 fa3d 90c0 643c 4094 45bd
000000b0: 4cf6 0e3d ac44 e7bd 80e4 9ebd 42ff b4bd
000000c0: 34fb d6bd 9092 9f3c 08ea 64bd d6f5 c73d
000000d0: a040 d9bc 44e2 78bd 90c3 3f3c 088e 743d
000000e0: b064 ddbc e0cb bd3b 4a14 be3d bc47 f93d
000000f0: 5ccd 2ebd b69f ef3d 0033 48bb 480d e5bc
00000100: 38d9 dfbc e643 e4bd f8ac b7bc b492 90bd
00000110: e428 fc3d 8057 aeba f8a5 3f3d 2039 94bd
00000120: 3e5e 883d 0474 aa3d 38a6 41bd 909e 20bc
00000130: 520d f03d 803d e63c 30d8 c9bd 8040 d43c
00000140: 74aa 52bd a09a f43d 6424 c43d 2845 613d
00000150: 6418 04bd 289d 59bd 7a02 dc3d 0072 ddb9
00000160: c4f8 fcbd 82e5 813d 286d 7f3d 94f4 1bbd
00000170: 7032 f7bc 6e3e 8bbd e2bb dc3d 04d4 f8bd
00000180: 40ca 20bc e078 a3bd 5ebb ba3d 5c9e 3a3d
00000190: a857 e13d 20d1 0bbd e64e 863d f093 2ebc
000001a0: 32eb c93d 10f9 67bc fccb 753d 24f9 e4bd
000001b0: f424 ae3d 60c9 80bb 7ad5 dabd e69b f73d
000001c0: c26d e8bd cedb c5bd 8c4f f53d 6e2b eabd
000001d0: b810 90bc 2008 97bc 1052 c8bc d2f2 d83d
000001e0: e454 6e3d 74f2 51bd 74d6 fabd e80c e03c
000001f0: 5814 733d 40fa 92bc c48c 183d c221 aebd
00000200: 08f1 ebbd e47e bb3d 80d8 a13c 4c1d 74bd
00000210: 8405 86bd 18ed a7bd 2cbd 093d c0c4 febc
00000220: 849c c03d c021 2e3d 28ab c0bc f87e a0bd
00000230: 885c 84bc 9c8b 273d 20e2 0c3c 50ee 74bc
00000240: 988f 4e3d 8e95 b93d b2f7 8abd 7cc3 68bd
00000250: a035 35bd e40d 29bd 9c0f 4bbd 5c90 f73d
00000260: 3061 663c 80c6 43bb b2e8 d1bd 2033 dabd
00000270: 5eb0 d83d 3c49 eb3d a8cd 6abd a00b 17bc
00000280: ca40 bf3d b071 7abc ee99 c3bd fcf6 fb3d
00000290: 484d 603d 8246 d23d 9c09 3e3d 58e5 353d
000002a0: 0006 1b3a c423 0a3d b658 9b3d 184e 1d3d
000002b0: c292 abbd befa 82bd 907e a43c 30bd e0bd
000002c0: 8081 e33c 7ce7 7cbd 70c9 713d fca1 2abd
000002d0: 08af 093d b8e0 39bd 30be c6bc 30b8 8abc
000002e0: 08fe 1bbd b079 b2bd 40eb 72bc d4a3 eabd
000002f0: 384c 203d 40ab 77bc d0a5 96bd c044 b1bb
00000300: 107c 8a3d 220c d0bd 542a 2b3d 8c61 96bd
00000310: a4e1 c9bd c035 043b 3421 16bd 7417 2e3d
00000320: 78d3 06bd a4b5 c23d 56e1 bfbd 48b5 1bbd
00000330: 3e55 a3bd 8061 81bb ded8 963d 6003 f13b
00000340: 4888 e93c 9023 753d 38f7 dcbd b6a5 fabd
00000350: 986d fbbd 4871 eebd bc9d 533d 0e25 95bd
00000360: a0aa 573c c02f b73c 3e7a bfbd 8aa1 893d
00000370: 48df 81bc ac84 6f3d 9a01 a2bd 5887 cebd
00000380: 563b 95bd c08b c23c 301a 14bc d07f ce3d
00000390: 24b3 c9bd 44c9 09bd ac3c d6bd a877 89bd
000003a0: 08b4 66bd ee99 bbbd 0c0c 65bd e2df bd3d
000003b0: 2236 ae3d 50c3 67bc a03e 1abc 38a6 323d
000003c0: dc3d a43d b25a 893d 78ca fe3d 9028 d03d
000003d0: 1815 4b3d c008 173d ec0b e9bd bc01 6b3d
000003e0: a230 8a3d acd0 b2bd a0b0 85bc 96a7 fb3d
000003f0: 0037 c0ba 46bb cfbd 88f8 b43d 40dd 313c

feature_extractor.0.bias f4 [128]
-0.036558047 -0.093254164 0.12393533 0.06295867 0.06236568 -0.035826683 0.03936234 -0.0035471767
-0.06974517 0.09151566 -0.051345825 0.09319566 0.0708954 -0.042268783 -0.049832687 0.017669797
-0.06370251 0.047937557 0.038599417 0.08811733 0.055447638 0.0063075274 -0.014856458 0.046676382
0.08286826 -0.051296398 -0.077777356 -0.116323784 0.012498334 -0.012165919 -0.12111515 -0.02521874
-0.070694715 -0.120885685 0.08506298 0.0775097 0.09627788 -0.014527947 0.079420865 -0.018803254
0.054551393 0.11587751 -0.07442531 0.09385045 -0.08754024 -0.07621734 0.119960696 0.045391947
-0.019483224 0.085904315 0.07430793 0.092842 -0.11867209 -0.021070749 0.067309946 -0.11067583
0.024291232 0.07435094 0.0036795735 -0.10320982 -0.02675733 -0.021838352 0.044908762 -0.11301561
0.073607415 -0.08323778 0.048813775 0.027607098 0.08173843 0.0054310113 -0.02778101 0.0064954013
-0.124011666 -0.07469599 0.06387101 0.07298887 -0.10592806 0.08093847 -0.10374518 -0.0602006
-0.06333701 0.016959786 0.055111706 -0.0031404942 -0.0741024 0.10294634 0.012063146 0.11837934
0.09960438 -0.11870144 0.08547014 -0.08888468 0.12129633 -0.07736696 -0.064006194 -0.07750173
-0.0043173432 -0.037017837 0.02357687 -0.04798156 0.014796972 0.10350162 -0.09878506 0.01297614
-0.075013414 -0.09457351 -0.067130506 -0.06468105 -0.0031149536 -0.08510509 -0.0795608 -0.0070198923
0.031463444 0.02604711 0.10593054 -0.103048936 -0.11365865 -0.101857275 0.048868 0.0002605766
0.07082929 0.12185837 0.12299545 0.030229926 -0.013370678 -0.01872316 0.07712178 0.001453802
00000000: e4bd 15bd 0afc bebd ced1 fd3d 7af0 803d
00000010: 2873 7f3d 00bf 12bd 683a 213d c077 68bb
00000020: 8ed6 8ebd 906c bb3d 0050 52bd 5edd be3d
00000030: 9c31 913d 0822 2dbd 5c1d 4cbd 40c0 903c
00000040: 7676 82bd 2c5a 443d 6c1a 1e3d dc76 b43d
00000050: 101d 633d 60af ce3b 8068 73bc bc2f 3f3d
00000060: d6b6 a93d 2c1c 52bd bc49 9fbd 2a3b eebd
00000070: d0c5 4c3c 9053 47bc 380b f8bd 8897 cebc
00000080: 64c8 90bd ea92 f7bd 8035 ae3d 68bd 9e3d
00000090: 562d c53d a006 6ebc 68a7 a23d 4809 9abc
000000a0: 4871 5f3d 3051 ed3d 4c6c 98bd aa34 c03d
000000b0: 4c48 b3bd d617 9cbd f4ad f53d e8ec 393d
000000c0: 489b 9fbc 9aee af3d c22e 983d f223 be3d
000000d0: 5a0a f3bd 909c acbc ccd9 893d 02aa e2bd
000000e0: 68fe c63c 4e45 983d 0025 713b ac5f d3bd
000000f0: 3032 dbbc 58e6 b2bc 40f2 373d ba74 e7bd
00000100: 7cbf 963d 9278 aabd f4f0 473d 4828 e23c
00000110: 7a66 a73d a0f6 b13b 0095 e3bc 60d7 d43b
00000120: d4f9 fdbd 36fa 98bd cece 823d 307b 953d
00000130: d0f0 d8bd 12c3 a53d 5a78 d4bd e894 76bd
00000140: d6b6 81bd 40ef 8a3c d0bc 613d c0d0 4dbb
00000150: 00c3 97bd 88d5 d23d 80a4 453c de70 f23d
00000160: 62fd cb3d be19 f3bd f80a af3d 2c09 b6bd
00000170: 366a f83d 9272 9ebd ae15 83bd 3ab9 9ebd
00000180: 8078 8dbb 04a0 17bd 4824 c13c 5088 44bd
00000190: 006f 723c a8f8 d33d d24f cabd e099 543c
000001a0: a2a0 99bd c2af c1bd b87b 89bd 8077 84bd
000001b0: 4024 4cbb 944b aebd c6f0 a2bd 2007 e6bb
000001c0: d0df 003d c060 d53c 1cf2 d83d 520b d3bd
000001d0: dec5 e8bd 8c9a d0bd d029 483d 009e 8839
000001e0: f20e 913d e290 f93d 0ae5 fb3d c0a4 f73c
000001f0: b010 5bbc 5061 99bc 06f2 9d3d 808d be3a

feature_extractor.3.weight f4 [128, 128]
-0.060922615 -0.0323882 0.08017899 -0.078364216 -0.008065832 0.014376205 -0.031526517 -0.0714191
0.0835144 0.023447061 0.007390892 0.049975384 0.035628773 -0.020209087 0.02591951 -0.017535502
-0.06591021 0.034671158 -0.06323257 0.052507408 -0.01447348 0.02332867 -0.035097525 -0.061870012
0.022687111 -0.027250076 -0.018110912 -0.023536064 0.08398913 -0.01043811 0.002220907 -0.030969398
0.040773567 -0.07282296 0.0802493 0.053564977 -0.005080244 -0.08803128 0.018748255 -0.05992597
-0.017240422 0.029777812 0.087564774 -0.066298984 0.056452446 0.061204493 -0.08602114 0.04293967
0.05150115 -0.050380897 -0.007535951 -0.03832157 -0.007145408 -0.019857708 -0.029329801 -0.026119983
-0.07948569 -0.08557189 -0.068066 0.040038284 0.025734065 -0.07882253 -0.034002885 0.078800894
0.024877377 -0.07445894 -0.0591229 0.026095768 0.06125999 -0.014628591 0.059088744 -0.032189213
0.022416191 0.06296634 0.035274826 -0.024892487 0.04915259 0.0043536536 -0.0017215196 0.067100964
0.054294202 -0.040372822 0.077968135 -0.024966286 0.039917026 0.07857181 -0.08822837 -0.041870967
0.0047232076 -0.041723166 0.043277405 -0.010779162 -0.05297215 -0.012657647 0.0064523453 -0.065101326
-0.059146073 0.033762217 0.018285537 0.009999835 0.0034590024 -0.05812674 -0.043551024 -0.04422509
0.05948801 0.01985616 -0.013941418 -0.006493428 0.036880787 0.057557873 -0.07421944 0.016296152
-0.06730782 0.0415243 0.06648928 -0.0710069 0.078470394 -0.020087061 -0.043624222 0.008091836
0.07827602 -0.0437398 0.07129097 -0.078049116 0.08030681 0.07206267 0.062344532 0.017008455
-0.007476345 0.036930375 0.008453667 -0.066647366 0.0013602368 0.011449044 -0.041478503 -0.026527857
0.04629413 0.0750406 0.07954755 -0.05437758 0.02060571 -0.02871119 -0.0011344983 0.037629064
0.02310172 0.07560919 0.078189746 -0.061654612 0.02282648 -0.081497155 -0.06397801 0.054699108
-0.054046914 0.024281442 0.050210267 0.011657396 0.042839922 0.070844 -0.015237687 -0.04712338
-0.07805298 -0.0555025 0.05764221 0.03310087 -0.066199854 -0.00068853196 0.033804595 0.080572814
0.0794258 0.07863176 -0.011737675 -0.08010239 -0.043167233 -0.030202072 0.03061372 0.07052287
0.06871428 0.06798427 0.07990955 -0.020722415 0.008129232 -0.0012028184 0.041942026 0.041523274
-0.03218484 0.03943299 0.060616754 -0.004877802 0.01994021 -0.07589092 0.08237511 0.084054425
-0.08234593 0.05048321 -0.013247228 0.055842668 -0.025907688 0.059646547 -0.012172178 0.017217303
-0.08353098 0.010096594 0.007472541 0.0033087805 0.081629835 0.08192273 0.046494097 -0.05678583
-0.025288982 -0.009687284 -0.06606269 0.04635577 0.023884999 -0.02877654 0.059012458 0.026345216
-0.0055923704 0.08161907 0.08249541 -0.05255162 -0.0272625 0.08278431 0.060794972 0.07139045
0.03325695 0.068906136 0.033605672 0.06534138 0.057798512 0.004482581 -0.043736394 0.011572903
0.005748651 -0.06614462 -0.015926398 0.040459793 0.04152037 -0.046582773 0.059491623 -0.038660124
0.02323738 -0.07737155 -0.032700285 -0.05845677 -0.07430729 0.033559438 -0.059198484 0.05668613
0.0678625 0.028077703 0.024400739 0.0072253183 -0.047414057 0.023735788 -0.047969244 -0.022225117
00000000: fe89 79bd 7da9 04bd e234 a43d 6b7d a0bd
00000010: 8d26 04bc 2d8a 6b3c f321 01bd 2d44 92bd
00000020: 9909 ab3d 0d14 c03c 4c2f f23b fdb2 4c3d
00000030: 7aef 113d 878d a5bc 2755 d43c 9da6 8fbc
00000040: effb 86bd 5803 0e3d 1480 81bd 0212 573d
00000050: 2d22 6dbc c41b bf3c 6cc2 0fbd 696b 7dbd
00000060: 52da b93c 8d3b dfbc 565d 94bc b4ce c0bc
00000070: 7e02 ac3d 9b04 2bbc a38c 113b 89b3 fdbc
00000080: 2f02 273d 3424 95bd bf59 a43d f366 5b3d
00000090: 2d78 a6bb be49 b4bd f195 993c ef74 75bd
000000a0: c93b 8dbc 99f0 f33c 2955 b33d c3c7 87bd
000000b0: ae3a 673d 90b1 7a3d da2b b0bd 82e1 2f3d
000000c0: dff2 523d 335c 4ebd 24f0 f6bb 14f7 1cbd
000000d0: 0724 eabb a2ac a2bc 0d45 f0bc 93f9 d5bc
000000e0: 65c9 a2bd 5140 afbd 3066 8bbd 2fff 233d
000000f0: 3fd0 d23c b56d a1bd 9c46 0bbd 5d62 a13d
00000100: a4cb cb3c ee7d 98bd db2a 72bd cbc6 d53c
00000110: c1eb 7a3d c2ac 6fbc 0a07 723d d6d8 03bd
00000120: 29a2 b73c 7ff4 803d 567c 103d 54eb cbbc
00000130: 3a54 493d 18a9 8e3b 9da4 e1ba 3b6c 893d
00000140: 9963 5e3d f95d 25bd c2ad 9f3d 1986 ccbc
00000150: 0980 233d 42ea a03d 13b1 b4bd e480 2bbd
00000160: 23c5 9a3b e9e5 2abd a643 313d 159b 30bc
00000170: 53f9 58bd 0562 4fbc 326e d33b d853 85bd
00000180: 2743 72bd 404a 0a3d 8dcb 953c 59d6 233c
00000190: 6eb0 623b 4e16 6ebd 8f62 32bd 5e25 35bd
000001a0: b3a9 733d 63a9 a23c 8c6a 64bc d2c6 d4bb
000001b0: 4f10 173d cec1 6b3d 5d00 98bd 827f 853c
000001c0: afd8 89bd 6215 2a3d 882b 883d 116c 91bd
000001d0: 16b5 a03d 9f8d a4bc 50af 32bd 9f93 043c
000001e0: 2e4f a03d 8128 33bd 0001 923d 37d8 9fbd
000001f0: e677 a43d 9895 933d fb5c 7f3d 5155 8b3c
00000200: 21fc f4bb 4e44 173d 4081 0a3c 6a7e 88bd
00000210: f949 b23a c594 3b3c 5de5 29bd f350 d9bc
00000220: ea9e 3d3d e3ae 993d d3e9 a23d 06bb 5ebd
00000230: 4ecd a83c bb33 ebbc 72b3 94ba ef20 1a3d
00000240: d13f bd3c fed8 9a3d f221 a03d 8c89 7cbd
00000250: 99fe ba3c fbe7 a6bd e706 83bd 2c0c 603d
00000260: 4c60 5dbd e0e9 c63c 48a9 4d3d aafe 3e3c
00000270: ea78 2f3d a916 913d 7ea7 79bc 7204 41bd
00000280: 3eda 9fbd 9756 63bd 3d1a 6c3d c794 073d
00000290: ca93 87bd 997e 34ba b076 0a3d 5c03 a53d
000002a0: fea9 a23d b009 a13d 614f 40bc b90c a4bd
000002b0: 20d0 30bd 566a f7bc a0c9 fa3c 4b6e 903d
000002c0: 13ba 8c3d 563b 8b3d 9ea7 a33d 0ec2 a9bc
000002d0: 7830 053c e3a7 9dba 67cb 2b3d 4f14 2a3d
000002e0: 40d4 03bd 7d84 213d 4649 783d f8d5 9fbb
000002f0: a759 a33c b36c 9bbd 48b4 a83d ba24 ac3d
00000300: fca4 a8bd 7bc7 4e3d e70a 59bc 48bb 643d
00000310: 5c3c d4bc f04f 743d d16d 47bc 4d0b 8d3c
00000320: 4a12 abbd 2f6c 253c 38dc f43b 20d8 583b
00000330: 8b2d a73d 1bc7 a73d 9870 3e3d 4298 68bd
00000340: d72a cfbc 6ab7 1ebc e04b 87bd 8cdf 3d3d
00000350: 79aa c33c c7bc ebbc 0cb7 713d ecd1 d73c
00000360: 3440 b7bb e627 a73d 5bf3 a83d 5e40 57bd
00000370: 9b55 dfbc d28a a93d 2604 793d 2835 923d
00000380: 7138 083d a91e 8d3d 1aa6 093d b4d1 853d
00000390: 22be 6c3d 9de2 923b ef24 33bd 469c 3d3c
000003a0: 2e5f bc3b d576 87bd 1478 82bc 2bb9 253d
000003b0: 4311 2a3d 94cd 3ebd 7dad 733d 145a 1ebd
000003c0: 515c be3c fa74 9ebd bcf0 05bd 5e70 6fbd
000003d0: 6c2e 98bd 9f75 093d 1c7a 72bd b72f 683d
000003e0: 7ffb 8a3d 3603 e63c 0fe4 c73c 5dc2 ec3b
000003f0: 3e35 42bd 8e71 c23c 667b 44bd 7311 b6bc

feature_extractor.3.bias f4 [128]
-0.075464025 -0.051510077 -0.06397638 -0.053437397 0.038498025 0.010793608 -0.01239406 -0.04497684
-0.08562285 0.04713242 0.01905636 0.039009847 -0.082555726 0.03303492 0.041593354 0.021795968
0.06585751 0.07418897 -0.07051918 -0.0405469 0.027057465 0.004654719 -0.08591332 0.05735404
-0.08531969 0.010107794 -0.049433995 0.04100014 -0.025191097 -0.07180529 -0.016051617 0.04960842
0.08789311 -0.005854598 0.079456575 0.08096738 -0.061560664 -0.032858882 0.080460906 0.034655195
0.031929724 0.056930393 0.047675062 -0.040403213 -0.058334295 -0.063525446 0.015433807 0.061932642
-0.02927596 0.011425895 -0.0860649 -0.03692973 -0.020660216 0.06271219 -0.046362575 0.00821383
0.047468446 -0.049537603 0.0755269 0.07825518 -0.024567598 0.033333838 -0.02955828 0.035982396
-0.015132215 -0.05745645 0.03445668 -0.0010264022 0.020689804 0.06346563 0.009985062 -0.0352009
-0.00076833705 -0.04882079 0.010559535 -0.0783996 0.011258519 0.014417878 -0.0075497227 -0.0032522404
-0.02382985 0.05639065 0.006997894 0.0245651 -0.062290132 0.02035738 0.038006563 -0.014479645
-0.0077862823 0.048311066 -0.004814835 -0.020171713 0.027043188 -0.039605096 0.083394565 -0.026383262
-0.04830306 -0.036701202 0.016837519 0.07754682 0.03900968 0.009492882 0.01699816 0.08579562
0.011658956 0.03824115 -0.056161445 0.03920113 0.078577824 0.07478035 0.037323087 0.08114891
0.07338031 -0.06956001 -0.0018896329 0.03494333 -0.03757169 0.065579645 0.010756634 0.07495501
0.0023285816 0.0141753545 -0.06167757 -0.08511559 -0.06851348 0.000654667 -0.07776748 -0.032406386
00000000: e28c 9abd 3bfc 52bd 0c06 83bd 2ce1 5abd
00000010: 1bb0 1d3d acd7 303c 7510 4bbc a339 38bd
00000020: 085b afbd ed0d 413d 151c 9c3c cac8 1f3d
00000030: fa12 a9bd a04f 073d cb5d 2a3d 758d b23c
00000040: 4de0 863d 63f0 973d 5c6c 90bd 8214 26bd
00000050: 9ea7 dd3c 9d86 983b 53f3 afbd 12ec 6a3d
00000060: 17bc aebd 299b 253c 4d7b 4abd c3ef 273d
00000070: 8f5d cebc a70e 93bd ae7e 83bc 3332 4b3d
00000080: 4e01 b43d edd7 bfbb 21ba a23d 3ad2 a53d
00000090: 0927 7cbd 0997 06bd b0c8 a43d 9bf2 0d3d
000000a0: bec8 023d d82f 693d ed46 433d d77d 25bd
000000b0: f1ef 6ebd a119 82bd 14de 7c3c 15ad 7d3d
000000c0: 23d4 efbc ad33 3b3c cb42 b0bd a143 17bd
000000d0: 9d3f a9bc 406f 803d afe6 3dbd 4d93 063c
000000e0: 466e 423d f1e7 4abd d9ad 9a3d 4044 a03d
000000f0: fd41 c9bc 1089 083d 3524 f2bc 4762 133d
00000100: 1ced 77bc 7457 6bbd 7322 0d3d 5888 86ba
00000110: aa7d a93c 45fa 813d 6398 233c d22e 10bd
00000120: 3a6a 49ba 4ff8 47bd e601 2d3c f88f a0bd
00000130: a775 383c f738 6c3c aa63 f7bb 8a23 55bb
00000140: d136 c3bc e2f9 663d 974e e53b c03c c93c
00000150: f023 7fbd 85c4 a63c c5ac 1b3d 083c 6dbc
00000160: 1224 ffbb d3e1 453d c3c5 9dbb 263f a5bc
00000170: ad89 dd3c f438 22bd c5ca aa3d b621 d8bc
00000180: 6ed9 45bd 0054 16bd d6ee 893c ded0 9e3d
00000190: 9dc8 1f3d 0888 1b3c ba3f 8b3c 9db5 af3d
000001a0: 3505 3f3c c1a2 1c3d 8b09 66bd 5d91 203d
000001b0: 69ed a03d 7126 993d 18e0 183d 6631 a63d
000001c0: 6a48 963d 7b75 8ebd 8fad f7ba bd20 0f3d
000001d0: c6e4 19bd 9f4e 863d 983c 303c 0382 993d
000001e0: 1e9b 183b bf3f 683c 9fa1 7cbd 1551 aebd
000001f0: cc50 8cbd f59d 2b3a 8e44 9fbd 8fbc 04bd

compliance_head.0.weight f4 [64, 128]
-0.06492142 -0.03379775 0.013273738 -0.081581295 -0.07708406 0.051472068 -0.00581479 0.07669993
0.029595379 -0.040021066 -0.011265515 0.07082032 -0.05335791 0.050560284 0.05142158 -0.010402042
0.020934518 0.041084 -0.08813625 0.037324954 0.027373008 -0.06479978 0.07197687 -0.011915536
-0.0325616 -0.05622971 -0.009887355 0.035243258 0.045881134 0.032530107 0.016215041 0.03971449
0.047752295 -0.051259134 0.062681586 -0.028240612 -0.00010474546 -0.033528734 0.024202522 0.0721779
-0.056791075 0.024981417 0.083158515 0.024316024 0.014748299 0.049405135 0.01952751 -0.06044664
-0.08526443 -0.071229555 0.053749453 -0.06421202 -0.04593033 -0.001902161 0.042048205 -0.016352797
0.00050426595 -0.067846835 -0.08827894 0.020949997 -0.02206005 0.052876677 -0.06387956 -0.052092187
0.079985194 -0.073117465 -0.0063786516 -0.010742789 -0.060938325 -0.012359658 -0.039863057 0.01895114
0.088187665 -0.007816291 -0.05310858 -0.027926406 0.038654443 -0.041764427 0.031989142 -0.0793318
-0.07683571 0.061590802 0.06842032 0.05623397 -0.055533793 -0.019418813 -0.06913886 0.033709396
0.061904583 0.045808997 0.006634251 0.055903453 0.053018175 0.044045195 -0.0519711 -0.013631144
0.08624284 -0.008978259 0.07406456 0.010042024 -0.021162428 -0.041315913 -0.07525226 -0.030159451
0.024339035 -0.068790644 -0.005353356 -0.05871471 0.07918277 -0.012109685 -0.027763825 -0.0306351
-0.008503 0.076182 0.07717045 0.051498454 0.07583162 0.017506884 -0.023983622 0.002830656
-0.0035741476 -0.04988306 -0.015946923 -0.0028132284 0.022232695 0.034612067 -0.08365595 0.035433233
-0.076351225 0.052578837 0.07148267 -0.080489606 0.066755265 -0.028777225 0.059855424 0.08137401
-0.038554326 0.07131355 0.008857908 -0.02165306 -0.057052933 -0.078851916 -0.004103744 -0.061607227
0.003206058 -0.07648535 -0.0054731686 0.0880954 -0.025237774 -0.0737969 -0.04544247 -0.018794607
-0.06024541 0.07896333 0.0386793 0.050987035 -0.04630965 0.0126852 0.027408233 -0.009082151
-0.04343986 -0.0438374 -0.0755889 -0.0040968107 0.069172546 0.069878735 -0.0031927503 -0.007005765
-0.04229938 0.035297405 0.062009465 0.046408083 0.088316135 -0.074583545 0.013767816 0.07474746
0.011874126 0.00025007833 0.04506359 -0.016502198 0.008788208 0.026257856 0.00091046677 -0.07209078
-0.02166957 0.020153454 0.014363403 0.06566409 0.059013005 0.048071925 0.011363823 -0.0311856
0.08115768 -0.03650524 0.028969277 0.074280426 -0.06938308 -0.055171255 0.02210816 0.08468211
-0.08129365 0.052116167 0.078649655 -0.07035569 -0.038511135 -0.035013545 -0.016242541 -0.03645163
0.054237872 0.015438685 0.07823712 0.04008633 0.054589808 0.022454334 0.004325057 -0.051928278
0.011087466 0.072989866 -0.058912907 0.06854677 -0.018608328 0.012042503 -0.04763812 -0.010119616
0.026050894 -0.030055203 -0.024518454 -0.04982144 0.027662652 -0.050941925 0.07476505 0.079514466
0.08362159 -0.01696338 0.072927706 0.009874406 0.03854339 0.019596092 0.050382562 -0.079925776
0.062356934 0.030081743 -0.007189304 -0.046369616 -0.08575252 -0.03311852 0.081997894 0.032453243
-0.026574008 0.017471418 0.040537354 0.087592565 -0.03191946 -0.020933338 -0.0074578845 0.0341412
00000000: 85f5 84bd 826f 0abd 187a 593c 1814 a7bd
00000010: 3fde 9dbd 60d4 523d fe89 bebb da14 9d3d
00000020: 0272 f23c 21ed 23bd ff92 38bc 3e0a 913d
00000030: d38d 5abd 4d18 4f3d 6f9f 523d 546d 2abc
00000040: de7e ab3c b247 283d c780 b4bd 0de2 183d
00000050: 5c3d e03c bfb5 84bd 9c68 933d 6139 43bc
00000060: 505f 05bd 2051 66bd 93fe 21bc 3c5b 103d
00000070: dbed 3b3d 4a3e 053d 68d5 843c a9ab 223d
00000080: e997 433d 19f5 51bd 345f 803d db58 e7bc
00000090: caaa dbb8 6d55 09bd 5e44 c63c 02d2 933d
000000a0: c29d 68bd d4a5 cc3c 034f aa3d 6632 c73c
000000b0: d9a2 713c 0a5d 4a3d 28f8 9f3c e596 77bd
000000c0: 1e9f aebd cde0 91bd 6328 5c3d 9781 83bd
000000d0: 7121 3cbd ef51 f9ba bd3a 2c3d 4df6 85bc
000000e0: b730 043a 48f3 8abd 97cb b4bd 549f ab3c
000000f0: 47b7 b4bc 3795 583d 49d3 82bd 9e5e 55bd
00000100: 47cf a33d 9cbe 95bd 0204 d1bb 8602 30bc
00000110: 779a 79bd 2a80 4abc 7247 23bd 6c3f 9b3c
00000120: bc9b b43d e70f 00bc 6288 59bd ebc5 e4bc
00000130: 1f54 1e3d 2d11 2bbd 0c07 033d b678 a2bd
00000140: 0a5c 9dbd a346 7c3d f41f 8c3d 9755 663d
00000150: 6777 63bd 3414 9fbc ad98 8dbd dd12 0a3d
00000160: a98f 7d3d 37a2 3b3d 2264 d93b 05fb 643d
00000170: 9629 593d bc68 343d a6df 54bd 2955 5fbc
00000180: 16a0 b03d 8c19 13bc 29af 973d 4d87 243c
00000190: d45c adbc e03a 29bd db1d 9abd f410 f7bc
000001a0: a862 c73c 1ce2 8cbd 346b afbb d67e 70bd
000001b0: 932a a23d b367 46bc f670 e3bc 76f6 fabc
000001c0: 2b50 0bbc 4f05 9c3d 8a0b 9e3d 0bf0 523d
000001d0: 9c4d 9b3d 996a 8f3c 4d79 c4bc 8782 393b
000001e0: 3f3c 6abb 2e52 4cbd 1fa3 82bc 245e 38bb
000001f0: 5721 b63c 62c5 0d3d d053 abbd 7022 113d
00000200: 085e 9cbd e85c 573d 8265 923d bcd7 a4bd
00000210: fcb6 883d 37be ebbc f62a 753d 6ba7 a63d
00000220: 24eb 1dbd d70c 923d c220 113c c261 b1bc
00000230: 56b0 69bd 1d7d a1bd b378 86bb dc57 7cbd
00000240: ba1c 523b 5aa4 9cbd 4458 b3bb 5c6b b43d
00000250: 73bf cebc d422 97bd e221 3abd 26f7 99bc
00000260: e4c3 76bd 87b7 a13d 306e 1e3d c8d7 503d
00000270: 30af 3dbd 96d5 4f3c 3b87 e03c 4dcd 14bc
00000280: ffed 31bd d88e 33bd 5ace 9abd 8a3e 86bb
00000290: 56aa 8d3d 951c 8f3d 763d 51bb 9e90 e5bb
000002a0: 1d42 2dbd 0394 103d a3fd 7d3d 6716 3e3d
000002b0: 17df b43d 42bf 98bd 6892 613c 3215 993d
000002c0: b28b 423c f21c 8339 9994 383d 9e2f 87bc
000002d0: 6afc 0f3c b71a d73c 64ac 6e3a 55a4 93bd
000002e0: 6284 b1bc db18 a53c 7b54 6b3c e57a 863d
000002f0: 9fb7 713d 11e7 443d 542f 3a3c f278 ffbc
00000300: ff35 a63d 8586 15bd fa50 ed3c 5620 983d
00000310: b718 8ebd 41fb 61bd 2c1c b53c d06d ad3d
00000320: 497d a6bd c377 553d 1213 a13d a516 90bd
00000330: dabd 1dbd 5d6a 0fbd 140f 85bc 4e4e 15bd
00000340: 8828 5e3d 8af2 7c3c c83a a03d 9031 243d
00000350: 9099 5f3d 27f2 b73c 35b9 8d3b bfb2 54bd
00000360: 34a8 353c b67b 953d a94e 71bd 4062 8c3d
00000370: 7e70 98bc eb4d 453c 3020 43bd bfcc 25bc
00000380: af68 d53c 5436 f6bc edda c8bc 9111 4cbd
00000390: c99c e23c 7ba8 50bd 6b1e 993d 7bd8 a23d
000003a0: cc41 ab3d c9f6 8abc 1f5b 953d 43c8 213c
000003b0: acdf 1d3d fc87 a03c f25d 4e3d 20b0 a3bd
000003c0: fc69 7f3d fd6d f63c 4194 ebbb 11ee 3dbd
000003d0: 049f afbd 49a7 07bd 83ee a73d b1ed 043d
000003e0: bcb1 d9bc 3820 8f3c 7f0a 263d bb63 b33d
000003f0: fbbd 02bd 647c abbc 4561 f4bb a5d7 0b3d

compliance_head.0.bias f4 [64]
0.054896966 0.039227787 0.0442544 -0.006565046 0.087602116 -0.083075576 0.035230454 0.04382106
0.041935343 -0.048729975 -0.031364147 0.03182872 -0.015710754 -0.03486832 -0.055159435 0.011588455
0.020469291 -0.0075864643 0.044383034 -0.027952716 -0.051446337 -0.0560078 0.074754454 -0.053462803
0.023532229 0.017174419 0.056069933 0.0849942 -0.054939985 -0.0004606756 -0.049023632 -0.035226494
0.0039212583 -0.08319683 -0.034897346 0.0569378 0.032360625 0.064784944 0.012345138 -0.038000114
0.0025712 -0.018832423 -0.06370781 -0.003470656 -0.07881363 -0.03714665 0.0010142534 0.07428833
0.07048733 -0.017375302 0.077950396 -0.021685522 -0.050438292 0.0076288325 -0.07367854 0.033678427
-0.03665524 -0.028596532 0.038637713 -0.053386927 -0.077607244 -0.07850301 -0.015263059 -0.015015299
00000000: a4db 603d 51ad 203d 1a44 353d 991f d7bb
00000010: bd68 b33d 8723 aabd cf4d 103d b67d 333d
00000020: 65c4 2b3d 1599 47bd b177 00bd d55e 023d
00000030: d7b3 80bc 15d2 0ebd dcee 61bd 81dd 3d3c
00000040: 37af a73c e097 f8bb fcca 353d 18fd e4bc
00000050: 65b9 52bd 6f68 65bd dd18 993d d0fb 5abd
00000060: a9c6 c03c 5eb1 8c3c 96a9 653d 7011 ae3d
00000070: c008 61bd d586 f1b9 01cd 48bd a849 10bd
00000080: e67d 803b 1963 aabd 85f0 0ebd 9c37 693d
00000090: 938c 043d f8ad 843d 4343 4a3c 02a6 1bbd
000000a0: 9481 283b 7446 9abc 3e79 82bd f273 63bb
000000b0: 0a69 a1bd 1627 18bd b2f0 843a 7b24 983d
000000c0: a95b 903d a656 8ebc 75a4 9f3d d6a5 b1bc
000000d0: 6298 4ebd 49fb f93b c6e4 96bd 64f2 093d
000000e0: ce23 16bd 4643 eabc 9442 1e3d 40ac 5abd
000000f0: 8cf0 9ebd 30c6 a0bd e911 7abc bb02 76bc

compliance_head.2.weight f4 [1, 64]
-0.052859142 0.11474654 0.001363799 -0.10624677 -0.016623229 0.02035968 0.08452007 -0.0048472583
0.0018019974 -0.052888587 0.06652981 0.12097125 -0.039353654 0.001044333 0.08239053 -0.020625085
-0.11342633 -0.0035969466 0.07423502 0.054032832 0.08284968 -0.07459025 0.01453802 -0.10702856
0.07862781 0.09385653 0.09960267 -0.054440066 0.08858484 0.069747865 0.04962915 0.113113135
0.080790594 0.12190215 0.07551706 0.036279365 -0.0830985 -0.033620253 -0.10098763 0.055188283
0.100085005 0.10399592 0.121907145 0.032193437 0.1208224 0.11836189 -0.07365528 0.05596277
0.0911465 0.068643674 -0.01751569 -0.005738169 -0.098203376 -0.11683506 -0.006963864 0.043554872
0.085234076 0.08636023 -0.029790476 0.11869851 -0.002576232 0.018445656 0.027144745 0.08705108
00000000: d482 58bd 3c00 eb3d 80c1 b23a e897 d9bd
00000010: 702d 88bc 58c9 a63c dc18 ad3d c0d5 9ebb
00000020: 0031 ec3a b4a1 58bd c840 883d c6bf f73d
00000030: 4c31 21bd 00e2 883a 5ebc a83d f0f5 a8bc
00000040: 104c e8bd c0ba 6bbb 8808 983d 8851 5d3d
00000050: 18ad a93d c6c2 98bd e030 6e3c ca31 dbbd
00000060: 9e07 a13d da37 c03d 7cfc cb3d 8cfc 5ebd
00000070: f86b b53d f8d7 8e3d f047 4b3d dca7 e73d
00000080: 8a75 a53d d6a7 f93d b0a8 9a3d ac99 143d
00000090: 8c2f aabd 64b5 09bd 9ad2 cebd 1c0d 623d
000000a0: 5ef9 cc3d d0fb d43d 74aa f93d 44dd 033d
000000b0: bc71 f73d b867 f23d 94d8 96bd 3839 653d
000000c0: 04ab ba3d 0e95 8c3d 107d 8fbc 4007 bcbb
000000d0: da1e c9bd 3847 efbd 2031 e4bb 9866 323d
000000e0: 348f ae3d a2dd b03d 280b f4bc 3418 f33d
000000f0: 00d6 28bb 581b 973c a85e de3c d647 b23d

violation_head.0.weight f4 [64, 128]
0.03332444 -0.007371484 -0.0262609 0.018796884 0.0034951959 -0.029530548 0.037461214 0.04533216
-0.01107753 0.009217284 0.059184954 0.0026686857 0.030120919 -0.019965762 0.023758873 0.057749644
-0.02614527 -0.082072735 -0.0064955982 0.020151008 -0.08785408 -0.048230335 0.08173987 -0.086703755
0.017668517 0.010183658 0.06339195 -0.001031228 0.022527322 -0.074058965 0.060957428 0.028268775
0.0016774867 0.06238766 0.076198496 0.076252244 -0.027616607 0.06398298 -0.0851093 0.08154052
-0.035541035 -0.060997773 0.0068196235 0.055574622 -0.054354694 -0.059805546 0.07945021 -0.0017716216
0.060317006 -0.06419741 0.06730348 0.08113038 -0.054500267 0.07139651 0.06201419 -0.016502345
0.0072300388 0.083340906 -0.053997993 0.02784696 0.002512753 0.08679021 0.009672227 0.023799757
-0.04576581 0.07992374 -0.078521065 0.085223824 0.022463975 0.0095627615 -0.016681217 -0.036201246
-0.017982585 -0.0738334 0.07520435 0.039485898 -0.041124627 -0.0015423007 0.008385252 0.055357765
0.03872975 0.015769443 0.06996627 0.013661437 0.054924864 -0.023998415 0.01492304 -0.06445303
0.023763068 0.06992747 0.05707014 0.06496388 0.049764417 0.059424885 -0.057589233 -0.025359916
0.008912499 -0.080509044 -0.017092602 -0.049993318 0.036278214 -0.07241028 0.07261247 -0.04919241
-0.034303054 -0.019935733 0.058399346 -0.0071522673 0.06147459 -0.049307946 -0.008346972 0.018385025
-0.024379823 0.019612836 -0.072528005 -0.037856992 -0.022182897 -0.053694874 0.053582743 -0.08454031
-0.004993021 0.067545444 -0.026171707 0.07176793 -0.07330256 -0.03703082 0.06055873 -0.022324204
-0.061894175 0.066830605 -0.07106197 0.04633697 -0.07679003 0.045144618 -0.07779719 0.03800374
-0.030888097 0.046551827 -0.057712153 0.03999242 -0.0061702565 -0.044201076 -0.023529025 -0.003626557
-0.060528036 0.084097035 0.011807365 0.07822141 0.006832594 -0.045473088 -0.0036434475 0.0005120737
-0.06594926 -0.054712467 -0.008759474 -0.0028991657 -0.021436362 0.07144642 0.06907472 0.05706247
0.08027767 -0.019636227 -0.031299926 0.04680668 -0.07400066 0.0017746562 -0.054125942 0.07206656
-0.05182384 0.050931726 0.024728736 -0.009941799 -0.0012224588 -0.01578763 0.000539859 0.07196619
-0.051573 -0.033990096 0.023735093 0.067239925 0.01001427 0.0140985735 -0.009867314 0.0048132963
-0.052528165 0.0693656 -0.04142581 -0.025484797 -0.033394087 -0.009535798 0.03614854 0.06491046
0.032497022 0.06501208 -0.0324903 0.0140760355 0.0054469216 -0.030713156 -0.067587025 -0.0035214429
-0.08454213 -0.024722846 0.044566013 0.018042075 0.017025262 -0.049473856 -0.045851693 0.019523831
-0.08592275 -0.06444024 -0.066454165 0.08318192 -0.049008332 0.041998956 -0.061974853 0.06822316
0.080441356 -0.05103096 0.070486315 0.02682139 0.039118893 -0.07255443 0.036145873 0.011942889
0.008292487 -0.05990239 -0.07783509 -0.078486204 0.07241893 -0.029288623 0.03862984 -0.06326577
0.04028205 -0.014786432 0.014545857 -0.02177576 -0.024115236 -0.07872121 -0.07489561 0.065501094
0.0005930799 0.07617323 0.013179751 -0.057297576 0.02912893 -0.01580985 -0.01410085 -0.06008029
-0.00639531 0.010928846 0.024828508 -0.015920961 -0.029800182 0.018630635 -0.03898848 -0.040759217
00000000: 357f 083d 7d8c f1bb 1921 d7bc ecfb 993c
00000010: a80f 653b 0cea f1bc ee70 193d 37ae 393d
00000020: 877e 35bc 1704 173c ec6b 723d 1ee5 2e3b
00000030: 25c0 f63c 3d8f a3bc f8a1 c23c e48a 6c3d
00000040: 9b2e d6bc c015 a8bd 07d9 d4bb ba13 a53c
00000050: d7ec b3bd 2c8d 45bd 3c67 a73d bd91 b1bd
00000060: 91bd 903c 5cd9 263c a4d3 813d 452a 87ba
00000070: 388b b83c 3aac 97bd 7fae 793d eb93 e73c
00000080: 1ddf db3a 348a 7f3d f50d 9c3d 232a 9c3d
00000090: 393c e2bc 8209 833d c94d aebd b7fe a63d
000000a0: 7a93 11bd cdd8 79bd 2677 df3b 37a2 633d
000000b0: 07a3 5ebd a9f6 74bd cbb6 a23d c235 e8ba
000000c0: f70e 773d ef79 83bd 68d6 893d af27 a63d
000000d0: ac3b 5fbd 5538 923d 9702 7e3d ed2f 87bc
000000e0: f6e9 ec3b a3ae aa3d 002d 5dbd 4f1f e43c
000000f0: 00ad 243b 11bf b13d 4378 1e3c b5f7 c23c
00000100: ee74 3bbd 0faf a33d a7cf a0bd d489 ae3d
00000110: 5f06 b83c 21ad 1c3c 0ca7 88bc c247 14bd
00000120: 3750 93bc f735 97bd bd04 9a3d f7bb 213d
00000130: 4c72 28bd 0627 caba 4c62 093c d3be 623d
00000140: 16a3 1e3d eb2e 813c 7a4a 8f3d 38d4 5f3c
00000150: e5f8 603d 5398 c4bc c47f 743c f3ff 83bd
00000160: c4aa c23c 2236 8f3d 61c2 693d c80b 853d
00000170: c6d5 4b3d 8267 733d b0e2 6bbd 99bf cfbc
00000180: bb05 123c ede1 a4bd c905 8cbc cbc5 4cbd
00000190: 7798 143d d74b 94bd d9b5 943d fb7d 49bd
000001a0: 5c81 0cbd 4350 a3bc 2734 6f3d 915d eabb
000001b0: c8cc 7b3d 21f7 49bd bdc1 08bc 319c 963c
000001c0: 32b8 c7bc 19ab a03c 9089 94bd ef0f 1bbd
000001d0: e8b8 b5bc 28ef 5bbd 9479 5b3d 7823 adbd
000001e0: 7f9c a3bb 4455 8a3d 0c66 d6bc 11fb 923d
000001f0: a71f 96bd a1ad 17bd 6e0c 783d 40e1 b6bc
00000200: bf84 7dbd 7cde 883d f088 91bd d6cb 3d3d
00000210: 1744 9dbd 90e9 383d 2254 9fbd cfa9 1b3d
00000220: 0909 fdbc 21ad 3e3d 9463 6cbd 17cf 233d
00000230: dd2f cabb 300c 35bd f1bf c0bc 88ab 6dbb
00000240: 3fec 77bd 113b ac3d ae73 413c 8c32 a03d
00000250: f4e3 df3b fd41 3abd e8c6 6ebb af3c 063a
00000260: 6810 87bd 2e1a 60bd e683 0fbc eeff 3dbb
00000270: 4f9b afbc 8052 923d 0c77 8d3d 56ba 693d
00000280: 9e68 a43d 27dc a0bc 5a34 00bd 5cb8 3f3d
00000290: a88d 97bd 959b e83a 2ab3 5dbd a297 933d
000002a0: 3c45 54bd c99d 503d eb93 ca3c ede2 22bc
000002b0: e93a a0ba 0f55 81bc 5385 0d3a 0363 933d
000002c0: 363e 53bd 3339 0bbd 1970 c23c 16b5 893d
000002d0: e512 243c b4fd 663c 84aa 21bc dbb8 9d3b
000002e0: c627 57bd 8d0f 8e3d 1cae 29bd 7ec5 d0bc
000002f0: 3dc8 08bd 093c 1cbc 7e10 143d c6ef 843d
00000300: 991b 053d 0e25 853d 8c14 05bd 2c9f 663c
00000310: 177c b23b 289a fbbc 116b 8abd 02c8 66bb
00000320: 6d24 adbd 9187 cabc da8a 363d f9cc 933c
00000330: 9078 8b3c 19a5 4abd fcce 3bbd 71f0 9f3c
00000340: 44f8 afbd 3ff9 83bd 1f19 88bd 485b aa3d
00000350: f6bc 48bd 1907 2c3d 58d9 7dbd 96b8 8b3d
00000360: 70be a43d d705 51bd 215b 903d 88b8 db3c
00000370: 223b 203d 6b97 94bd b20d 143d 1bac 433c
00000380: 36dd 073c 355c 75bd 0168 9fbd 60bd a0bd
00000390: 6050 943d b2ee efbc 533a 1e3d 7c91 81bd
000003a0: cafe 243d ca42 72bc bf51 6e3c 1463 b2bc
000003b0: 518d c5bc 9638 a1bd df62 99bd 7025 863d
000003c0: eb78 1b3a b600 9c3d e2ef 573c ddb0 6abd
000003d0: cb9f ee3c a983 81bc 4007 67bc c016 76bd
000003e0: c08f d1bb e70e 333c 2865 cb3c ad6c 82bc
000003f0: 831f f4bc 469f 983c 62b2 1fbd 23f3 26bd

violation_head.0.bias f4 [64]
-0.05484092 -0.015698826 -0.0042347466 -0.066483185 0.058278333 -0.02422937 -0.03153311 -0.02365101
-5.5739205e-05 0.08477564 -0.007203613 0.057508573 -0.078601636 -0.055583496 0.058665134 -0.045396518
-0.018938033 -0.059264917 -0.012815223 -0.077167675 -0.04131744 -0.0827547 -0.06616508 0.07477364
0.067981705 0.034409445 0.075194 -0.025378272 -0.03989348 0.0848537 -0.07197201 0.033167798
0.03454088 0.08299529 -0.07376936 0.047717366 0.0065826 -0.08806487 0.0704873 0.038120802
0.08329509 -0.015814763 -0.0353792 -0.035366546 -0.06857995 0.0031270643 0.061437335 -0.06227305
0.0049786386 -0.022489231 0.07708082 0.02368305 0.08102353 -0.03453582 0.057644643 -0.06302608
-0.05072785 0.030267484 0.032469034 0.004239214 -0.076846115 -0.07160149 -0.041798726 0.032212984
00000000: dfa0 60bd d39a 80bc a1c3 8abb 5628 88bd
00000010: 43b5 6e3d ac7c c6bc dd28 01bd c3bf c1bc
00000020: 84c9 69b8 da9e ad3d 490c ecbb 1c8e 6b3d
00000030: e5f9 a0bd 85ab 63bd da4a 703d b3f1 39bd
00000040: ef23 9bbc c5bf 72bd f1f6 51bc 160a 9ebd
00000050: 7a3c 29bd 4c7b a9bd 8f81 87bd ec22 993d
00000060: fe39 8b3d ebf0 0c3d 50ff 993d 18e6 cfbc
00000070: 5867 23bd c7c7 ad3d 1066 93bd f5da 073d
00000080: bd7a 0d3d 6ff9 a93d 6414 97bd 4973 433d
00000090: dab2 d73b 5b5b b4bd a55b 903d 8f24 1c3d
000000a0: 9e96 aa3d f68d 81bc c8e9 10bd 83dc 10bd
000000b0: a573 8cbd 6fef 4c3b b7a5 7b3d 0712 7fbd
000000c0: d923 a33b 563b b8bc 8ddc 9d3d f502 c23c
000000d0: aaef a53d 6f75 0dbd ca1c 6c3d d113 81bd
000000e0: 02c8 4fbd 84f3 f73c 40fe 043d 1be9 8a3b
000000f0: 7f61 9dbd cda3 92bd 2435 2bbd c3f1 033d

violation_head.2.weight f4 [5, 64]
0.12313561 0.038747087 -0.11445691 -0.056933403 0.014307782 -0.12350869 -0.11744611 0.064399526
0.10982977 0.010203958 -0.1219881 -0.08533275 -0.0038155317 -0.0800702 0.07959774 -0.038591996
-0.118065104 -0.0014601052 0.10416077 0.09955542 -0.017537564 0.10888323 0.03142865 -0.051460266
0.06042093 0.0621465 0.08733466 0.10513757 -0.060767338 -0.02936779 -0.019386888 0.11170927
-0.034409195 -0.11742206 -0.044152796 0.0952491 0.100183606 -0.118833855 -0.08508992 0.07417287
0.059844375 -0.014485329 -0.067227334 0.085729495 -0.11533205 -0.107354164 -0.016196594 -0.118169785
0.012895495 0.06675506 0.12328251 0.004730895 0.0023269653 -0.0126309395 -0.032095626 0.08792849
-0.116063595 0.08988586 -0.012108713 -0.12120892 0.025078341 0.02405037 0.04480201 0.0062472075
-0.06712361 0.10553157 -0.020338684 -0.07884124 0.053354815 -0.023489565 -0.03371395 -0.1194125
0.05271186 0.015582472 0.049153224 -0.0044057816 0.047347993 -0.118013576 0.012267038 -0.053559914
0.11920285 0.060199186 -0.057205394 -0.058582276 -0.04277377 -0.00059327483 -0.00017772615 -0.039054364
-0.12279236 -0.007542461 0.11811477 0.06070681 -0.023320869 -0.0015113503 -0.009495541 0.12224297
-0.09463018 -0.07153809 -0.07949422 0.03163609 -0.12298037 -0.040217012 0.02315171 0.07646786
0.1164795 0.11660582 0.0875355 -0.031719983 0.056176797 0.12381613 -0.0679591 -0.044892386
0.068543285 -0.05974248 -0.012639716 0.06684497 -0.04310906 0.0038910806 -0.016978934 0.09263854
0.06529561 0.00323838 0.11410259 -0.049651623 -0.09934762 0.12342131 -0.07522273 0.062658906
-0.06903565 -0.08745521 -0.04791251 -0.043851107 0.03842151 -0.006338939 -0.012590662 -0.04864931
-0.06532997 0.11110698 0.08998306 0.04624498 -0.043440476 0.08621515 0.1101751 0.06575993
-0.044803515 -0.10864313 0.12218812 0.04816574 -0.010501429 0.02151595 -0.046636462 -0.039553657
-0.091787696 0.036370397 -0.10425897 0.107805625 -0.018755719 0.06066978 -0.06398152 0.012370959
-0.0958785 -0.038264006 0.034735695 0.031046838 0.0696803 -0.10226388 0.07495929 -0.022175148
0.05425529 -0.039467096 -0.090945765 0.04271181 0.09273636 -0.06680797 -0.08421351 -0.04827775
-0.020953521 -0.035006866 0.023965731 0.076742455 0.09627713 -0.055977672 -0.10719338 0.11643869
-0.09089433 0.092306465 -0.010235131 0.048757195 0.11914335 -0.0042496473 0.11393076 -0.02083984
-0.08519837 0.030129865 -0.1009157 -0.05521652 0.09483676 0.0951764 -0.01844187 -0.04584904
-0.0024789274 -0.05528958 -0.0415958 -0.11235729 0.014650524 -0.10407135 0.0048343837 0.07343407
-0.045526862 -0.08031216 -0.10037355 -0.0553222 -0.075596154 -0.050347403 0.09350853 -0.07291527
-0.017082915 0.06261237 -0.04394923 -0.0257207 0.1201791 0.045027897 0.0014951527 0.08922391
0.0017382652 0.070941195 -0.013315693 -0.06541392 -0.02606076 -0.0033897161 0.06679803 0.027074933
-0.034816995 0.011700451 -0.10176712 -0.06623392 -0.062080264 0.0764409 -0.09722935 -0.077521324
0.011105835 -0.06669213 -0.05115661 0.031344637 -0.08152945 0.10070729 0.07397276 -0.014883146
0.059467927 -0.0781513 -0.08555941 0.099436 0.041286662 -0.06809747 0.10662949 0.07117388
00000000: 862e fc3d 44b5 1e3d 6268 eabd 0033 69bd
00000010: 306b 6a3c 20f2 fcbd 9687 f0bd e6e3 833d
00000020: 6eee e03d 802e 273c e6d4 f9bd f0c2 aebd
00000030: 000e 7abb d8fb a3bd 2404 a33d a412 1ebd
00000040: 1ecc f1bd 0061 bfba 3e52 d53d b6e3 cb3d
00000050: f0aa 8fbc 2cfe de3d 54bb 003d 00c8 52bd
00000060: f07b 773d 548d 7e3d 84dc b23d 5e52 d73d
00000070: 2ce7 78bd b894 f0bc 40d1 9ebc d4c7 e43d
00000080: a8f0 0cbd fa7a f0bd 90d9 34bd f611 c33d
00000090: 102d cd3d 2a5f f3bd a043 aebd f2e7 973d
000000a0: 601f 753d e053 6dbc 7cae 89bd f292 af3d
000000b0: 3633 ecbd 80dc dbbd b8ae 84bc 0003 f2bd
000000c0: a047 533c e0b6 883d 8a7b fc3d a005 9b3b
000000d0: 0080 183b 00f2 4ebc b476 03bd da13 b43d
000000e0: c0b2 edbd 1416 b83d a063 46bc 623c f8bd
000000f0: 1871 cd3c 4805 c53c 5082 373d 60b5 cc3b
00000100: 1a78 89bd f020 d83d 509d a6bc 8477 a1bd
00000110: 948a 5a3d 306d c0bc a417 0abd 8a8e f4bd
00000120: 64e8 573d a04d 7f3c e454 493d 605e 90bb
00000130: f8ef 413d 1ab1 f1bd b0fb 483c a461 5bbd
00000140: a020 f43d 6c93 763d 3450 6abd f8f3 6fbd
00000150: 8c33 2fbd 0086 1bba 005c 3ab9 78f7 1fbd
00000160: 907a fbbd c026 f7bb 28e6 f13d b4a7 783d
00000170: 680b bfbc 8018 c6ba 3093 1bbc 865a fa3d
00000180: 78cd c1bd 9082 92bd decd a2bd d894 013d
00000190: 22dd fbbd 98ba 24bd a8a8 bd3c 2e9b 9c3d
000001a0: ce8c ee3d 08cf ee3d d045 b33d d0ec 01bd
000001b0: a419 663d 5093 fd3d 242e 8bbd 14e1 37bd
000001c0: 6c60 8c3d 88b4 74bd d016 4fbc 04e6 883d
000001d0: 2093 30bd 8001 7f3b 6817 8bbc 46b9 bd3d
000001e0: b4b9 853d 003b 543b 9eae e93d 805f 4bbd
000001f0: c476 cbbd 50c4 fc3d 600e 9abd 5053 803d
00000200: 9062 8dbd b81b b3bd e83f 44bd 389d 33bd
00000210: e05f 1d3d e0b6 cfbb 1049 4ebc 8044 47bd
00000220: b8cb 85bd 0e8c e33d 0a49 b83d 606b 3d3d
00000230: a4ee 31bd 9291 b03d 7ca3 e13d 24ad 863d
00000240: e483 37bd 4a80 debd c43d fa3d 7049 453d
00000250: 300e 2cbc 3842 b03c e005 3fbd 0403 22bd
00000260: 30fb bbbd 20f9 143d ba85 d5bd 32c9 dc3d
00000270: 98a5 99bc e080 783d be08 83bd 90af 4a3c
00000280: f25b c4bd b8ba 1cbd 0447 0e3d f055 fe3c
00000290: 8cb4 8e3d ba6f d1bd 4284 993d a8a8 b5bc
000002a0: cc3a 5e3d 40a8 21bd c641 babd 94f2 2e3d
000002b0: 90ec bd3d 9ed2 88bd 2278 acbd e4be 45bd
000002c0: b8a6 abbc 5c63 0fbd c853 c43c 262b 9d3d
000002d0: f22c c53d d848 65bd 3488 dbbd 6877 ee3d
000002e0: ce26 babd 2c0b bd3d 40b1 27bc a0b5 473d
000002f0: 6e01 f43d a040 8bbb 8854 e93d 50b8 aabc
00000300: 7c7c aebd e8d2 f63c e4ac cebd b82a 62bd
00000310: c639 c23d d8eb c23d 6813 97bc 34cc 3bbd
00000320: 8075 22bb 5477 62bd 5c60 2abd 941b e6bd
00000330: c008 703c 5c23 d5bd c069 9e3b 9a64 963d
00000340: 607a 3abd b47a a4bd a690 cdbd 8899 62bd
00000350: 28d2 9abd 1439 4ebd 6681 bf3d 9a54 95bd
00000360: 78f1 8bbc ea3a 803d 1c04 34bd 38b4 d2bc
00000370: 7620 f63d 2c6f 383d 00f9 c33a 06bb b63d
00000380: 80d6 e33a 9e49 913d 102a 5abc bcf7 85bd
00000390: 607d d5bc 0026 5ebb 68cd 883d 40cc dd3c
000003a0: 449c 0ebd 40b3 3f3c 486b d0bd a6a5 87bd
000003b0: e047 7ebd 0c8d 9c3d 2e20 c7bd 80c3 9ebd
000003c0: 40f5 353c e295 88bd 9889 51bd 3c63 003d
000003d0: eaf8 a6bd a03f ce3d 087f 973d 70d8 73bc
000003e0: a494 733d ca0d a0bd c639 afbd 1aa5 cb3d
000003f0: 341c 293d b076 8bbd 9060 da3d 9cc3 913d

violation_head.2.bias f4 [5]
-0.0921402 0.04253696 0.11949609 -0.079908684 0.12484498
00000000: 00b4 bcbd 3c3b 2e3d 5eba f43d 2aa7 a3bd
00000010: baae ff3d

confidence_head.0.weight f4 [64, 128]
-0.013616983 0.022721607 -0.053381354 -0.0042752814 -0.05919981 0.07999827 0.05059527 -0.036772892
0.020685673 -0.012004171 0.06958752 0.019937335 -0.01052823 0.014503753 -0.07746174 -0.009650417
-0.08781697 -0.002541065 -0.05123417 0.0067670243 -0.010910312 0.036151923 0.055809107 -0.04917043
-0.07538524 -0.0129377125 -0.0017617593 -0.02216825 0.009621683 0.0082428595 0.05146016 -0.018153258
-0.0016568031 -0.07921451 0.03952913 0.014355617 0.0029925948 -0.05213742 0.08027605 -0.010671192
-0.018904379 0.02599822 0.08563915 0.0715095 0.06078689 0.03187325 0.031247599 0.02565152
0.011671336 -0.07005555 0.018262988 0.027818479 0.012525168 -0.0779302 -0.047392108 -0.02805273
-0.0043814704 0.041997902 0.0032440745 0.011705286 -0.07015829 0.054611072 0.05084464 -0.023235535
0.010167379 -0.027232511 -0.018766696 -0.08171632 0.07512424 -0.03794579 -0.0051259627 -0.025371496
0.05611361 0.013925065 0.027488163 -0.059348 -0.028272863 -0.06052361 -0.039705355 0.07572026
-0.061610736 -0.08390807 -0.06135637 -0.010402759 0.036409494 -0.08294774 0.021015061 0.0011082408
-0.038537823 -0.023808522 -0.032002114 0.086170465 -0.019918052 0.056779012 0.015121056 0.038323972
-0.07735981 0.068483226 -0.009726091 0.026774207 -0.038925912 0.066448085 -0.005877009 0.05322602
-0.052355394 0.0319546 -0.034658723 -0.04547956 0.08519976 -0.08183542 0.03628617 -0.06647229
-0.08202539 0.0014684278 0.05711936 0.0052090236 0.07639973 -0.0011018661 -0.05863048 -0.058496863
0.0117822355 -0.018064255 0.0013526503 -0.003549028 0.08687863 -0.08230287 0.04997103 -0.0040440955
0.05574522 0.029424727 -0.082296714 0.02239499 0.08357743 -0.04002133 -0.026965195 0.04229784
0.02903253 -0.059387162 0.02787738 0.02317948 0.01233065 -0.084230885 0.032817926 -0.011927136
0.029365037 0.011333793 0.016661165 0.041012697 0.0055119647 -0.072760895 0.0189582 -0.0062057124
0.07755168 -0.0765695 -0.05494534 0.051120546 0.005087567 0.0027967172 0.07054561 0.0035431064
0.035179615 0.08618474 0.03572678 0.03334098 -0.028724352 0.075611606 0.021263728 -0.05776451
-0.06488276 0.025009023 0.05974249 -0.06741986 -0.04485046 -0.0068490524 0.04097567 0.026051188
0.024520688 0.038682915 0.077968515 -0.062466033 -0.073024586 -0.0019571942 -0.023613773 0.064491846
0.016352534 -0.07898145 0.07435565 0.08635238 0.0072172577 -0.0018537553 0.047744192 0.015197553
-0.05103504 -0.07306631 0.0061538825 0.007719648 -0.03225104 0.017330067 -0.07611694 0.02091786
-0.0740979 -0.0606133 0.0030149852 -0.013969678 -0.07776819 0.026535539 0.08306231 0.054999888
-0.065858915 -0.02048991 0.03642596 -0.013029224 -0.061931968 0.02639109 0.017330341 -0.086044915
0.06612817 -0.042460073 -0.060714368 -0.0048542 0.047675736 0.03170273 -0.005706947 0.048808917
-0.05139962 -0.06358454 0.06401571 0.013964936 0.012471137 0.026613595 0.024309427 0.019762393
0.02126397 -0.0020284855 -0.028315296 0.021640005 -0.046432983 0.004417864 -0.04690548 -0.059595726
-0.0057453215 0.03591378 0.07752118 -0.06347895 -0.04379089 -0.037013836 -0.035632696 0.07176506
-0.025281692 0.0875298 -0.040362075 -0.028076049 0.06767435 -0.010806547 -0.04184198 -0.008981346
00000000: c419 5fbc aa22 ba3c 68a6 5abd a917 8cbb
00000010: 807b 72bd 22d6 a33d fc3c 4f3d 2c9f 16bd
00000020: 0075 a93c 24ad 44bc e783 8e3d 9f53 a33c
00000030: 997e 2cbc 26a1 6d3c 43a4 9ebd c81c 1ebc
00000040: 62d9 b3bd ff87 26bb ecda 51bd eabd dd3b
00000050: 2ac1 32bc 0a14 143d 1798 643d ef66 49bd
00000060: 9463 9abd b3f8 53bc d5ea e6ba 319a b5bc
00000070: 43a4 1d3c 0f0d 073c e4c7 523d 24b6 94bc
00000080: 1629 d9ba 383b a2bd 4ce9 213d d233 6b3c
00000090: 691f 443b 0c8e 55bd c567 a43d 39d6 2ebc
000000a0: 5bdd 9abc 38fa d43c 9463 af3d 9373 923d
000000b0: adfb 783d 868d 023d f7fa ff3c 2323 d23c
000000c0: 2239 3f3c 4979 8fbd 439c 953c 94e3 e33c
000000d0: 5d36 4d3c de99 9fbd 3a1e 42bd d7ce e5bc
000000e0: 7092 8fbb fe05 2c3d 8a9a 543b 87c7 3f3c
000000f0: 26af 8fbd dcaf 5f3d 7842 503d 7358 bebc
00000100: 1495 263c b716 dfbc 9dbc 99bc e35a a7bd
00000110: bdda 993d 0b6d 1bbd b1f7 a7bb e2d7 cfbc
00000120: 62d7 653d f525 643c db2e e13c e316 73bd
00000130: 7e9c e7bc 9be7 77bd 15a2 22bd 3913 9b3d
00000140: 8a5b 7cbd ffd7 abbd d150 7bbd 5570 2abc
00000150: 1f22 153d 81e0 a9bd c727 ac3c 6442 913a
00000160: d6d9 1dbd 170a c3bc a614 03bd 247a b03d
00000170: 2f2b a3bc 1c91 683d 4ebe 773c 99f9 1c3d
00000180: d26e 9ebd ef40 8c3d 2f5a 1fbc 9555 db3c
00000190: c770 1fbd ef15 883d ed93 c0bb 8703 5a3d
000001a0: 9c72 56bd d4e2 023d 4ef6 0dbd c648 3abd
000001b0: 367d ae3d 5499 a7bd cfa0 143d a022 88bd
000001c0: edfc a7bd 4378 c03a fdf5 693d 75b0 aa3b
000001d0: 7677 9c3d 7e6c 90ba 8426 70bd 689a 6fbd
000001e0: 470a 413c 7dfb 93bc 6a4b b13a cf96 68bb
000001f0: 6ced b13d 688e a8bd 6cae 4c3d 5584 84bb
00000200: 1a55 643d 200c f13c 2e8b a8bd b375 b73c
00000210: a52a ab3d 68ed 23bd 1de6 dcbc 8040 2d3d
00000220: a1d5 ed3c f43f 73bd 1a5f e43c e5e2 bd3c
00000230: 7f06 4a3c 3e81 acbd 176c 063d 096a 43bc
00000240: f28e f03c 60b1 393c ff7c 883c eefc 273d
00000250: b69d b43b aa03 95bd 3a4e 9b3c 4a59 cbbb
00000260: 6ad3 9e3d 78d0 9cbd 5d0e 61bd c763 513d
00000270: 9bb5 a63b 2149 373b 377a 903d 7633 683b
00000280: 8018 103d a081 b03d 3e56 123d 8d90 083d
00000290: 554f ebbc 42da 9a3d 4531 ae3c 7b9a 6cbd
000002a0: 41e1 84bd b9df cc3c 8bb4 743d 6c13 8abd
000002b0: 1eb5 37bd 046e e0bb 1bd6 273d 4d69 d53c
000002c0: 9cdf c83c fa71 1e3d f5ad 9f3d 62dc 7fbd
000002d0: ea8d 95bd 4544 00bb ac71 c1bc 4d14 843d
000002e0: c0f5 853c 07c1 a1bd c647 983d 84d9 b03d
000002f0: bf7e ec3b b5f9 f2ba 6a8f 433d 28ff 783c
00000300: 1e0a 51bd caa3 95bd 82a6 c93b 1af5 fc3b
00000310: ab19 04bd c9f7 8d3c 33e3 9bbd ef5b ab3c
00000320: a4c0 97bd a745 78bd 0f97 453b 14e1 64bc
00000330: ee44 9fbd 0f61 d93c 931c aa3d 9047 613d
00000340: 0ae1 86bd 75da a7bc 6333 153d 8778 55bc
00000350: 60ac 7dbd 2132 d83c 5cf8 8d3c 5138 b0bd
00000360: 356e 873d 9dea 2dbd a1af 78bd fb0f 9fbb
00000370: a247 433d b9da 013d 5701 bbbb dceb 473d
00000380: 6888 52bd 9c38 82bd ab1a 833d 30cd 643c
00000390: bd53 4c3c c104 da3c 9024 c73c bee4 a13c
000003a0: c731 ae3c 57f0 04bb 7bf5 e7bc 6146 b13c
000003b0: 8330 3ebd bbc3 903b f61f 40bd a61a 74bd
000003c0: 4043 bcbb 541a 133d 6dc3 9e3d 4001 82bd
000003d0: 145e 33bd d29b 17bd 97f3 11bd 8ff9 923d
000003e0: 8d1b cfbc d342 b33d b452 25bd beff e5bc
000003f0: da98 8a3d f10d 31bc 7f62 2bbd 7f26 13bc
