models/game_theory.onnx (onnx, 278732 bytes, 17 tensors)

adversary_encoder.encoder.0.weight f4 [128, 16]
0	0xbe5b0940	-0.21390247
1	0xbe6a0bd4	-0.22856075
2	0x3e3541ce	0.17700884
3	0x3c2dd920	0.010610849
4	0x3dfa40f0	0.12219417
5	0x3c5dcaa0	0.013537079
6	0x3e3253aa	0.17414728
7	0x3dc04c64	0.0938957
8	0xb9c52400	-0.0003760159
9	0x3ce54ca0	0.02799064
10	0x3e55fba4	0.20896775
11	0xbe493164	-0.19647747
12	0x3d8f1998	0.069873035
13	0x3d256208	0.040376693
14	0xbe1661f0	-0.14685798
15	0xbd42dd68	-0.04757443
16	0xbdd426cc	-0.103589624
17	0xbb76cc80	-0.0037658513
18	0xbe45d19e	-0.19318244
19	0x3dd2e1bc	0.10296962
20	0x3e413da6	0.18871173
21	0xbe00e0e0	-0.12585783
22	0x3d74abc0	0.059734106
23	0xbc4e9320	-0.0126083195
24	0xbd15a7e8	-0.03653708
25	0x3c0effe0	0.008727998
26	0x3e23b3aa	0.15986505
27	0xbe23fa34	-0.16013414
28	0x3e7636a0	0.24044275
29	0x3da18cf4	0.07888213
30	0x3e1053a2	0.14094403
31	0x3dbf7d64	0.09350088
32	0x3d20fb10	0.03930193
33	0x3e6bab44	0.23014551
34	0xbe64363e	-0.22286317
35	0x3d91c0f8	0.07116884
36	0x3dbf35a8	0.09336406
37	0x3e2caec8	0.16863549
38	0x3e3cb9c6	0.18430242
39	0x3db60114	0.088869244
40	0xbdffb9f0	-0.12486637
41	0xbc66a2c0	-0.014076889
42	0xbe156ae4	-0.14591557
43	0xbde078bc	-0.10960528
44	0xbdcd56ec	-0.10026345
45	0xbdeea550	-0.116526246
46	0x3e0c79e4	0.13718373
47	0xbd871d2c	-0.06597361
48	0x3e474fee	0.19464085
49	0xbe401a70	-0.18760085
50	0x3cfd13c0	0.030893207
51	0x3de9f408	0.114234984
52	0x3d5ef070	0.054428518
53	0x3ad34800	0.001611948
54	0x3d8cb1b0	0.06869829
55	0x3e2bc5c2	0.16774657
56	0xbe7f74ae	-0.24946854
57	0xbd4c1770	-0.04982704
58	0xbe78d88a	-0.24301353
59	0xbe66085a	-0.22464123
60	0xbd060ec0	-0.03272891
61	0xbe22294e	-0.15836069
62	0xbc2ecf80	-0.010669589
63	0x3e72b8d6	0.23703322
64	0x3e5ce582	0.21571925
65	0x3e32c09c	0.17456287
66	0xbe7880f0	-0.24267936
67	0x3e039c40	0.12852573
68	0xbe496c38	-0.19670188
69	0x3e7e5578	0.24837291
70	0x3e6bb88e	0.23019621
71	0x3da940e0	0.08264327
72	0x3e0179aa	0.12644067
73	0x3ccff850	0.02538696
74	0xbbb9da00	-0.0056717396
75	0xbdeb2080	-0.11480808
76	0x3d9d0ce8	0.07668477
77	0xbe157c6c	-0.14598244
78	0x3c6320c0	0.013862789
79	0xbca088f0	-0.019596547
80	0x3e350724	0.17678505
81	0x3e2431e4	0.16034657
82	0xbe55020a	-0.20801559
83	0x3e19b116	0.15008959
84	0x3d993b70	0.0748204
85	0xbe62c924	-0.22147042
86	0x3e587c9a	0.21141282
87	0xb9d87400	-0.00041285157
88	0x3df572ac	0.119847625
89	0x3d6c08a8	0.057625443
90	0x3d5893a8	0.05287519
91	0x3dff0674	0.12452403
92	0xbd7be720	-0.061499715
93	0xbe41f1f0	-0.18939948
94	0x3d134c88	0.035961658
95	0xbd9484a0	-0.07251859
96	0x3e009abe	0.1255903
97	0x3e65295c	0.22379059
98	0x3a5dcc00	0.00084608793
99	0xbd8ef694	-0.06980625
100	0x3dc5fe38	0.09667629
101	0x3ddd36f4	0.10801497
102	0x3c354d40	0.011065781
103	0xbcac25e0	-0.021014154
104	0x3e7eb874	0.24875051
105	0x3d22b638	0.03972456
106	0xbdc06738	-0.093946874
107	0xbe19c93c	-0.15018171
108	0xba306800	-0.00067293644
109	0x3e1eb330	0.15498042
110	0xbe530670	-0.20607924
111	0x3e2caf14	0.16863662
112	0xbe5af992	-0.21384266
113	0xbd861060	-0.06546092
114	0xbe1969fa	-0.14981833
115	0x3e27310c	0.16327304
116	0x3dbe0b90	0.09279549
117	0xbd144770	-0.03620094
118	0xbe5f213a	-0.21790019
119	0xbd8b30c0	-0.06796408
120	0xbe44f16a	-0.19232717
121	0x3ceb8960	0.028752029
122	0x3e5e0b44	0.21683985
123	0x3de0c398	0.109748065
124	0xbe6519ee	-0.22373173
125	0x3bbfbe40	0.005851537
126	0x3e483868	0.19552767
127	0x3e0e4536	0.1389359
128	0x3dfde7e0	0.12397742
129	0xbe4a6a40	-0.19767094
130	0x3df9fc40	0.12206316
131	0xbe622c50	-0.22087216
132	0x3d1b5608	0.037923843
133	0xbd3cdf20	-0.046111226
134	0xbdae5578	-0.085123956
135	0xbd1c6b58	-0.03818831
136	0x3e64771c	0.22311062
137	0x3e538c26	0.20658931
138	0x3d32bbd8	0.043636173
139	0x3e3aa03e	0.1822519
140	0x3d908014	0.07055679
141	0x3b805a80	0.0039170384
142	0xbdbaf974	-0.09129611
143	0x3e49bf0c	0.19701785
144	0xbe5935e8	-0.2121197
145	0xbe563f06	-0.20922479
146	0x3d0f4898	0.03498134
147	0x3e43c770	0.19119048
148	0xbe0ba102	-0.13635638
149	0xbe62f930	-0.2216537
150	0xbdb21420	-0.08695245
151	0x3e63142c	0.22175664
152	0x3dff8d74	0.12478152
153	0xbe1722e6	-0.14759406
154	0xbd28e7d0	-0.0412367
155	0x3e0b4466	0.1360031
156	0xbdf3fb64	-0.11913183
157	0xbe273e36	-0.16332325
158	0xbb887340	-0.0041641295
159	0x3e081ebc	0.13292974
160	0xbe5fb69a	-0.21847
161	0x3dd373f0	0.10324848
162	0x3e5e0b42	0.21683982
163	0xbe3cf96a	-0.18454519
164	0x3e129cea	0.1431767
165	0xbe4a7b0e	-0.19773504
166	0xbd2445c0	-0.04010558
167	0x3e7253a8	0.23664725
168	0xbb9e2c80	-0.004827082
169	0xbde3ff48	-0.111326754
170	0xbcbfdca0	-0.023420632
171	0x3baabc00	0.0052103996
172	0x3e575536	0.21028599
173	0xbe1f6afa	-0.15568152
174	0xbe6e873c	-0.23293775
175	0x3d2d6b00	0.04233837
176	0xbdb2fdec	-0.08739838
177	0xbc8e6710	-0.017383128
178	0xbd4ba708	-0.04971984
179	0x3e7b9ad4	0.24570781
180	0x3e7932ec	0.24335831
181	0xbe16dc3c	-0.1473245
182	0x3e54d4bc	0.20784277
183	0x3e14e214	0.14539367
184	0xbdc7025c	-0.09717247
185	0xbe4a3cd4	-0.19749767
186	0xbd10d738	-0.0353615
187	0x3e0e0f16	0.13872942
188	0xbd3ed9b8	-0.04659435
189	0xbe5abb18	-0.21360433
190	0xbd488ab0	-0.048960388
191	0xbe1d6812	-0.15371731
192	0x3d867198	0.06564635
193	0xbe05efc6	-0.13079748
194	0x3e4f9c5a	0.20274487
195	0x3a1d3c00	0.00059980154
196	0xbe028cb6	-0.1274899
197	0x3cf9bd30	0.03048572
198	0xbdf2c640	-0.118542194
199	0x3e352ed0	0.17693639
200	0x3df99bcc	0.12187919
201	0xbe7e569c	-0.24837726
202	0x3e22ed7e	0.15910909
203	0x3cf01390	0.029306203
204	0xbd078b08	-0.033091575
205	0xbe041bc2	-0.12901214
206	0x3e215574	0.15755254
207	0x3d5aae88	0.053389102
208	0xbe0b081c	-0.13577312
209	0xbdecdb9c	-0.11565325
210	0xbd007558	-0.031361908
211	0xbcea86c0	-0.028628707
212	0xbe1f0d50	-0.15532422
213	0xbe71be62	-0.23607782
214	0xbe68d422	-0.22737172
215	0x3e5ad09a	0.21368638
216	0xbdea0200	-0.11426163
217	0x3da75e14	0.08172241
218	0x3e18583c	0.14877409
219	0x3da67f2c	0.08129725
220	0xbde6deb8	-0.11272949
221	0x3d980388	0.074225485
222	0x3e73315e	0.23749301
223	0xbe23199a	-0.15927735
224	0x3e7a28d4	0.24429637
225	0xbdcc8964	-0.09987143
226	0xbdf9f8e4	-0.12205675
227	0xbd648c68	-0.055797964
228	0x3dcb1c9c	0.09917566
229	0xbd95492c	-0.07289347
230	0xbe74dccc	-0.23912352
231	0xbe012bb0	-0.12614322
232	0x3cad1920	0.021130145
233	0xbe71cbfa	-0.23612967
234	0xbe6bdf1e	-0.23034331
235	0xbe6f2716	-0.23354754
236	0xbe18dfa8	-0.14929068
237	0xbe4df542	-0.2011309
238	0xbd1e40e0	-0.03863609
239	0xbd6e8288	-0.058229953
240	0x3e36869e	0.1782479
241	0xbe070310	-0.13184762
242	0x3db96938	0.09053272
243	0x3dc61250	0.096714616
244	0xbcdf6ef0	-0.027274579
245	0x3e44586a	0.19174352
246	0xbc9b8520	-0.018984377
247	0xbd176998	-0.036965936
248	0x3d5e5dd0	0.054288685
249	0x3e4222b2	0.18958548
250	0x3df18a30	0.11793935
251	0x3d11b480	0.03557253
252	0x3dad2d30	0.084558845
253	0xbe3b9bb2	-0.18321112
254	0xbd99e7c0	-0.07514906
255	0xbb7eed00	-0.0038898587

adversary_encoder.encoder.0.bias f4 [128]
0	0x3cbd9e60	0.023146808
1	0xbd866fac	-0.065642685
2	0x3dfa1010	0.12210095
3	0x3e3da534	0.18520051
4	0xbe469470	-0.19392562
5	0xbe39b4ea	-0.1813542
6	0x3e53fc9c	0.20701832
7	0xbe47da02	-0.19516757
8	0x3d4f9508	0.050679237
9	0x3e5bea1e	0.21476027
10	0x3e1e39f0	0.15451789
11	0xbdbab488	-0.09116465
12	0xbd5b42a0	-0.053530335
13	0x3e3c666a	0.18398443
14	0xbe1df592	-0.15425709
15	0xbd850c5c	-0.06496498
16	0xbe696bd4	-0.2279504
17	0xbc30d160	-0.010792106
18	0xbe72f5a2	-0.23726514
19	0x3e4b1b98	0.19834745
20	0x3e159948	0.14609253
21	0xbe54d0e8	-0.20782816
22	0x3deefdf0	0.116695285
23	0xbe2cdd5a	-0.16881314
24	0xbd211038	-0.039322108
25	0xbe7c7444	-0.24653727
26	0x3dd03f60	0.10168338
27	0x3e2a81e8	0.16651118
28	0x3d7b6a80	0.061380863
29	0x3e232e1c	0.15935558
30	0x3dfdb488	0.12387949
31	0xbe27f2fa	-0.16401282
32	0x3d595828	0.053062588
33	0xbdb72ac4	-0.08943704
34	0x3e19490e	0.14969274
35	0x3dee47e8	0.11634809
36	0x3de56090	0.112000585
37	0xbdeb1358	-0.11478299
38	0xbe4dde30	-0.20104289
39	0x3e3d61f4	0.18494397
40	0x3e6c8eb8	0.23101318
41	0x3ddc54b4	0.10758343
42	0x3e644434	0.22291642
43	0x3d168018	0.036743253
44	0xbd3b36f8	-0.04570672
45	0x3d86204c	0.06549129
46	0x3e5660d0	0.20935369
47	0x3d564810	0.052314818
48	0xbc324900	-0.010881662
49	0x3e7cb228	0.24677336
50	0x3d23f490	0.040028155
51	0x3e31c1b2	0.17359045
52	0x3dcf0ecc	0.10110244
53	0xbdf9bce0	-0.12194228
54	0x3de221e8	0.11041623
55	0xbe7ddf72	-0.24792269
56	0x3ce4be40	0.02792275
57	0xbd8c8c00	-0.068626404
58	0x3e121ae0	0.14268064
59	0x3d0d9d58	0.034573883
60	0xbe6a9a7c	-0.22910494
61	0x3cb94db0	0.022620052
62	0x3ab9b200	0.0014167428
63	0x3db21704	0.08695796
64	0x3d9da110	0.07696736
65	0xbe6c682e	-0.23086616
66	0xbe32dc66	-0.17466888
67	0x3e6a437c	0.22877306
68	0x3dc2a780	0.09504604
69	0xbe138a92	-0.14408329
70	0xbd3a6438	-0.045505732
71	0xbdc071cc	-0.09396705
72	0x3e2dcad8	0.1697191
73	0xbc7b81e0	-0.015350789
74	0xbb403a80	-0.0029331744
75	0xbc5b4c60	-0.013384908
76	0x3e74820c	0.23877734
77	0xbba16380	-0.0049251914
78	0x3e24fff2	0.1611326
79	0xbe657c9c	-0.22410816
80	0x3e314b62	0.17313913
81	0x3e016dc2	0.12639526
82	0xbe3d333e	-0.18476579
83	0x3e54e852	0.20791748
84	0xbd6aedf0	-0.05735582
85	0x3e5cad28	0.21550429
86	0xbd7fc9a0	-0.062448144
87	0x3e1354be	0.14387795
88	0xbcda3980	-0.026638746
89	0xba596e00	-0.00082942843
90	0xbe6a88ea	-0.22903791
91	0x3e183368	0.1486336
92	0x3d9a822c	0.075443596
93	0xbe2ba642	-0.16762641
94	0x3d93ffb8	0.07226509
95	0x3e1a3ba2	0.1506181
96	0xbd5294b0	-0.05141133
97	0xbe732c94	-0.23747474
98	0xbde456e4	-0.111493856
99	0x3e7b2ea6	0.24529514
100	0xbe473890	-0.1945517
101	0xbe17c5a6	-0.1482149
102	0x3d0f9e70	0.035063207
103	0xbe764802	-0.24050906
104	0x3e1e6a78	0.15470302
105	0xbe4009b2	-0.18753698
106	0xbe3cc04a	-0.18432727
107	0x3d8ac340	0.06775522
108	0xbe130310	-0.14356637
109	0xbd9002e4	-0.07031801
110	0xbdbc5a3c	-0.09196898
111	0xbe71af3a	-0.23602
112	0x3da2386c	0.07920918
113	0xbdfe5280	-0.124180794
114	0x3d1c7470	0.03819698
115	0xbdaf01e0	-0.085452795
116	0xbe641a8a	-0.22275749
117	0x3e23866e	0.1596925
118	0xbd62b4d8	-0.055348247
119	0x3d529568	0.051412016
120	0xbe6a6cb2	-0.22893026
121	0x3d5cf248	0.053941995
122	0x3e3c9cc8	0.18419182
123	0x3db16aa0	0.08662915
124	0xbe67d102	-0.22638324
125	0x3e00a30a	0.12562194
126	0xbe199aca	-0.15000454
127	0x3b159f80	0.0022830665

adversary_encoder.encoder.2.weight f4 [128, 128]
0	0x3d9a7036	0.07540934
1	0x3d85e124	0.06537083
2	0xbd9e1a80	-0.07719898
3	0x3da4ccec	0.08046898
4	0x3d527942	0.05138517
5	0xbd128593	-0.035771918
6	0x3c27ba65	0.010237311
7	0x3d9b2175	0.07574741
8	0x3c3e4d50	0.011615112
9	0x3c416c64	0.0118056275
10	0xbd9f6e61	-0.07784725
11	0xbd3c5f5e	-0.045989387
12	0xbd2ea37a	-0.042636372
13	0xbda4606d	-0.08026204
14	0x3cf18707	0.029483331
15	0x3c149757	0.009069285
16	0x3d6944e4	0.056950465
17	0xbbaf7ed3	-0.005355695
18	0x3d83aa00	0.06428909
19	0x3d1d0916	0.038338743
20	0x3d9a2e68	0.075283825
21	0x3da6b6fe	0.08140372
22	0xbcf32a7f	-0.02968335
23	0xbd252800	-0.04032135
24	0xbdabadf6	-0.0838279
25	0x3db338a6	0.08751039
26	0xbdb2ff79	-0.08740134
27	0xbcad049e	-0.021120366
28	0xbdaf8a37	-0.08571284
29	0x3c960177	0.018311245
30	0x3d689856	0.056785904
31	0x3c8e5a6d	0.017377103
32	0xbb531a94	-0.0032211887
33	0xbb6948d3	-0.0035596385
34	0x3a9f98a1	0.0012176224
35	0x3d92f224	0.07175091
36	0x3b4c16b4	0.0031141462
37	0x3da85435	0.08219186
38	0x3cdb99dc	0.026806764
39	0xbd5e2272	-0.05423207
40	0x3d8f90be	0.07010029
41	0x3d8953c3	0.067054294
42	0xbd000fae	-0.031264953
43	0xbdaead8f	-0.085291974
44	0x3d489245	0.04896762
45	0x3cf331f7	0.029686911
46	0x3d75b695	0.059988577
47	0x3c98c964	0.018650718
48	0xbd1496be	-0.03627657
49	0x3db3a5c7	0.08771854
50	0xbd1e653a	-0.038670756
51	0xbd8b4bc1	-0.06801558
52	0x3c6758be	0.014120279
53	0x3d9ff7eb	0.078109585
54	0x3b985ba8	0.004649598
55	0x3d65a0b7	0.056061473
56	0xbd8e1927	-0.06938391
57	0x3d1dfed7	0.038573112
58	0xbd45a5a8	-0.048253685
59	0x3cb449eb	0.022007903
60	0xbd8393f6	-0.06424706
61	0x3ce0d119	0.027443456
62	0xbd874cbe	-0.06606434
63	0xbcebfb1d	-0.028806264
64	0x3c4052bd	0.011738476
65	0x3d2578bc	0.040398344
66	0x3d0a195f	0.033715602
67	0x3d4ef098	0.050522417
68	0xbd111a52	-0.03542549
69	0xbd3d615f	-0.04623544
70	0x3cc1bfbd	0.023650998
71	0x3d184444	0.03717448
72	0x3d275424	0.040851727
73	0xbd4bf3e1	-0.049793128
74	0xbd848062	-0.064697996
75	0xbcd55028	-0.026039198
76	0xbd2c964f	-0.042135533
77	0xbc2d9fa0	-0.01059714
78	0x3d9f5440	0.07779741
79	0xbd93aba5	-0.07210473
80	0x3d89d2df	0.067296736
81	0xbd9bc40c	-0.07605752
82	0xbd190fdc	-0.03736864
83	0x3cc04ad4	0.02347318
84	0xbc806242	-0.015671853
85	0xbcd81b59	-0.026380228
86	0x3c33fab9	0.01098507
87	0xbcbb7422	-0.022882525
88	0xbcdbcc1c	-0.026830725
89	0x3d8a2f01	0.067472465
90	0x3d431c93	0.047634672
91	0x3d89694c	0.06709537
92	0x3d11cf65	0.035598177
93	0x3d1f8387	0.038943794
94	0x3cc80af3	0.024419283
95	0x3c06ed53	0.008235293
96	0xbc67e274	-0.014153112
97	0xbda744d5	-0.081674255
98	0xbd5832fb	-0.052782994
99	0x3d32dd05	0.043667812
100	0x3d9d9567	0.07694512
101	0x3d7c62b0	0.061617553
102	0xbda110b6	-0.078645155
103	0x3d8a3546	0.06748442
104	0x3c31ba41	0.010847629
105	0xbd747991	-0.059686247
106	0xbc46de24	-0.012137923
107	0xbda2dfff	-0.0795288
108	0x3d3cb759	0.04607329
109	0x3d4c1564	0.049825087
110	0xbd33a90b	-0.043862384
111	0xbca053e7	-0.019571258
112	0x3d04d93d	0.032433737
113	0xbd2a40ca	-0.041565694
114	0x3c16cb2b	0.009203712
115	0x3d26e789	0.040748153
116	0xbc2c17cd	-0.010503721
117	0xbc295cdf	-0.010337084
118	0x3d43ce42	0.047804125
119	0x3da4a7b8	0.08039802
120	0xbd040c96	-0.032238565
121	0xbdb2e9ed	-0.08736024
122	0x3c5dedbb	0.013545449
123	0x3d30d47d	0.043171395
124	0xbd44af73	-0.048018884
125	0xbc7798b2	-0.015112089
126	0x3d6a7341	0.05723882
127	0xbd90e6c7	-0.07075267
128	0x3d4446c6	0.047919057
129	0xbd31b211	-0.043382708
130	0x3d0c5309	0.034258876
131	0x3d929e0b	0.071590506
132	0xbc1f9ff7	-0.009742728
133	0xbd58a9da	-0.052896358
134	0xbcac5cb9	-0.021040307
135	0x3d8e351f	0.06943726
136	0x3ccff8da	0.025387216
137	0xbd42e909	-0.04758552
138	0x3d3f05d6	0.046636425
139	0x3cea969f	0.028636275
140	0xbda684bc	-0.08130786
141	0xbd56b79c	-0.052421197
142	0xbd7bed02	-0.061505325
143	0x3c5bac6c	0.013407808
144	0x3d48ccf3	0.04902358
145	0xbd5dd9e9	-0.054162893
146	0xbd7f15da	-0.0622767
147	0x3da7cb18	0.08193034
148	0xbc82be9d	-0.015960032
149	0xbb1559f8	-0.0022789221
150	0xbbf4f7e3	-0.0074758395
151	0xbb93b297	-0.0045073736
152	0x3db1ff59	0.08691282
153	0xbc6fec66	-0.014643764
154	0xbc553740	-0.013013661
155	0x3d8f08c4	0.06984094
156	0x3c671c49	0.014105865
157	0x3b84a153	0.0040475517
158	0xbd83a602	-0.06428148
159	0xbb88ded2	-0.004176953
160	0x3cd572cd	0.026055718
161	0xbc046cdd	-0.008082596
162	0x3d9ff721	0.07810808
163	0xbd476703	-0.048682224
164	0x3c81256b	0.015764913
165	0x3d439e87	0.047758605
166	0x3d74d701	0.059775356
167	0xbd8ff0eb	-0.07028373
168	0xbdb0cc09	-0.086326666
169	0x3c8c2b26	0.017110419
170	0xbd0d7b9a	-0.034541704
171	0x3d69c124	0.05706896
172	0x3d23433a	0.039859034
173	0xbd8095d6	-0.06278579
174	0x3d331e4e	0.043730073
175	0x3d2c21fd	0.0420246
176	0xbd6d7d07	-0.057980563
177	0x3d8e3233	0.069431685
178	0x3a12f15f	0.0005605425
179	0xbd606e42	-0.05479265
180	0x3c3ba037	0.011451772
181	0x3d02598a	0.031823672
182	0x3ca5e69a	0.020251561
183	0xbcae07c0	-0.02124393
184	0x3da446bf	0.08021306
185	0x3d93341d	0.07187674
186	0xbd551048	-0.05201748
187	0x3d294542	0.041325815
188	0xbd768651	-0.060186688
189	0xbdae8738	-0.08521885
190	0xbcd1e779	-0.02562307
191	0xbd021230	-0.031755626
192	0xbd3cfdba	-0.04614041
193	0xbd8526d8	-0.065015495
194	0xbd2e5c20	-0.042568326
195	0x3d889524	0.06669071
196	0xbd3797c9	-0.044822488
197	0xbd7435df	-0.059621688
198	0x3d65c1ce	0.05609303
199	0x3d5f26de	0.054480426
200	0x3c6c2bb5	0.014414717
201	0x3cb28ca4	0.021795578
202	0xbdaa347a	-0.0831079
203	0xbc34f1c5	-0.0110439705
204	0xbd6bdd87	-0.05758431
205	0x3bde87b4	0.0067910794
206	0xbbe71aa7	-0.0070527378
207	0xbc7486d6	-0.0149247255
208	0xbba2985f	-0.0049620117
209	0xbc357945	-0.011076276
210	0xbd85b1c6	-0.06528048
211	0xbd352298	-0.044222444
212	0xbc8c4178	-0.017121062
213	0x3ca4575a	0.020061184
214	0xbd5d08cb	-0.053963464
215	0xbd541304	-0.051775947
216	0x3da9effe	0.08297728
217	0x3d264b4c	0.040599152
218	0xbcb26be5	-0.021779964
219	0xbd2ad359	-0.041705463
220	0x3bc64847	0.0060510966
221	0x3b97472d	0.004616639
222	0x3d8d48d5	0.06898657
223	0x3ca6ce7d	0.020362133
224	0x387b05dd	5.9848524e-05
225	0xbd2fe65f	-0.04294431
226	0xbd209af7	-0.039210286
227	0x3dab75c5	0.08372072
228	0xbda9aefd	-0.082853295
229	0x3cb3315a	0.021874119
230	0x3da94f63	0.08267095
231	0xba7ef2a9	-0.000972549
232	0x3c1da97a	0.009622926
233	0xbd280762	-0.041022666
234	0xbcf89c35	-0.030347923
235	0x3cae543a	0.021280397
236	0xbb8e5fbb	-0.004344908
237	0xbda5a341	-0.08087779
238	0x3d8a23b1	0.06745089
239	0x3999c338	0.00029327883
240	0xbd5982a9	-0.053103123
241	0x3d293f0d	0.041319896
242	0xbcd03758	-0.025417015
243	0xbd5ba283	-0.05362178
244	0xbd697dc2	-0.057004698
245	0x3cb7a0ec	0.0224156
246	0x3c25364f	0.010083749
247	0xbab09337	-0.0013471608
248	0x3d1972f1	0.037463132
249	0xbdac1d0f	-0.0840398
250	0xbd869783	-0.06571867
251	0xbcfdec86	-0.030996572
252	0x3d33a98a	0.043862857
253	0x3dab7121	0.08371187
254	0xbda1cf7e	-0.07900904
255	0x3da1b384	0.07895568

adversary_encoder.encoder.2.bias f4 [128]
0	0x3d054740	0.032538652
1	0x3ce39a0a	0.027783412
2	0xbda89440	-0.082314014
3	0xbbf4c609	-0.0074698967
4	0xbd421125	-0.04737963
5	0x3c5efdec	0.013610344
6	0xbd1b5f11	-0.03793246
7	0x3c37140e	0.011174215
8	0xbd6761a9	-0.05648962
9	0x3d64cf36	0.055861674
10	0xbc69414f	-0.014236762
11	0xbca02547	-0.019549025
12	0x3cfc0937	0.030766113
13	0xbc4af635	-0.012387802
14	0xbda1979c	-0.07890245
15	0xbd646aef	-0.055766042
16	0x3d925645	0.07145361
17	0xbc46b46c	-0.012127977
18	0x3da954a9	0.08268101
19	0xbd33fa34	-0.043939784
20	0xbd01c7e9	-0.03168479
21	0x3d786aff	0.060648914
22	0x3d7c14ee	0.061543398
23	0xbd96ff16	-0.073728725
24	0xbdb22c4e	-0.08699857
25	0xbd747bb3	-0.05968828
26	0x3d53fe0f	0.05175596
27	0x3d981b7c	0.07427117
28	0x3a711447	0.0009196442
29	0x3d1d824d	0.038454343
30	0xbd4b794f	-0.049676236
31	0xbcb4c10b	-0.022064706
32	0x3d9d22cd	0.07672653
33	0xbcd972e4	-0.026544042
34	0x3b98392f	0.0046454887
35	0xbcb615c3	-0.022227174
36	0xbccf3c03	-0.02529717
37	0xbd1d4616	-0.038396917
38	0xbbf2e7c4	-0.0074128825
39	0xbc8a15f2	-0.016856167
40	0xbda80f06	-0.082059905
41	0x3d83c260	0.064335585
42	0xbcf74bf4	-0.030187584
43	0xbd8bddf0	-0.068294406
44	0xbd97ab2f	-0.074056976
45	0xbc5bb346	-0.013409441
46	0xbd388792	-0.045051165
47	0xbd06ca42	-0.03290773
48	0xbc2b526e	-0.0104566645
49	0xbd0add24	-0.033902302
50	0x3c6fc670	0.0146347135
51	0xbd8c0e10	-0.0683862
52	0x3dadae88	0.08480555
53	0x3d9ba42c	0.07599673
54	0x3d2c02bb	0.04199479
55	0xba409b43	-0.00073473545
56	0xbc33c151	-0.010971383
57	0xbd6658ac	-0.056236908
58	0xbd3aa1b4	-0.04556437
59	0xbd6ed3e9	-0.058307562
60	0x3bc083c0	0.005875081
61	0x3cb553f8	0.022134766
62	0x3da39825	0.07988004
63	0xbc6a44ff	-0.0142986765
64	0x3d40fc80	0.047115803
65	0xbd755c8f	-0.059902724
66	0xbd62523b	-0.055254202
67	0x3d702235	0.058626372
68	0x3d55a332	0.05215759
69	0x3cae97e3	0.02131266
70	0x3c5d4d16	0.013507148
71	0x3d558322	0.05212701
72	0xbc641e72	-0.013923274
73	0x3c592f02	0.013255836
74	0xbcd21ffa	-0.025650013
75	0x3c99d0e0	0.018776357
76	0xbd5e25a6	-0.054235123
77	0xbda0aac8	-0.07845074
78	0x3da4e8cb	0.08052214
79	0x3d08f0b8	0.033432692
80	0x3d1f2b70	0.038859785
81	0x3ce1fc6d	0.027586186
82	0xbd90accd	-0.07064209
83	0xbd9e6b12	-0.07735266
84	0x3d0fa2de	0.03506743
85	0xbba8cf02	-0.0051516304
86	0xbc52f08d	-0.012874735
87	0x3b3b7fa5	0.0028610018
88	0x3d2ab8c7	0.041680124
89	0xbc273d97	-0.010207555
90	0xbc103d40	-0.008803666
91	0x3da6b0b5	0.08139173
92	0x3d8f59ae	0.06999527
93	0x3cd71c92	0.02625874
94	0xbda2a0ce	-0.07940827
95	0x3cc8cdd3	0.024512207
96	0xbc2bd12e	-0.010486884
97	0xbd454ff3	-0.04817195
98	0x3db3c0cd	0.08777008
99	0x3d3ec6a9	0.046576176
100	0xbd2cda63	-0.042200457
101	0x3c8e9858	0.017406628
102	0xbd80a992	-0.06282343
103	0x3bd2417f	0.006416499
104	0x3d6f0ae9	0.058360014
105	0x3d496d8a	0.04917673
106	0xbd45504b	-0.048172276
107	0x3d248fb3	0.040176105
108	0x3d40dbf9	0.047084782
109	0x3cb39207	0.021920217
110	0xbd95fc01	-0.073234566
111	0x3da237f5	0.07920829
112	0x3b3b62d5	0.0028592844
113	0x3c776e73	0.015102017
114	0x3da818ef	0.08207881
115	0xbd1df58f	-0.03856426
116	0xbd24968c	-0.040182635
117	0x3da2375a	0.07920714
118	0xbb8e413c	-0.0043412726
119	0x3da2b8d3	0.07945409
120	0xbd64c5f4	-0.055852845
121	0xbbf47419	-0.007460129
122	0x3db0aa7a	0.08626266
123	0xbdb2f296	-0.08737676
124	0xbcb946d8	-0.022616789
125	0xbc399626	-0.011327302
126	0xbd951590	-0.07279503
127	0xbd81b1cd	-0.06332741

strategy_generator.generator.0.weight f4 [128, 160]
0	0x3cf41fa3	0.029800242
1	0xbd88b665	-0.06675414
2	0xbd0339fb	-0.032037716
3	0xbd71d115	-0.059037287
4	0xbbd81475	-0.0065942355
5	0x3d0e4c9c	0.03474103
6	0x3d04dae4	0.032435313
7	0x3c96ffa4	0.018432446
8	0x396bb7d9	0.00022479835
9	0x3d97ac12	0.07405867
10	0xbd85ac86	-0.06527047
11	0x3d9abcb2	0.07555522
12	0xbd8a83d9	-0.06763429
13	0xbd15aec5	-0.036543626
14	0xbd581c23	-0.05276121
15	0xbc36c237	-0.011154703
16	0x3c5419a7	0.012945569
17	0xbd423788	-0.04741624
18	0x3d006a77	0.031351533
19	0xbc0b76e8	-0.008512236
20	0x3d9bfd19	0.07616634
21	0x3d8d3264	0.06894377
22	0xbd8b5044	-0.06802419
23	0xbced1fbc	-0.028945796
24	0x3cac3a97	0.021024032
25	0x3d92bcc1	0.07164908
26	0x3b6d8289	0.0036241135
27	0xbd21bbac	-0.03948562
28	0xbd6ace1b	-0.057325464
29	0xbd54ecd2	-0.051983662
30	0x3d76b7e0	0.06023395
31	0x3c007042	0.007839264
32	0x3d1a659d	0.037694562
33	0xbd8ee60f	-0.06977474
34	0xbd324c1e	-0.043529622
35	0x3d2b923d	0.04188751
36	0xbce61d01	-0.028090002
37	0x3ce2a98b	0.027668735
38	0xbd9d0ac9	-0.07668073
39	0xbd03a7cb	-0.03214244
40	0x3c05e9f0	0.008173451
41	0x3cd3d572	0.025858615
42	0x3d732060	0.059357047
43	0x3d6defbe	0.058089964
44	0xbd2eb6cd	-0.0426548
45	0xbd84b093	-0.06478991
46	0xbd442430	-0.047886074
47	0xbc6bb019	-0.014385247
48	0x3ca72569	0.02040358
49	0xbd947986	-0.07249741
50	0xbd04609c	-0.032318696
51	0x3cdd9712	0.027049575
52	0xba8f6a5c	-0.0010941732
53	0xbce37fb0	-0.027770847
54	0x3c2db92a	0.010603229
55	0x3d6d3a86	0.05791714
56	0xbc0108f4	-0.00787567
57	0x3c69ddaa	0.01427404
58	0xbda0cfc5	-0.07852129
59	0xbc0eaf64	-0.008708809
60	0x3a5c6a6b	0.00084081915
61	0x3d816fc0	0.06320143
62	0xbd87a4ff	-0.066232674
63	0x3d9683ea	0.07349379
64	0x3cd5f6ae	0.026118603
65	0x3c2f0891	0.010683195
66	0x3d041bae	0.03225296
67	0x3d88a547	0.06672149
68	0x3d0a84d5	0.033818085
69	0xbc0705d4	-0.008241136
70	0x3ccb60c4	0.024826415
71	0x3b197666	0.0023416518
72	0xbd1818bd	-0.037132967
73	0x3d9fd534	0.07804337
74	0x3d42fd74	0.047604993
75	0xbd90ece2	-0.07076432
76	0xbc7c0c89	-0.015383848
77	0xbd819aca	-0.06328352
78	0xbcaab36a	-0.020837504
79	0x3c4344a7	0.011918223
80	0x3c68aa69	0.014200785
81	0x3d26bf33	0.040709686
82	0x3d9a0541	0.07520533
83	0xbd082eef	-0.033247884
84	0x3d5e7f3b	0.054320555
85	0x3d4f8634	0.050665095
86	0xbd6dbcdf	-0.05804145
87	0xbd8510b6	-0.06497328
88	0xbd3b36bd	-0.0457065
89	0xbcf7bd79	-0.030241715
90	0xbd16d54f	-0.03682452
91	0xbd80d128	-0.062898934
92	0x3d75e47a	0.060032345
93	0x39ab5da5	0.00032685432
94	0xbd93d2a3	-0.0721791
95	0x3d407648	0.0469878
96	0x3d813266	0.06308441
97	0x3d656d0b	0.056012195
98	0x3a87d3c6	0.0010362796
99	0x3d39f62a	0.045400776
100	0x3d8c2c7e	0.06844424
101	0x3d6dcf68	0.058059126
102	0xbd016914	-0.03159435
103	0x3da0d85a	0.07853766
104	0xbd21dce3	-0.039517295
105	0xbccbd144	-0.024880059
106	0x3c6a254a	0.014291117
107	0x3d6755d7	0.056478348
108	0xbc9e2b2b	-0.019307693
109	0xbd58b008	-0.05290225
110	0x3d5e0102	0.05420018
111	0xbd9f7f71	-0.077879794
112	0xbd896f15	-0.0671064
113	0xbd07d761	-0.033164386
114	0x3d70df35	0.058806617
115	0x3c7afacd	0.015318585
116	0xbd85a34b	-0.06525286
117	0x3d432891	0.04764611
118	0xbd95a8be	-0.07307576
119	0xbd6f0770	-0.058356702
120	0x3c52efce	0.012874557
121	0x3d96efed	0.07369981
122	0x3c092c1b	0.008372332
123	0x3d6dd7e8	0.058067232
124	0xbd514d60	-0.05109918
125	0x3d0fbc50	0.0350917
126	0x3d76bf35	0.060240943
127	0x3a129bcf	0.00055926753
128	0xbc9682c6	-0.018372905
129	0xbc95cfcf	-0.018287567
130	0xbcda457c	-0.02664446
131	0xbd08b356	-0.033374153
132	0xbd2301cb	-0.03979663
133	0x3b99ca0a	0.0046932744
134	0xbd76555f	-0.06014001
135	0x3c836234	0.016038038
136	0xbd5de698	-0.05417499
137	0xbd184e9b	-0.03718434
138	0x3d0f65b5	0.035009105
139	0x39aa0aa6	0.0003243286
140	0x3d197e58	0.037474006
141	0xbd312852	-0.043251343
142	0x3d065e2b	0.03280465
143	0xbd71b66e	-0.05901187
144	0x3c68e2bd	0.014214215
145	0xbd681b60	-0.05666673
146	0x3d8fe7e7	0.07026654
147	0xbc5403d5	-0.012940367
148	0x3d41d041	0.047317747
149	0xbd1a60fb	-0.037690144
150	0x3cc0aab7	0.023518903
151	0xbd25fc14	-0.040523604
152	0x3d26c0c0	0.040711164
153	0x3d860431	0.06543768
154	0xbbed947b	-0.0072503663
155	0x3d744629	0.059637222
156	0x3d30929b	0.043108564
157	0x3d84d041	0.06485034
158	0xbcb38c89	-0.021917598
159	0x3d69538d	0.056964446
160	0xbc4c9fb9	-0.012489253
161	0x3ca0d7e1	0.01963419
162	0xbb1dc775	-0.0024075184
163	0xbda1e1a0	-0.07904363
164	0x3d635f69	0.055510912
165	0x3d36e18a	0.044648685
166	0x3d89ece4	0.067346364
167	0xbd9a883a	-0.075455144
168	0x3d10bdcf	0.035337266
169	0xbd152fc7	-0.036422517
170	0x3cf2f1bd	0.029656285
171	0x3d951610	0.07279599
172	0xbcf96c7e	-0.03044724
173	0x3a9a3be2	0.0011767114
174	0x3ca726c6	0.02040423
175	0xbcf97d88	-0.030455366
176	0xbd9874db	-0.074441634
177	0xbbb48105	-0.0055085444
178	0x3d8acff7	0.067779474
179	0xbc171748	-0.009221859
180	0x3cc952e6	0.024575662
181	0xbc07fb1a	-0.008299613
182	0xbd9d7eb3	-0.076901816
183	0x3d06b5fe	0.032888405
184	0xbd86578a	-0.065596655
185	0xbd8b984f	-0.0681616
186	0xbd82a937	-0.063799314
187	0xbd9d320c	-0.07675561
188	0xbceb715e	-0.028740581
189	0xbc4ea1f3	-0.012611854
190	0x3d253ffe	0.04034423
191	0xbd179d16	-0.037015043
192	0x3d938490	0.07203019
193	0xbc741b27	-0.014899052
194	0xbd231aa5	-0.039820332
195	0xbd93551d	-0.071939684
196	0xbd0ea7e1	-0.03482807
197	0x3d1af6c1	0.03783298
198	0x3d94b557	0.0726115
199	0xbd2aba65	-0.041681666
200	0x3ca4b149	0.020104067
201	0xbd872576	-0.06598942
202	0x3d94063b	0.07227751
203	0xbd05c86f	-0.03266185
204	0x3d4502fa	0.04809854
205	0x3d28e828	0.041237026
206	0xbd42de58	-0.047575325
207	0x3c0c0188	0.008545287
208	0xbd0c9399	-0.034320448
209	0x3d56fa80	0.05248499
210	0xbd53f139	-0.05174372
211	0xbd3acfed	-0.04560845
212	0x3d77c42d	0.060489822
213	0x3c6a5f98	0.014305018
214	0xbd9328d0	-0.07185519
215	0xbd2b1b2e	-0.041773967
216	0xbd9550d1	-0.07290805
217	0xbd4264fe	-0.047459595
218	0xbc9a775f	-0.018855749
219	0x3d99b32e	0.07504879
220	0x3d415a2a	0.047205128
221	0xbd9ebf25	-0.07751302
222	0xbcb0396e	-0.02151176
223	0xbd8f79f8	-0.070056856
224	0xbd736cdc	-0.05942999
225	0xbd0b1413	-0.03395469
226	0x3d0a41dd	0.03375422
227	0xbd65d909	-0.056115184
228	0xbd6a8eac	-0.05726497
229	0xbd8eb43b	-0.0696797
230	0x3d2cecb2	0.042217918
231	0x3d0d6b81	0.03452635
232	0x3d0eeab4	0.0348918
233	0x3d991eda	0.074765876
234	0xbc8123a3	-0.015764063
235	0xbd91b3f2	-0.071144
236	0x3d578da5	0.052625317
237	0xbd066616	-0.0328122
238	0x3cafadc1	0.021445157
239	0x3d369367	0.044574168
240	0x3d2e009b	0.042481046
241	0x3d926c4c	0.07149562
242	0x3d484282	0.04889155
243	0xbbe739e2	-0.0070564607
244	0x3d95e28f	0.07318603
245	0xbbc52816	-0.0060167415
246	0xbd69534e	-0.05696421
247	0x3d1349ce	0.035959058
248	0xbc9ff1a0	-0.019524395
249	0xbcfd9e44	-0.030959256
250	0x3bad9bfe	0.0052981367
251	0x3c8c3de4	0.017119355
252	0xbd661c25	-0.056179184
253	0xbd914de0	-0.070949316
254	0xbd521e58	-0.05129847
255	0xbc7965b7	-0.015222005

strategy_generator.generator.0.bias f4 [128]
0	0x3d065b0c	0.032801673
1	0xbbd67124	-0.006544249
2	0xbc9fa86b	-0.019489488
3	0xbd5e9d88	-0.054349452
4	0xbd149f93	-0.036284994
5	0xbda1824c	-0.0788618
6	0xbd173fb3	-0.036925983
7	0x3c62a338	0.01383286
8	0xbd2ffc77	-0.04296538
9	0x3d6cd599	0.05782089
10	0xbd7a3a00	-0.06109047
11	0x3d09e424	0.033664837
12	0x3d497d58	0.049191803
13	0x3d9f0f69	0.07766611
14	0xbd6df3da	-0.058093883
15	0x3acc9e2e	0.0015611106
16	0x3b443131	0.0029936547
17	0xbd88df74	-0.06683245
18	0xbc32da1b	-0.010916258
19	0xbd26b322	-0.040698178
20	0xbd98722c	-0.074436516
21	0x3d802d1b	0.06258603
22	0xbd732308	-0.05935958
23	0x3d479658	0.048727363
24	0xbb04e7e5	-0.0020279821
25	0x3bf68efc	0.0075243693
26	0x3d24f8a7	0.040276196
27	0x3d9983aa	0.07495816
28	0x3b70d373	0.0036747127
29	0x3d308ab3	0.043101024
30	0x3bb7adf6	0.0056054546
31	0xbc34ff97	-0.0110472655
32	0xbd3d7523	-0.04625429
33	0xbcb0afea	-0.021568257
34	0x3d9183aa	0.07105191
35	0x3d4f83d8	0.050662845
36	0xbd5eb505	-0.054371852
37	0x3d8ea9ee	0.06966005
38	0x3d2da55d	0.04239403
39	0x3d8280f1	0.0637225
40	0x3d9080cf	0.07055818
41	0x3c0fb7e0	0.008771867
42	0x3c304ad7	0.010760031
43	0xbccfdbc9	-0.025373356
44	0x3d3c231c	0.04593192
45	0x3d8bf9c2	0.06834747
46	0xbd33de45	-0.043913145
47	0x3d042d31	0.03226966
48	0xbd41fec5	-0.047362108
49	0xbd018c70	-0.031628072
50	0xbd100740	-0.035163164
51	0x3b286a56	0.0025698147
52	0xbd9bd84c	-0.07609615
53	0xbd83a352	-0.06427635
54	0xbcec645e	-0.028856453
55	0x3d55403d	0.052063216
56	0xbc590d03	-0.013247731
57	0x3ceb8471	0.028749676
58	0x3d673b21	0.056452874
59	0xbd73506e	-0.059402876
60	0xbb05249c	-0.002031601
61	0xbd10db68	-0.035365492
62	0xbc158023	-0.009124788
63	0x3b12f6e2	0.0022424986
64	0xbd94843d	-0.07251785
65	0xbd03c997	-0.032174673
66	0xbcbde695	-0.02318124
67	0xbd0e185a	-0.034691192
68	0xbd502f45	-0.05082633
69	0x3ba5242c	0.0050397124
70	0xbd1f1185	-0.038835067
71	0x3ce92b3b	0.028462997
72	0xbc81d954	-0.0158507
73	0x3d288fa4	0.04115261
74	0xbd910fc3	-0.070830844
75	0x3d20934f	0.039202984
76	0x3ca60536	0.020266157
77	0xbd5f54fe	-0.054524414
78	0xba4a5801	-0.0007718802
79	0x3b83c72e	0.004021547
80	0xbc37bea5	-0.011214887
81	0xbd9aa28b	-0.07550534
82	0x3d99b97d	0.07506082
83	0xbd494fba	-0.0491483
84	0xbd8fe316	-0.07025735
85	0x3d1a2eff	0.037642475
86	0xbc51acc7	-0.012797541
87	0x3d41de7c	0.04733132
88	0x3d71b727	0.05901256
89	0x3d5b0e9e	0.053480737
90	0xbc07dfac	-0.008293074
91	0x3d4be611	0.049779955
92	0x3b455799	0.0030112027
93	0xbc93b69d	-0.018031413
94	0xbce592cb	-0.028024098
95	0x3d2250e4	0.039627925
96	0xbd37cb87	-0.044871833
97	0xbd740b69	-0.059581194
98	0xbcb534fe	-0.022119995
99	0xbd6416d3	-0.05568583
100	0xbd90e2eb	-0.07074531
101	0xbd7c657f	-0.06162023
102	0x3d604384	0.054751888
103	0x3c4841f0	0.012222752
104	0x3b83f466	0.0040269373
105	0x3c1e9c1f	0.009680777
106	0xbd4a5209	-0.04939464
107	0x3d9227ca	0.071364954
108	0x3d23ceb0	0.039992034
109	0xbc52edca	-0.012874076
110	0xbcf5227e	-0.029923674
111	0xbc83d7eb	-0.016094169
112	0xbd75fe87	-0.06005719
113	0x3cf63ca5	0.030058214
114	0x3c15ef04	0.009151224
115	0x3c8b38b5	0.016994813
116	0xbd93fe19	-0.072262
117	0xbd80e3a0	-0.06293416
118	0xbcc673e3	-0.024225181
119	0xbd89f0c7	-0.06735378
120	0xbd10f26c	-0.03538744
121	0x3d9da617	0.07697695
122	0x3b8912d9	0.004183155
123	0x3d98e220	0.07465005
124	0xbd0efa6d	-0.034906793
125	0xbd8a7474	-0.06760493
126	0xbcc32d78	-0.023825392
127	0x3d2d1e94	0.04226549

strategy_generator.generator.2.weight f4 [128, 128]
0	0xbdab42c3	-0.08362343
1	0xbd93006f	-0.07177817
2	0x3d548cc8	0.051892072
3	0x3d9ea8dd	0.07747052
4	0xbc1467b3	-0.009057927
5	0xbd5e210d	-0.05423074
6	0x3d226510	0.039647162
7	0xbd770c89	-0.06031469
8	0xbd1e4ae3	-0.038645636
9	0xbda64904	-0.081193954
10	0x3d1a446f	0.03766292
11	0xbcdc9055	-0.026924292
12	0xbcd4d88b	-0.025982162
13	0x3db330d4	0.087495476
14	0x3d2edd98	0.042691797
15	0xbdb046f4	-0.08607283
16	0x3d37c9ef	0.044870313
17	0x3cd4335e	0.0259034
18	0xbd4d6a59	-0.05015025
19	0xbd7f726b	-0.062364977
20	0xbcd87833	-0.026424503
21	0xbd33fa34	-0.043939784
22	0xbc1931bb	-0.009350236
23	0xbd5474ee	-0.051869325
24	0x3ae0529e	0.0017114466
25	0xbd4dad07	-0.05021384
26	0x3d67bb90	0.056575358
27	0x3d9ac7df	0.07557654
28	0x3b794b0a	0.0038039112
29	0xbd99a121	-0.07501436
30	0x3dafe4bc	0.085885495
31	0x3c88790a	0.016659278
32	0xbce305a3	-0.027712649
33	0x3d87053e	0.06592797
34	0xbda6f345	-0.08151869
35	0xbc5a7aa5	-0.013334905
36	0x3d9eea30	0.077595115
37	0xbc7f1ba1	-0.015570552
38	0xbc685f9c	-0.014182951
39	0xbbf146a9	-0.0073631597
40	0x3d365128	0.04451099
41	0x3bdc436f	0.006721906
42	0xbd3dc89f	-0.046333905
43	0x3bce727c	0.0063002687
44	0xbd326e34	-0.04356213
45	0x3ceb8d07	0.02875377
46	0x3d5dbbc2	0.054134138
47	0x3ce1b9fb	0.027554503
48	0x3d379202	0.04481698
49	0xbd8da686	-0.069165275
50	0xbd5fe89e	-0.0546652
51	0xbc32284c	-0.010873865
52	0x3d03bc2a	0.03216187
53	0x3c9d937e	0.019235369
54	0x3d81adfc	0.06332013
55	0x3d9c2362	0.07623936
56	0x3d4a6cf6	0.04942032
57	0x3d5f64e2	0.05453957
58	0x3d70f558	0.058827728
59	0xbc5eea64	-0.013605688
60	0x3d15b4e1	0.036549453
61	0x3d23fb84	0.040034786
62	0xbd92e4a7	-0.07172518
63	0x3b4bc3cc	0.0031092046
64	0x3d0a747d	0.033802498
65	0xbd945adc	-0.072438926
66	0x3cc4c96d	0.024021829
67	0x3d2c63c0	0.042087317
68	0x3d17c9c3	0.03705765
69	0x3c4c85cf	0.012483074
70	0x3db19e53	0.08672776
71	0x3cab714d	0.02092805
72	0xbd49b438	-0.049244136
73	0x3d46bb26	0.048518322
74	0x3d141064	0.036148444
75	0xbc8cb416	-0.017175715
76	0xbd1531b0	-0.03642434
77	0x3c2fe96c	0.010736804
78	0xbd2d87eb	-0.04236595
79	0x3c5493b0	0.012974665
80	0x3cb2dd13	0.021833932
81	0xbd9b6883	-0.075882934
82	0xbd9a0cf2	-0.07522
83	0x3d4fbc6b	0.0507168
84	0x3db1afac	0.08676085
85	0xbce162f1	-0.027513
86	0xbd916fc7	-0.07101398
87	0xbd08d976	-0.033410512
88	0xbd947b3a	-0.07250066
89	0x3d8fc338	0.07019657
90	0x3dacad5c	0.08431503
91	0x3d7ed6fc	0.062216744
92	0x3d9d544a	0.076820925
93	0xbd0204fc	-0.031743035
94	0x3d3b8816	0.04578408
95	0x3d416970	0.047219694
96	0xbd280666	-0.041021727
97	0xbd8c85f8	-0.0686149
98	0xbb1ad6fe	-0.002362668
99	0x3d84e01d	0.06488059
100	0xbdb21958	-0.0869624
101	0x3d64cb3c	0.055857882
102	0x3c86e554	0.016466774
103	0x3ca734a4	0.020410843
104	0xbda2974c	-0.07939014
105	0xbd56cf65	-0.05244388
106	0x3d95f965	0.07322959
107	0x3d18a499	0.037266348
108	0x3d85e02f	0.065369
109	0xbc09d95b	-0.008413638
110	0x3d26c3ce	0.040714078
111	0xbcf66ed4	-0.030082144
112	0x3d6c3272	0.057665296
113	0x3d8e377f	0.06944179
114	0x3d8f2b73	0.06990709
115	0x3ba8d833	0.005152726
116	0x3cb80001	0.02246094
117	0x3c9490e3	0.018135494
118	0xba987084	-0.0011630212
119	0xbd477b2f	-0.04870146
120	0xbd7e79b1	-0.062127773
121	0xbd34a6ea	-0.044104494
122	0x3d14fe33	0.036375236
123	0xbd64d752	-0.055869408
124	0x3d99e8c0	0.07515097
125	0xbd50434c	-0.05084543
126	0x3b0ba204	0.0021306286
127	0xbc3e31a6	-0.011608517
128	0xbc3f5ccd	-0.01167984
129	0x3c4b7763	0.012418601
130	0x3cbbcfae	0.022926178
131	0x3d104b61	0.035228137
132	0xbd7bc73c	-0.0614693
133	0x3cbf0277	0.023316605
134	0x3c7991b4	0.015232492
135	0x3d0b2c15	0.033977587
136	0x3ce9d781	0.028545143
137	0x3da64bb9	0.08119912
138	0xbb544f96	-0.003239607
139	0x3c052a3c	0.008127745
140	0xbcf0d553	-0.029398596
141	0xbbe4519f	-0.006967738
142	0xbd006779	-0.03134868
143	0x3d764809	0.06012729
144	0xbd002262	-0.03128279
145	0x3d23500b	0.039871257
146	0xbd0271ba	-0.03184674
147	0x3d9e2aca	0.07723005
148	0x3d234375	0.039859254
149	0x3cc5ad88	0.024130598
150	0x3d64da04	0.05587198
151	0x3d7ccb10	0.061717093
152	0x3c379158	0.011204086
153	0x3c48790f	0.012235894
154	0x3d7984a5	0.060917515
155	0x3ce289f5	0.027653674
156	0xbd5c6f41	-0.053817037
157	0x3d795af5	0.06087776
158	0xbd8bdfcf	-0.068297975
159	0x3cb8a8bd	0.022541398
160	0xbda7c432	-0.08191718
161	0x3d3dc034	0.046325877
162	0xbd7ee666	-0.062231444
163	0xbd7b7675	-0.061392266
164	0xbd4a93da	-0.04945741
165	0xbd611a40	-0.054956675
166	0xbd9e5d64	-0.077326566
167	0xbd530013	-0.051513743
168	0xbd30d080	-0.04316759
169	0xbd2d0057	-0.042236652
170	0x3da53dc3	0.08068421
171	0x3d14149a	0.03615246
172	0x3aee28de	0.0018170138
173	0x3c36e93b	0.011164005
174	0xbd70955d	-0.058736194
175	0xbc02cfd3	-0.0079841195
176	0x3d1fb714	0.038992956
177	0x3d565b7c	0.05233334
178	0x3d976f92	0.07394327
179	0xbd2a3a05	-0.041559238
180	0xbd02d5b7	-0.031942096
181	0x3d861fca	0.06549032
182	0x3cd5f51c	0.026117854
183	0x3d774e24	0.060377255
184	0xbd21cb14	-0.03950031
185	0x3d749e8c	0.059721515
186	0xbc9b7aaa	-0.01897939
187	0x3d890fcc	0.06692466
188	0xbc205387	-0.0097855395
189	0xbcda9d72	-0.026686404
190	0x3c214216	0.009842416
191	0x3d61ec95	0.055157263
192	0xbcf5ab07	-0.029988779
193	0x3d918dff	0.07107162
194	0x3d9c59c2	0.076343074
195	0x3cc8d57d	0.024515862
196	0xbd251c9f	-0.0403105
197	0x3cc73b8c	0.024320386
198	0xbd656483	-0.05600406
199	0x3b55abd6	0.0032603643
200	0x3d06fb45	0.032954473
201	0x3d85e5ae	0.065379485
202	0x3db19c29	0.08672363
203	0xbd88cc8a	-0.06679638
204	0x3d7fc4b8	0.062443465
205	0xbd7cb1d1	-0.061693016
206	0x3d234cfe	0.039868347
207	0x3d7cfb8e	0.06176334
208	0x3d70fd06	0.058835052
209	0xbd7d26e3	-0.061804663
210	0x3d5c2126	0.05374255
211	0xbd6c3fbf	-0.05767798
212	0xbd20da8d	-0.039270926
213	0x3b4f0c5f	0.0031593067
214	0xbda56688	-0.08076197
215	0xbd49eb87	-0.049296882
216	0xbd1ff244	-0.039049402
217	0x3c86c48f	0.016451148
218	0xbda29651	-0.07938827
219	0x3d84f190	0.06491387
220	0xbb9b67af	-0.0047425847
221	0xbdaf69fd	-0.085651375
222	0x3cfce00b	0.03086855
223	0x3a5052b3	0.00079468935
224	0x3d1b64fd	0.037938107
225	0x3b46e092	0.0030346257
226	0x3b0959c5	0.0020958048
227	0xbcd27989	-0.025692718
228	0x3d689570	0.05678314
229	0x3d88e3b7	0.06684058
230	0xbbbfd6c6	-0.0058544604
231	0x3d580056	0.052734695
232	0xbd892f91	-0.06698526
233	0xbd8705db	-0.06592914
234	0xbd9497b6	-0.07255499
235	0xbd4e6803	-0.050392162
236	0x3d99751f	0.07493042
237	0xbcce859f	-0.0252102
238	0x3d2b6572	0.041844793
239	0xbd2e2d50	-0.042523682
240	0xbd10afb9	-0.035323832
241	0x3d897ae0	0.0671289
242	0xbc88effd	-0.016715998
243	0xbd59c422	-0.053165562
244	0xbd366c3d	-0.044536818
245	0x3d90247c	0.07038209
246	0x3cb6f01a	0.022331286
247	0x3d8c27ee	0.068435535
248	0xbc0ff7dd	-0.008787123
249	0x3d18df1f	0.03732216
250	0x3d9aaac8	0.07552105
251	0x3c413076	0.011791339
252	0xbcc26084	-0.023727663
253	0x3d2aad4c	0.041669175
254	0x3d454c9a	0.048168756
255	0xbd612462	-0.054966338

strategy_generator.generator.2.bias f4 [128]
0	0x3d9825b8	0.07429069
1	0x3ca31bf0	0.019910783
2	0x3cd0dfb3	0.025497293
3	0xbd9fdbd6	-0.07805602
4	0x3d9cc683	0.076550506
5	0x3d27a84f	0.040931996
6	0x3d3299f4	0.043603852
7	0xbda0ec62	-0.078575864
8	0xbb7bd9a4	-0.0038429284
9	0x3cace1f2	0.021103833
10	0x3be12b9c	0.0068716537
11	0x3d496ebc	0.04917787
12	0xbdb1625c	-0.08661339
13	0x3d7d9bfb	0.061916333
14	0xbd24ede9	-0.04026595
15	0xbccb2995	-0.024800101
16	0x3ca36f99	0.019950675
17	0x3c259d32	0.010108279
18	0xbcd5f29d	-0.026116664
19	0x3d8b4e47	0.068020396
20	0xbda45b27	-0.080251984
21	0x3b125794	0.0022330033
22	0xbdaa3b26	-0.08312063
23	0xbb774a08	-0.0037733335
24	0xbd0c2170	-0.034211576
25	0xbc6d4f36	-0.014484217
26	0xbd7b6a1b	-0.061380487
27	0x3a8c3b75	0.0010698872
28	0xbd86dffe	-0.06585692
29	0x3d7426ed	0.059607435
30	0x3c2d7813	0.01058771
31	0xbcd53127	-0.026024414
32	0xbd32f05e	-0.043686263
33	0xbdaa78b4	-0.083238035
34	0xbd895e14	-0.06707397
35	0x3d711dba	0.05886624
36	0x3d617b04	0.055048957
37	0xbd4ea73b	-0.050452452
38	0xbd1dc062	-0.03851355
39	0x3c3a11da	0.011356795
40	0xbd89fa5d	-0.06737206
41	0xbc9b225d	-0.018937284
42	0xbc99bab6	-0.018765789
43	0xbd9e0b73	-0.077170275
44	0x3d04b021	0.032394532
45	0xbda074d9	-0.07834787
46	0x3db3b6ae	0.08775078
47	0x3d108623	0.035284173
48	0xbc6524c8	-0.01398582
49	0x3c21f430	0.009884879
50	0xbd402656	-0.04691156
51	0x3da26969	0.07930262
52	0x3d220eb2	0.039564796
53	0xbdaab9b9	-0.08336205
54	0xbd29b3a0	-0.04143107
55	0x3d57beb2	0.052672096
56	0x3c917bfa	0.017759312
57	0x3d17962f	0.03700846
58	0x3d1f2aa7	0.038859036
59	0xbd89b5e1	-0.06724144
60	0xbcc70431	-0.02429399
61	0xbc9abb5f	-0.018888174
62	0xbb9f6ed2	-0.0048655057
63	0x3d741389	0.059588943
64	0xbd833951	-0.064074166
65	0xbda8acce	-0.08236085
66	0xbd4a61d6	-0.04940971
67	0x3b1958fa	0.0023398981
68	0x3c630690	0.013856545
69	0xbc81b0a1	-0.015831294
70	0x3b58c371	0.0033075477
71	0x3d33c50a	0.043889083
72	0x3ca627eb	0.020282706
73	0xbbd2a2d0	-0.0064281
74	0x3c98e355	0.018663088
75	0x3d965c60	0.07341838
76	0xbd38710e	-0.045029692
77	0xbd741e19	-0.059599016
78	0x3c9b1532	0.018931005
79	0x3d69ad3e	0.057049982
80	0x3d821021	0.063507326
81	0x3d8e91c5	0.06961397
82	0x3d281737	0.041037764
83	0xbd1abf20	-0.037779927
84	0xbd959376	-0.073035166
85	0xbce7115f	-0.028206525
86	0xbda6e4ca	-0.08149107
87	0x3d6bd636	0.057577334
88	0xbb6d5a92	-0.0036217314
89	0xbd8e8067	-0.069580846
90	0xbda0c0a0	-0.0784924
91	0x3d68bb94	0.056819513
92	0xbc060d87	-0.008181936
93	0x3ce14fc3	0.027503854
94	0x3d8e9639	0.069622464
95	0xbda9e64b	-0.08295878
96	0xbd3c35bf	-0.045949694
97	0x3d9674e4	0.07346514
98	0xb9e9d63f	-0.0004460085
99	0x3d3843de	0.0449866
100	0x3c9f23ab	0.019426188
101	0xbda24623	-0.07923534
102	0x3bc8aa56	0.0061238213
103	0xbd10f0a8	-0.035385758
104	0x3caae3bf	0.02086055
105	0xbbf0d7ff	-0.0073499675
106	0x3d3f26b7	0.04666778
107	0x3d9af1f0	0.07565677
108	0xbd666262	-0.05624617
109	0xbcdb53ec	-0.026773416
110	0xbc98ab73	-0.01863644
111	0xbd9254df	-0.07145094
112	0xbd966f16	-0.07345407
113	0x3d3a5aaf	0.04549664
114	0x3d510c1b	0.051036935
115	0xbd9fa16e	-0.07794462
116	0xbd9d4d35	-0.07680742
117	0x3d09977c	0.033591732
118	0x3d3ec2a3	0.04657234
119	0x3da26411	0.079292424
120	0xbd3f3602	-0.046682365
121	0x3d7ef4a1	0.062245015
122	0x3c6faaba	0.014628107
123	0xbd25549e	-0.0403639
124	0xbd5ce592	-0.053929873
125	0xbd3ba4e1	-0.045811538
126	0x3dab6ead	0.08370719
127	0x3d074d5f	0.03303277

strategy_generator.generator.4.weight f4 [64, 128]
0	0xbcc96d13	-0.024588143
1	0x3d8ae66d	0.067822315
2	0xbd984440	-0.07434893
3	0x3d06f8d4	0.032952145
4	0xbdafe0a2	-0.08587767
5	0x3d00be6c	0.0314316
6	0x3d9788f4	0.073991686
7	0x3da078cc	0.0783554
8	0x3dadb599	0.08481903
9	0x3bafa420	0.0053601414
10	0x3d2734a7	0.040821698
11	0xbc453f56	-0.012039026
12	0xbd006f04	-0.031355873
13	0xbd84952a	-0.06473763
14	0x3ca20178	0.019776091
15	0xbcb00182	-0.021485094
16	0xbd9e432a	-0.07727654
17	0xbd57ea40	-0.052713633
18	0xbb8df6ba	-0.0043323906
19	0xbc88876d	-0.016666139
20	0xbcf60bb9	-0.030034887
21	0x3cdb263a	0.026751626
22	0xbd33f74c	-0.043937013
23	0x3d99c3ac	0.075080246
24	0x3d8b8d00	0.06814003
25	0xbd1caa06	-0.038248084
26	0xbc4c2c73	-0.012461769
27	0xbd1edd15	-0.03878506
28	0xbd836743	-0.0641618
29	0x3d41fc51	0.04735977
30	0x3da4b6a3	0.08042648
31	0xbd80c933	-0.06288376
32	0xbcd938b0	-0.026516289
33	0x3cab6d1a	0.020926047
34	0x3db0b99a	0.08629151
35	0xbd849408	-0.06473547
36	0x3d852504	0.06501201
37	0xbcfbb600	-0.030726433
38	0x3ca4eef0	0.020133466
39	0xbcb99314	-0.02265314
40	0xbdab5c75	-0.08367244
41	0x3d9c1095	0.0762035
42	0x3cd98b0b	0.026555559
43	0xbd8ef24e	-0.0697981
44	0xbcc925b4	-0.024554111
45	0xbc1e986f	-0.009679898
46	0xbdaa2b31	-0.08309019
47	0x3d9329fc	0.07185742
48	0x3d4976b3	0.049185466
49	0xbd8eeea7	-0.06979113
50	0xbbd083c1	-0.0063633625
51	0x3d307dae	0.043088607
52	0xbc8c37f7	-0.01711653
53	0x3daa4611	0.08314145
54	0x3d349d26	0.04409518
55	0x3d579916	0.05263623
56	0xbd7c2726	-0.061560772
57	0xbd9dd0dc	-0.077058524
58	0x3dac42e0	0.08411193
59	0xbd143e52	-0.036192246
60	0xbd245b18	-0.040125936
61	0x3c8b938b	0.017038127
62	0x3d5b9656	0.05361017
63	0x3d8cdbc0	0.068778515
64	0xbd53b583	-0.051686775
65	0x3cb11273	0.021615243
66	0xbaed8a1f	-0.0018122828
67	0xbd90ca3d	-0.07069824
68	0x3d6b87e4	0.057502642
69	0x3d5b6cf8	0.053570718
70	0x3c3d651e	0.011559753
71	0x3d459a43	0.04824282
72	0x3b9d775d	0.004805489
73	0xbc9e52c3	-0.019326573
74	0xb9fffa6a	-0.00048823963
75	0x3d5d332a	0.054003872
76	0x3ca85858	0.020549938
77	0xbce61823	-0.028087681
78	0xbd20b70d	-0.03923707
79	0x3ad91a98	0.0016563712
80	0xbc4ae8d1	-0.012384609
81	0x3cc446fc	0.02395963
82	0xbd862589	-0.06550128
83	0x3da3226b	0.07965549
84	0xbcc300f7	-0.023804171
85	0x3cc4b9d3	0.02401439
86	0x3d858d48	0.06521088
87	0xbc6945b0	-0.014237806
88	0x3d0e3611	0.03471953
89	0xbda0b15e	-0.0784633
90	0xbd3f263b	-0.04666732
91	0x3d17ab5e	0.037028663
92	0xbd722054	-0.05911286
93	0xbd37cd5f	-0.04487359
94	0xbd8d0df6	-0.068874285
95	0xbdab9da2	-0.083796754
96	0x3cfae7d0	0.030628115
97	0xbd3265fe	-0.0435543
98	0x3c0aab75	0.00846373
99	0xbd81d350	-0.06339133
100	0x3d8423d1	0.06452144
101	0x3d6de4f6	0.058079682
102	0xbdb2372e	-0.08701931
103	0x3d2685ff	0.040655132
104	0xbd2146c0	-0.039374113
105	0x3b607d65	0.0034254428
106	0xbda76f67	-0.08175545
107	0xbd80e285	-0.06293205
108	0xbd975e8d	-0.07391081
109	0xbcf9b520	-0.030481875
110	0x3db3b114	0.08774009
111	0xbd3f837e	-0.04675626
112	0xbda8ba7d	-0.08238695
113	0x3c76569c	0.015035298
114	0xbd830ce5	-0.06398944
115	0x3d824096	0.06359975
116	0xbdadb584	-0.08481887
117	0xbcc9784d	-0.024593497
118	0xbcd20636	-0.025637727
119	0x3ca55a8d	0.02018478
120	0x3d4d1472	0.050068326
121	0x3db2ea39	0.08736081
122	0xbce1dae8	-0.027570203
123	0xbd5b03de	-0.053470485
124	0xbd8b5d75	-0.06804935
125	0xbbd28726	-0.0064248024
126	0x3d90a36a	0.07062419
127	0x3da45dda	0.08025713
128	0x3d61318b	0.05497889
129	0x3d16c0ea	0.03680507
130	0xbc8e7557	-0.017389936
131	0xbd05ab3a	-0.032633997
132	0xbdad3e9d	-0.08459208
133	0xbc31377c	-0.010816451
134	0x3d58891b	0.05286513
135	0xbd949761	-0.07255436
136	0xbd8d5dab	-0.06902631
137	0x3d741194	0.059587076
138	0x3cade722	0.021228377
139	0x3d3651da	0.044511653
140	0x3ba9da62	0.005183504
141	0x3db12218	0.08649081
142	0x3d36351e	0.04448425
143	0x3c7f7bee	0.015593512
144	0xbd7c137e	-0.061542027
145	0xbdac9850	-0.08427489
146	0xbd532a20	-0.051553845
147	0x3d2ec74f	0.042670544
148	0xbcc7f863	-0.024410432
149	0xbd180e9d	-0.03712331
150	0x3d9f500d	0.0777894
151	0x3d8b8479	0.068123765
152	0xbd8211c9	-0.063510485
153	0xbcddd041	-0.027076842
154	0x3d204ddc	0.039136752
155	0xbd1ec931	-0.03876609
156	0xbd92049a	-0.07129784
157	0x3cabceba	0.020972598
158	0x3dab3580	0.08359814
159	0x3d99b8af	0.07505929
160	0xbd40638e	-0.046969943
161	0xbda3dd0b	-0.08001145
162	0xbd4aca06	-0.04950907
163	0x3b3d018c	0.0028840033
164	0x3c9b0bc8	0.018926516
165	0xbd8e7da2	-0.06957556
166	0x3cd25c64	0.02567882
167	0x3cb95886	0.02262522
168	0xbd9553f9	-0.07291407
169	0xbd751fb4	-0.059844688
170	0xba801d07	-0.0009774276
171	0x3d956854	0.0729529
172	0xbd32b7bb	-0.04363225
173	0x3cca2b2d	0.024678791
174	0xbd6a836b	-0.057254236
175	0xbd6a66a3	-0.05722679
176	0x3d9a7dbe	0.07543515
177	0x3bfc1482	0.0076928744
178	0xbd862dd5	-0.065517105
179	0x3cf052ee	0.029336419
180	0xbc7110be	-0.014713464
181	0x3d2f9a61	0.042871837
182	0x3d3ceabc	0.046122298
183	0x3ce79cd3	0.028273022
184	0xbc9cb12c	-0.01912745
185	0x3d8c2b71	0.06844223
186	0x3d3929c6	0.045205854
187	0x3d81c7ba	0.06336923
188	0x3cded0fa	0.027199257
189	0xbc080c53	-0.00830372
190	0xbda17751	-0.07884086
191	0x3d2ef307	0.042712238
192	0xbda1fa74	-0.07909098
193	0x3ca7d3f6	0.020486813
194	0xbc09d02a	-0.008411447
195	0x3d87d8cf	0.0663315
196	0xbd67bdd4	-0.05657752
197	0xbd46cb64	-0.048533812
198	0x3d7c7723	0.061637055
199	0xbd477bc2	-0.04870201
200	0x3c08a383	0.0083397655
201	0x3cd6054e	0.026125576
202	0xbc0f56bb	-0.0087487055
203	0x3cfe34d3	0.031031048
204	0xbc78572d	-0.015157503
205	0x3d743cf2	0.059628434
206	0xbd984854	-0.074356705
207	0x3d1c7383	0.038196098
208	0xbc8c53cf	-0.017129807
209	0x3d8e26e3	0.06941011
210	0x3d4c170f	0.049826678
211	0x3ce2add8	0.027670786
212	0x3db14002	0.08654787
213	0xbcc57a55	-0.024106184
214	0xbcbc98ad	-0.02302202
215	0x3d5f4ff8	0.054519624
216	0x3d81d244	0.06338933
217	0x3da52d77	0.08065312
218	0xbd25a70d	-0.040442515
219	0x3d86f106	0.0658894
220	0x3d9701e7	0.0737341
221	0x3da1546d	0.07877431
222	0x3d931b1c	0.07182905
223	0x3ca0dfd2	0.019637976
224	0x3d48f467	0.049061205
225	0xbc62411b	-0.013809468
226	0x3c95e1c7	0.018296136
227	0xbda1a2b3	-0.078923605
228	0xbc33ce44	-0.0109744705
229	0xbd906c2a	-0.07051881
230	0xbd8d49b0	-0.068988204
231	0x3d4e18fe	0.050316803
232	0xbda25de3	-0.07928064
233	0xbd407b09	-0.046992335
234	0x3da36026	0.07977323
235	0x3d99b1f8	0.07504648
236	0x3d751732	0.059836574
237	0x3d173e32	0.03692455
238	0x3d9bcc98	0.076073825
239	0x3d00206b	0.031280916
240	0x3d3f115f	0.046647426
241	0x3cf58e14	0.029974975
242	0x3d2dc7ad	0.042426754
243	0x3da098da	0.07841654
244	0x3d7436d5	0.059622604
245	0x3ccbdfcb	0.024886986
246	0x3d93f4c1	0.072244175
247	0xbcb7af82	-0.022422556
248	0x3c6cd0af	0.014454051
249	0xbdb2ed57	-0.08736675
250	0x3db1df84	0.0868521
251	0xbd03d309	-0.03218368
252	0xbd109e74	-0.035307363
253	0x3d106bb5	0.035258967
254	0x3bdb6594	0.0066954587
255	0xbda3334f	-0.07968771

strategy_generator.generator.4.bias f4 [64]
0	0x3d321414	0.04347618
1	0xbd7c5136	-0.061600886
2	0xbd8d09d9	-0.06886644
3	0xbd2812ac	-0.041033432
4	0xbc86e17b	-0.01646494
5	0x3d8ab58e	0.0677291
6	0x3cc53fbb	0.02407824
7	0xbce8fc26	-0.028440546
8	0x3d40add3	0.04704077
9	0xbd7a0510	-0.061039984
10	0x3d46b132	0.04850883
11	0x3d0df88f	0.034660872
12	0xbd9bd783	-0.07609465
13	0xbda32bb7	-0.07967322
14	0xbd69ec8a	-0.057110347
15	0xbd21198d	-0.039331008
16	0xbd703229	-0.058641586
17	0x3d817510	0.06321156
18	0xbc9f3225	-0.01943309
19	0xbd5b311f	-0.053513642
20	0xbd7c5a0f	-0.061609324
21	0x3c81c80d	0.015842462
22	0x3c50b1ce	0.012737704
23	0x3c6042cb	0.0136878
24	0xbd8b9d1d	-0.06817076
25	0x3d36e27d	0.04464959
26	0x3bdbac34	0.006703878
27	0xbcb79739	-0.022410976
28	0x3dac1512	0.08402456
29	0xbc901bfe	-0.017591473
30	0x3bc9907f	0.0061512585
31	0x3d8b8281	0.06812001
32	0xbd36b610	-0.044607222
33	0x3d0db694	0.03459795
34	0xbce2e527	-0.027697159
35	0x3dab6d00	0.083703995
36	0x3cfa0eaa	0.03052457
37	0xbd6931cc	-0.056932256
38	0xbd6cb096	-0.057785593
39	0x3d497554	0.04918416
40	0x3d35a1fb	0.04434393
41	0x3bdbd9a2	0.0067092935
42	0xbb7147e6	-0.0036816536
43	0x3d6d7fe4	0.057983294
44	0x3d9f0594	0.07764736
45	0x3d971e42	0.07378818
46	0x3d4398c3	0.047753107
47	0xbd945479	-0.072426744
48	0x3c74b4ee	0.014935715
49	0x3ceb2542	0.02870429
50	0xbd29388b	-0.04131369
51	0xbd3f92d1	-0.046770874
52	0xbc6cb115	-0.0144465165
53	0xbd29295d	-0.041299213
54	0xbda70200	-0.08154678
55	0x3d422b0b	0.04740433
56	0x3d5f4762	0.054511435
57	0xbcffa5a6	-0.031206917
58	0xbc5950e8	-0.013263918
59	0xbd83c0ac	-0.064332336
60	0x3c4c0989	0.012453445
61	0xbcfe670d	-0.031054998
62	0x3b8f6c14	0.0043768976
63	0x3d67018f	0.05639797
