models/physical_model.onnx (onnx, 108881 bytes, 42 tensors)

encoder.0.weight f4 [64, 10]
00000000: d988 6f3e ec11 83be 1ec8 c0bc 8ffc c8bd
00000010: c5d1 dcbb d8c8 c93d fbf9 713d 860e 0b3d
00000020: 1cb0 7cbe 6a2f 893e 3b07 47be 7d43 e6bd
00000030: 4091 c93d 8081 a2bd 1fe2 c43d 27b2 17be
00000040: 195a 883e f846 1fbc 8821 32be e347 843e
00000050: 2632 54be 6415 683d c751 9a3e 325a c13d
00000060: 7491 d93c 2957 68be 8e7d 1bbe a439 403e
00000070: 4b82 e0bd 66e2 5c3d db2f 17be 42e4 c23d
00000080: e5ef 96be 955b 163e e68a e3bc 678a 9fbd
00000090: 3546 783e 28d1 2abe 9674 9f3d f0f0 563e
000000a0: 5a85 8d3e db12 963e 9427 653e 180e b6bd
000000b0: 97a3 7b3e ade2 85be 93e7 1d3e c25e dfbd
000000c0: 87fa 533d a6a1 99bd ddcf 05bc de34 693c
000000d0: 3fab 96be 985c 27be fb2a 8dbb dc12 acbd
000000e0: df1c a73d 6ab0 25be 399d 1dbe 53e5 3c3e
000000f0: 3f3f abbd 2cdd 6abe beb1 41bd f325 9abe
00000100: 2a27 5e3e c1f2 95be f15d 66bd 53f5 4e3e
00000110: 1d0f 7ebe 6ca5 2a3d 7ae5 5a3e ce85 733e
00000120: a2bb 6b3e b696 9bbe c7a5 84be f222 32be
00000130: 59cf 95be 52ed 823e e9ec 03be 7b25 9e3e
00000140: 9416 8b3e c83f 54be 94fe c0bd 4059 4dbe
00000150: 0874 e8bd fe22 8dbe 6555 0c3e af34 643e
00000160: 89d7 7dbe 9c4b 1c3e 76e5 143e dc7e 8e3e
00000170: cc29 12be c27c 543b 1b8e 563d 8903 703e
00000180: d16d 953d cac0 35be cf2c 5abe a75f a8bc
00000190: 57b6 583d 0384 80be 9582 69be d27a 90be
000001a0: d607 f3bd 87a4 94bd f1a7 413e bb27 45be
000001b0: ea89 5abe 1492 6f3e ae0d 1cbe 9280 febd
000001c0: 403f e3bc 3303 533e 12df a8bc 8ba7 6f3e
000001d0: d27a efbd 72d2 3ebe 3670 853e 66ff 783c
000001e0: 7adf 3f3e a288 9fbe e297 413e a295 59be
000001f0: 94fe 1ebe c612 5a3e a3e2 9c3e 3844 3b3e
00000200: 2a2d 79be 1194 00bc c725 993d 6529 a23e
00000210: c7e5 893e 364b e93c 7a81 3f3e 2e9f 92bd
00000220: e9e5 80be 0e4e eb3d 0528 3a3a b720 c3bd
00000230: aafe 00be 91b1 23be 5ce5 913c d973 7e3e
00000240: 8280 28bd f3a2 0abe b972 c1be 1c1a b53d
00000250: 5381 4f3e 8908 ed3d 8272 3ebe 8098 373d
00000260: ca14 f6bd 1995 8b3e 0baa dd3d abce 19bd
00000270: 62d3 99be 8427 103e f081 9e3d 6a2e 3c3e
00000280: 7fc9 903e 9914 05be eb92 1cbe 2049 a8bd
00000290: 48d0 27be 68ce 80bc 3a72 ccbd c1b3 0d3d
000002a0: 10fa bdbd 7694 7bbe dcd2 cdbd 8c0d 59bd
000002b0: bec0 27bc 8cc4 123e ee20 3a3e f7e2 383d
000002c0: f61f abbe 4e11 173e 3b20 323d 3aed 723e
000002d0: 0b1f e03b c5a9 02be 15a0 35be a706 503d
000002e0: 385c 62bd ace7 393d a2e7 5f3e 25be 6abe
000002f0: d76e 583e fcac 49be 08b6 413e 3e51 8fbe
00000300: bb39 06be 5524 5cbe d7fb 03be b574 a2bd
00000310: e5b0 893e 3fb1 143e fa1b ecbd 5ec3 c4bc
00000320: 01ca 5abe 0686 9fbe e067 2ebe 487c e83c
00000330: 172a 86be 8a70 58be 272f 3dbe e4f7 963d
00000340: 71c1 8dbe 1eac 7c3e 463d 56be 0812 93bc
00000350: 88fc 23be 68b9 3dbe 8db6 613e 8180 9cbe
00000360: 7a89 63be 5ded 323e 4d26 9dbe 89d9 81be
00000370: 5ef5 b1bc 674c 55bd 839a c1bd 1cce 333e
00000380: efea 7abc b495 573c 328d a3be 676c b13c
00000390: 1339 813d bf98 fb3c cb1d 9ebe f6d1 71bc
000003a0: 9347 883e 02ed 4f3e fc5f 743e fc06 ec3d
000003b0: 9009 7bbe c4ed b6bc ab8c 27bc 7388 52be
000003c0: 3f1a 093e e5aa ccbd 2194 403e c712 e8bd
000003d0: 24ad e03c 1647 82be 49f3 96bd df5b 5b3e
000003e0: 50f9 37be 5db0 46be 59f9 24bc d30b ddbd
000003f0: e991 243d e5c8 f43d 1b38 80be 4da9 803e
0.23392047 -0.2559961 -0.023532923 -0.09813797 -0.0067388737 0.09852761 0.05907629 0.033949398
-0.24676555 0.26793987 -0.19436352 -0.11243341 0.09842157 -0.079348564 0.09613442 -0.14814053
0.2663124 -0.00972151 -0.17395604 0.25836095 -0.20722255 0.056661025 0.30140516 0.094410315
0.026558615 -0.22689499 -0.15184614 0.18771988 -0.109623514 0.053926848 -0.14764349 0.09516193
-0.294799 0.14683373 -0.027776193 -0.0779007 0.24245532 -0.1668135 0.07785909 0.20990348
0.27640802 0.2931126 0.22378379 -0.08889407 0.24574123 -0.26149502 0.1542037 -0.109067455
0.051752593 -0.07501535 -0.008167234 0.014233796 -0.29427525 -0.16343915 -0.004308102 -0.08402035
0.081598036 -0.16180578 -0.15392007 0.18446855 -0.083616726 -0.22935933 -0.04728865 -0.30107078
0.21694627 -0.2928677 -0.056241933 0.20210771 -0.24810453 0.041661665 0.21376601 0.23781511
0.23020795 -0.3038842 -0.25907728 -0.17396143 -0.29259756 0.25571686 -0.12883343 0.3088797
0.27165663 -0.20727456 -0.09423557 -0.20053577 -0.11350256 -0.2756576 0.1370445 0.22285722
-0.24789251 0.15263218 0.14540657 0.2783116 -0.14273757 0.0032422994 0.052381616 0.23438849
0.072963364 -0.17749324 -0.21306156 -0.020553423 0.052908268 -0.25100717 -0.2280372 -0.28218704
-0.11866729 -0.072579436 0.18911721 -0.19253437 -0.21341673 0.23395568 -0.15239593 -0.124268666
-0.02774012 0.20606689 -0.02061418 0.23403756 -0.11693348 -0.18634966 0.26062173 0.0151976105
0.18737593 -0.3115893 0.18905595 -0.21248487 -0.15526801 0.21296224 0.3064166 0.18287742
-0.24333635 -0.007847802 0.074779086 0.31672207 0.2693312 0.028478246 0.18701735 -0.07159267
-0.25175408 0.11489497 0.00071013 -0.09527724 -0.12597147 -0.15985705 0.017809562 0.2484888
-0.04113818 -0.13538723 -0.3778284 0.088428706 0.20264177 0.115738936 -0.18598369 0.04482317
-0.12015684 0.2726219 0.10823449 -0.03755061 -0.30044085 0.14077574 0.07739627 0.1837708
0.2827873 -0.12996139 -0.1529042 -0.082170725 -0.16388047 -0.015723422 -0.099827245 0.034595255
-0.09276211 -0.24568352 -0.10049984 -0.052991435 -0.010238824 0.14332789 0.18176624 0.045138326
-0.33422822 0.14752695 0.04348777 0.23723307 0.006839638 -0.12760074 -0.17736848 0.050787594
-0.055263728 0.045386955 0.21865705 -0.22924097 0.21136032 -0.19694895 0.18917096 -0.2799167
-0.1310796 -0.21498235 -0.12889038 -0.07932416 0.26892772 0.14520739 -0.115287736 -0.02401894
-0.21366121 -0.3115694 -0.17031813 0.028379574 -0.26203987 -0.2113668 -0.18475018 0.073715
-0.27686647 0.24675032 -0.20921811 -0.017952934 -0.16014302 -0.18527758 0.22042294 -0.3056679
-0.22220412 0.1747336 -0.30693284 -0.2536128 -0.021723446 -0.052074816 -0.09453299 0.17559093
-0.015314802 0.013158251 -0.3194366 0.021658136 0.06309714 0.030712483 -0.30882105 -0.014759531
0.26617107 0.20305255 0.2386474 0.1152477 -0.24515367 -0.022330172 -0.010226409 -0.20559864
0.13388918 -0.09993533 0.18806507 -0.113317065 0.02742631 -0.2544486 -0.07370622 0.21421765
-0.17966199 -0.19403215 -0.010069215 -0.10793271 0.040178213 0.1195238 -0.25042805 0.25129166

encoder.0.bias f4 [64]
00000000: 43d0 db3d 8057 893e d2e5 c1bd ec3f 8f3e
00000010: 4681 1dbe 6daa 7bbd 2433 90bc 5912 223e
00000020: 61cf 83be e984 ad3e 4ada 453e 843f 9a3d
00000030: 755a 8f3e 8ecb 443e ed04 3ebd 6126 893e
00000040: 4f75 213e 3254 e73d 94da 543e 17a5 6c3e
00000050: b397 fabd 8d32 293e a8b0 26be 9dcc 923d
00000060: d62c dcbc b033 973e f855 ad3e 98b8 693d
00000070: b5d9 1bbe 0aac 95be b8c6 c13d e3dd cc3c
00000080: dd97 1c3e 4a69 043e a214 d1bd 4026 c43d
00000090: 87b9 213e 7750 a7bd 3cf8 633e 42c5 993e
000000a0: 0a6c bdbd c248 653e 7023 ca3d 1226 893d
000000b0: 2c35 52be f3aa 16be 3b44 803e 4c80 a7bc
000000c0: e752 853d 18e7 483e f92d 8dbd 8c2f 933e
000000d0: 28f9 88be 7b0f 8ebd c418 5b3e 867e b53a
000000e0: c4cd a03e ae15 983e cf01 55be e185 843e
000000f0: b96a 86be 47a7 f53d fbca 97bd 1840 ed3d
0.10733082 0.2682457 -0.09467663 0.27978456 -0.15381345 -0.061441828 -0.01760251 0.15827312
-0.25744155 0.33890465 0.19321552 0.07531646 0.279987 0.19218275 -0.046391416 0.26787093
0.15767406 0.11295356 0.20786506 0.23109852 -0.122359656 0.1652319 -0.16278327 0.07167933
-0.026876848 0.29531622 0.3385465 0.057060808 -0.15219767 -0.29232818 0.09461731 0.025008148
0.15292306 0.1293079 -0.102090135 0.09577608 0.1579343 -0.08169644 0.22262663 0.30033308
-0.092491224 0.22391036 0.098700404 0.066967145 -0.20528096 -0.1471365 0.25052056 -0.020446919
0.06509953 0.19619405 -0.06893534 0.28747213 -0.2675259 -0.069365464 0.21396166 0.0013846911
0.31406987 0.2970404 -0.20801471 0.25883391 -0.26253298 0.11994796 -0.07411762 0.115844905

encoder.2.weight f4 [64]
00000000: 8ffd 783f ad33 7d3f b21d 7c3f f8c7 753f
00000010: 9220 693f 82a5 853f e48e 763f 72af 703f
00000020: 18e4 723f ae9c 703f 1218 853f f32e 843f
00000030: d381 7d3f 1fc7 813f 6e63 8e3f e0c6 8c3f
00000040: 8625 7e3f ec39 893f 2b90 7e3f 3f70 913f
00000050: a3a8 6f3f 0c0f 713f 1873 913f b5e4 843f
00000060: d5f0 763f 1212 833f 74e6 6e3f c7eb 803f
00000070: 2133 7a3f a699 6d3f dfe1 813f 8cb6 8a3f
00000080: 1470 853f 5323 673f 31b7 6c3f 4715 6c3f
00000090: c01c 6f3f e0db 713f 821a 7b3f cace 6e3f
000000a0: 434f 8b3f 7b8f 823f 0c95 6e3f 295b 733f
000000b0: 515f 893f 4b88 773f 9513 8b3f d88b 743f
000000c0: 2903 833f 3f31 8d3f 8d6c 6c3f 9c36 813f
000000d0: 25ed 6e3f 499d 753f 930c 733f 9aaa 7e3f
000000e0: 08ca 733f 900a 8c3f 21ca 6f3f dbf0 883f
000000f0: e90e 823f f04c 853f 3e9b 7a3f 692c 743f
0.972619 0.98906976 0.9848281 0.96008253 0.91065323 1.0441134 0.96311784 0.9401771
0.94879293 0.93989074 1.0397971 1.0326828 0.9902622 1.0138892 1.1124094 1.0998192
0.99276006 1.0720801 0.9943873 1.136238 0.93616694 0.94163585 1.1363249 1.0382296
0.9646123 1.023989 0.93320394 1.0071954 0.97734267 0.92812574 1.0147055 1.0836959
1.0424829 0.90288275 0.9246703 0.92219967 0.93403244 0.9447613 0.9808732 0.93284285
1.0883564 1.0200037 0.9319618 0.95060974 1.0732213 0.9669234 1.0865351 0.95525885
1.0235339 1.1030654 0.92353135 1.009479 0.93330604 0.95943123 0.9494106 0.9947907
0.9523015 1.0940723 0.936678 1.0698503 1.01608 1.0414104 0.9789313 0.95380265

encoder.2.bias f4 [64]
00000000: 5adf d43c 40f8 2d3d 5365 66bc c8d6 1abd
00000010: 1778 2d3c 44bb 67bc 3cbf 213d 00a3 7bbc
00000020: 2ecc 79bb 06e9 35bd 1e4f c73b 6ad5 043d
00000030: e990 39bd a9a3 a5bc 4996 d7ba 879d 843d
00000040: b2b2 023d bd77 41bd 3d0d d2bc a952 773d
00000050: 98fe 193d 3089 e0bb 101c c2bd a738 863d
00000060: 9a36 bc3c 97b4 2a3d 324d 173d 88c2 32bd
00000070: 6542 a6bc 68ad 72bd 165f 80bd 6c95 13bd
00000080: 2670 523d 56e4 fc3c 956b 053c aa33 153d
00000090: 7eec 61bd 41fa 8e3d 6cab 113d 6ed3 553c
000000a0: adbf afbc 6e7a f3bc eb9c 01bd 4503 01bd
000000b0: 52bd 17bd c630 bf3d c837 e2bd e4fc 9b3c
000000c0: f326 82bc a236 f2bb 777a 03bd c03d 2a3c
000000d0: 2966 443c 93eb c03c af46 343c 3767 403d
000000e0: a94e 7ebd 4313 78bd bf98 a63c 0492 1d3d
000000f0: 48ba 7abb d807 1cbc 9b65 c1bb 75de 69bb
0.025985409 0.042473078 -0.0140622435 -0.037802488 0.010587714 -0.014143769 0.039489016 -0.015358686
-0.0038116085 -0.04441168 0.0060824296 0.03243009 -0.045304213 -0.02021964 -0.0016447987 0.064753585
0.0319087 -0.047233332 -0.025641078 0.060381565 0.037596315 -0.0068522915 -0.09478009 0.06553774
0.022975255 0.04167613 0.036938854 -0.04364255 -0.020295331 -0.059247404 -0.06268136 -0.03603117
0.051376484 0.030870598 0.008143325 0.036426224 -0.055157177 0.06981326 0.03556387 0.013050897
-0.021453703 -0.029721465 -0.03164379 -0.03149726 -0.037045784 0.09335475 -0.11045796 0.019041486
-0.015887713 -0.0073917666 -0.032099213 0.010390699 0.0119872475 0.02354983 0.01100318 0.046973433
-0.062086735 -0.060565244 0.020336507 0.03846933 -0.0038258005 -0.0095233545 -0.005902005 -0.0035685573

encoder.2.running_mean f4 [64]
00000000: 6fa5 8f3e 950a cb3e 3c08 113e c198 bb3e
00000010: 97e8 393e adf8 183e d275 853e 0ef4 b53e
00000020: 7af8 223e 0678 bf3e 58ac c53e ffaa 743e
00000030: be20 fa3e 99b8 923e 17db 483e 77ed b03e
00000040: 7f95 8c3e ee57 7d3e 50b7 aa3e d0ed c83e
00000050: 2954 663e 90a4 c03e 2fe8 973d f6c0 8d3e
00000060: 8d6f 473e 1c42 ce3e b1b7 b63e 87e9 453e
00000070: 9c7f 1f3e 9f77 e73d ee95 9c3e 7598 6f3e
00000080: e45f c03e defc b63e e99d 353e 99a1 5e3e
00000090: 4fa5 b93e 1846 753e 1ca0 b13e 3e5d c33e
000000a0: 27da ee3d 6afd c53e 7b40 a73e 0b17 883e
000000b0: 089a 973d d4f0 513e 19cc ac3e 933d 7d3e
000000c0: 5e55 9c3e b68f 8b3e 5824 2f3e b101 dd3e
000000d0: 9704 203e 239f 393e 716e b13e e89b 813e
000000e0: fcaa f03e c10d b63e 5438 d53d cc5f df3e
000000f0: 51b2 fa3d e67e 9d3e 2855 333e f88e a43e
0.28055903 0.3965651 0.14163297 0.3663998 0.18155132 0.14938612 0.26066452 0.3553776
0.15915099 0.37396258 0.3860805 0.23893355 0.48853105 0.28656462 0.19614826 0.3455617
0.27457806 0.24740574 0.3334298 0.39243937 0.22493042 0.3762555 0.074173324 0.2768628
0.19476147 0.40284812 0.3568702 0.19327365 0.15576023 0.11302113 0.30583137 0.23398001
0.3757316 0.35739797 0.17736019 0.21741332 0.36258933 0.2395252 0.34692466 0.38157076
0.11662703 0.38669902 0.32666382 0.2658008 0.07402426 0.20502025 0.33749464 0.2473052
0.3053388 0.2725808 0.17103708 0.43165353 0.15626751 0.18127112 0.34654573 0.2531426
0.4700545 0.35557368 0.10411134 0.43627775 0.122410424 0.30760878 0.17512953 0.32140326

encoder.2.running_var f4 [64]
00000000: 0742 ec3d 1c78 253e 2f76 713d e323 263e
00000010: afd7 c13d 5e47 6a3d 43b9 fd3d f031 603e
00000020: 16a4 bd3d e604 1a3e 3006 3f3e 2c76 ce3d
00000030: 15c1 893e 190d 003e 2ded b93d caff 0a3e
00000040: a0b7 e03d 976d d53d a83e 093e c18d 293e
00000050: 2f44 053e 68eb 4d3e c225 d63c 4165 173e
00000060: 737e b63d 0c3c 503e e198 c83d 58d2 a73d
00000070: 045a 953d c1f2 6d3d 416d 243e b761 c83d
00000080: f092 3d3e 0ad4 1c3e 307a ae3d ca90 913d
00000090: 2ef3 4b3e 5cdd 093e b4ac 133e ba1e 3c3e
000000a0: 40d1 153d 6549 3a3e abd4 423e 2e0c f03d
000000b0: 8358 c33c a05b f03d a19d 0b3e 4b9c 063e
000000c0: 0052 243e 01d2 d63d 84a1 a23d b326 673e
000000d0: c6af 993d 332c c23d 9be3 463e 5a2a 0c3e
000000e0: 5e10 853e a4fb 233e 2309 3c3d 46ef 473e
000000f0: 652f 953d adb0 283e 1965 9e3d ff86 433e
0.11536031 0.161591 0.0589506 0.16224627 0.094649665 0.057196967 0.123888515 0.2189405
0.092598125 0.15040931 0.18654704 0.10081133 0.26905122 0.12504996 0.09078441 0.13574138
0.10972524 0.10421293 0.13402808 0.16557981 0.13014291 0.20109332 0.026141051 0.14784719
0.08910837 0.20335406 0.09794784 0.08194417 0.0729256 0.058092836 0.16057302 0.097842626
0.18513083 0.15315261 0.08519399 0.071076944 0.19916984 0.13463348 0.1442135 0.18371096
0.03657651 0.1819206 0.19026439 0.11721073 0.023845917 0.11736226 0.1363435 0.13145559
0.16046906 0.10489274 0.07940963 0.22573356 0.07504229 0.094810866 0.19422762 0.13688031
0.2598905 0.16013962 0.04590715 0.1952487 0.072844304 0.16473646 0.077341266 0.19094466

encoder.3.weight f4 [64, 64]
00000000: 9d42 32bd 4bc5 febd cfd8 0abd c39b babd
00000010: da3d 413d 8f73 b1bd a597 c43d 814a 32bd
00000020: 8be6 b83d 1d99 0fbd fe9f 93bd 44da f73d
00000030: 4f3c d8bd 90a5 91bd cb58 913d 43f4 debb
00000040: d083 ac3d 2678 063d c9e0 85bc dd74 913c
00000050: c754 73bc a09b 22bd 0092 9dbc 7a0d cd3d
00000060: b0d2 82bc 2817 123e 0b15 d6bd 98d8 d1bd
00000070: 3172 bebd 44f8 d93d 4ef4 24bd e091 febb
00000080: 23cc 8bbd e7d3 393d 0374 47bd 37c2 acbd
00000090: 98b9 b23d 4276 d23c 97e9 71bd 97f5 f83d
000000a0: b1fd 5f3b cae2 d23c 1e89 f5bd d284 e63d
000000b0: cb46 0bbc bbd4 b33d 81d0 c63c e806 543d
000000c0: 9487 70bd 9dde 613d 8c60 963b 4b9e 0abe
000000d0: 93cf 0f3d ee7c 8c3b af8e 963d 8c51 8fbd
000000e0: 26ee 16bc 98df e03c 7d60 363d afeb ccbd
000000f0: 924a dabc 7938 c13c 7097 f5bc fdda 05be
00000100: b1a1 17bd c1d8 38bd 6916 87bd 721c 7e3c
00000110: 3c66 1f3d 6f9c bc3d 5df4 0a3b f942 3a3c
00000120: 1926 d6bc a680 ac3c fc95 063e 8f6d ddbd
00000130: a1a5 19bd 7430 f2bd 0a63 623d ba4a 423d
00000140: 23ef c3bc 7bb6 0abc 68ba b43d fd1e 863c
00000150: 964f 73bd 404b a0bd 0360 f8bd 8070 76bc
00000160: 9c73 9e3d ac95 b33b 0117 32bd bb8e 16bd
00000170: fe39 f5bd d72a 5cbd 56b4 94bd 2945 5ebd
00000180: 039f 6f3d 0f0b 183c 47f0 9f3d 7414 503d
00000190: 83ab 5a3d d0bf 403d df85 893c 89e8 a23c
000001a0: d855 573d 2a25 0cbe df5b 643d 2211 9b3d
000001b0: 6d94 c03d 53a3 91bd 04f6 b7bd dff0 f2bd
000001c0: 0edd a6bd 10fb 20be 43e2 84bd 53f0 213d
000001d0: 8995 2cbd 1985 ef3c 97e7 063d a025 863d
000001e0: 4ce1 9cbc a6a3 29bd 56db 983d 1b36 8b3d
000001f0: f1b3 e03d 28a0 6fbd 5967 4b3b 48e9 ca3c
00000200: 95a3 593c 5178 e5bd 9051 8abd 972f abbd
00000210: 42ac cb3c 37f0 e8bd f3a3 a43c ade2 923d
00000220: add1 a9bd 9956 11be f0b8 ebbc 3d18 b13d
00000230: f1f1 f03b 0db8 b2bd 7822 ac3d 4422 ad3d
00000240: 66dc dfbc 1992 ce3d 1746 80bb 9036 613b
00000250: 8496 8c3d 951f c7bc 21cd 9ebb 4ec3 be3d
00000260: 6156 ec3b e307 843d 22cf 273d d641 903d
00000270: cca9 b4bd 1ada 943d 8b30 d73d deb4 18bd
00000280: bf4d f0bd 33ce b73d b4be 523d 09e0 bbbc
00000290: 6586 cebd 08a6 b73d 65f2 d43d cea8 2b3d
000002a0: 5691 ffbd 50ab 88bd dd6b 693d d53d 663d
000002b0: 9d1d e8bd 387a 803d 7e08 0b3e 0818 113c
000002c0: 8e11 e4bd 3ee7 e4bc 2fea debc 3e77 e13c
000002d0: 66e8 ec3c 4fce ec3c bf68 723d 6fa3 0bbd
000002e0: a26a b23c 077f c03d a240 743d e005 e4bc
000002f0: 026e d1bc 16b4 39bd 9de6 34bc 5546 0a3d
00000300: fb78 dcbd 23e9 d8bc d2df 073e d5af a63d
00000310: 9feb cebd b8ff cfbd 162d ca3c 0b2a 913c
00000320: 5905 f6bd 4514 1d3c c498 943d 2962 07bd
00000330: b577 193d 1514 d5ba 179f d03c dca5 b1bc
00000340: f3d3 ca3d 897a 993d ec3d 87bd 445b 84bd
00000350: 13e1 0ebc 0f9b a0bd 82e6 7dbd 0e09 103e
00000360: 347d 833c 5464 0c3e 9ba5 42bd c324 fa3c
00000370: 1bb8 ef3c f1d4 d4ba 3fc5 983d eaab e5bd
00000380: ab83 89bc f08b 693d 18ef 61bc b5cb 54bd
00000390: 1416 1cbe 3f36 853c 8769 91bb 4c5f 5c3d
000003a0: 5b8c c1bd e1aa ba3c 5f04 893d ee8d 423d
000003b0: 3719 c6bd ab16 80bd 9ce4 c03d da5b 083d
000003c0: 5f48 b8bd f01d b4bc 23a9 623d 0158 dd3d
000003d0: 7c18 563c 2899 e03d 9ea8 a2bd dee2 1a3d
000003e0: 834b 4fbc 0848 4e3d 03c3 133d ad5b 8f3d
000003f0: 36ac d73d f763 773d 766b 76bd f3e9 9f3d
-0.04352056 -0.124399744 -0.03389817 -0.091117404 0.047178127 -0.08664619 0.095992364 -0.043528084
0.090283476 -0.03505813 -0.072082505 0.12102178 -0.10558378 -0.07111657 0.07097014 -0.0068040206
0.08423579 0.032829426 -0.016342537 0.01775592 -0.014851755 -0.039699197 -0.019234657 0.10012336
-0.015969604 0.14266646 -0.104532324 -0.1024639 -0.09299124 0.10643056 -0.04027205 -0.0077688545
-0.06826045 0.0453681 -0.04869462 -0.08435481 0.087268054 0.025691155 -0.05906066 0.121562175
0.0034178311 0.025742907 -0.11989044 0.11255802 -0.008500765 0.087808095 0.024269344 0.0517644
-0.058723047 0.05514394 0.004589146 -0.13536946 0.035110068 0.0042873537 0.073514335 -0.06997976
-0.009212052 0.027450368 0.044525612 -0.100058906 -0.026646886 0.023586499 -0.029979438 -0.13071819
-0.037019435 -0.045128588 -0.06596071 0.015509712 0.038915858 0.09209525 0.002120278 0.011368507
-0.026141213 0.021057438 0.13143152 -0.10811912 -0.03751147 -0.11825648 0.055270232 0.047434546
-0.02391774 -0.008466358 0.08824617 0.016372198 -0.05940207 -0.07826853 -0.12127688 -0.0150414705
0.077368945 0.0054804888 -0.04347897 -0.036757212 -0.11973952 -0.053751793 -0.07260959 -0.054265175
0.058501255 0.00927998 0.07809501 0.050800756 0.053386223 0.047057927 0.016787468 0.019886272
0.0525721 -0.13686052 0.055751678 0.07571627 0.0940331 -0.0711123 -0.08982471 -0.11862349
-0.081476316 -0.15720773 -0.064884685 0.03953583 -0.042134795 0.02923827 0.032935705 0.06550145
-0.019150399 -0.041415833 0.0746371 0.06797429 0.10971821 -0.058502346 0.0031036942 0.02476944
0.01328363 -0.11204589 -0.06753838 -0.083586864 0.024862412 -0.11373942 0.020097708 0.07172141
-0.082919456 -0.1419319 -0.028774709 0.08647201 0.0073530604 -0.08726511 0.08405012 0.08453801
-0.027326774 0.1008646 -0.0039146054 0.0034364797 0.06864646 -0.024307052 -0.0048462306 0.09314595
0.0072124456 0.06446817 0.04096902 0.07043807 -0.08821449 0.07268162 0.10507306 -0.037281863
-0.11733579 0.08974876 0.0514514 -0.022933977 -0.100842275 0.08967215 0.103977956 0.04190903
-0.124788925 -0.066733 0.056987632 0.05621131 -0.11333773 0.062733114 0.13577458 0.008855827
-0.11136161 -0.027942296 -0.027211277 0.02752268 0.02891941 0.02890697 0.059181925 -0.03409141
0.021779362 0.093992285 0.05963195 -0.027834833 -0.025565151 -0.04533776 -0.011041311 0.03375848
-0.10765263 -0.026478356 0.13268974 0.08139006 -0.10103535 -0.10156196 0.024679702 0.017720243
-0.12012739 0.009587352 0.072557 -0.033052597 0.037467677 -0.0016256595 0.025466485 -0.021685533
0.09903707 0.07494075 -0.066036075 -0.0646272 -0.008720654 -0.07842075 -0.061987408 0.14065954
0.016050912 0.13710147 -0.047521215 0.030535107 0.029262593 -0.0016237778 0.07459497 -0.11214431
-0.016786417 0.05701822 -0.013789915 -0.051952083 -0.15242797 0.016261218 -0.0044376287 0.05380182
-0.09450599 0.02278656 0.06690287 0.047498636 -0.09672778 -0.062543236 0.09418604 0.03329072
-0.08998179 -0.021986932 0.055337083 0.10807801 0.013067361 0.10966712 -0.079423174 0.037814014
-0.012652281 0.050361663 0.03607465 0.06999908 0.105308935 0.06039807 -0.060161076 0.07808294

encoder.3.bias f4 [64]
00000000: 71d0 223e b559 143d a6f4 423e 2c92 013d
00000010: ffe6 0bbd 1315 253d 129c 633a 9178 8c3d
00000020: 2dce 513e adc0 093e ed93 03be 310d 263e
00000030: 7a7e 24bc f1ba 7c3b 5ec9 a3bd b296 acbd
00000040: a2e5 e6ba 23e6 2a3c 21c2 aabd 071e bb3d
00000050: 89c4 7d3d c67e 0d3e 3bcc d63d 7da6 503e
00000060: ca47 1b3e 8e6c 1fbd 829b f43d e6d6 4dbd
00000070: 1e1f 433e d169 eb3d 6d0e 07bc 607c 1e3e
00000080: eb0c 96bc 184a 993d 9cd2 543b acf5 8ebc
00000090: 7f5f 4bbc d613 ea3d 3360 e13d fefd 1b3e
000000a0: ce53 583c 9ced d3bd c605 563d 7b33 dc3d
000000b0: 71b8 7f3d bb9e 5b3d 77e3 103d 03d5 a5bc
000000c0: 2599 5ebd d1d6 0fbc fb1d 1b3d 8d1d 623d
000000d0: 0fc9 acbc b890 933d 9090 f63d 04d4 44bd
000000e0: 3523 d63b 19fd 913d 8422 1e3d a5ea b8bd
000000f0: ee3a d1bd c539 273d 60a9 3fbd 8707 063c
0.15899827 0.036218364 0.19038638 0.03163354 -0.034155842 0.0403033 0.0008682619 0.06858934
0.20488806 0.13452406 -0.12849398 0.1621597 -0.01003992 0.0038563574 -0.07997392 -0.0842718
-0.0017616043 0.010430845 -0.083378084 0.09136587 0.06195501 0.13817891 0.104881726 0.2037601
0.15164104 -0.038921885 0.11943723 -0.05025377 0.19054839 0.11494792 -0.0082431855 0.15477133
-0.018316707 0.074848354 0.0032474166 -0.01745113 -0.012412905 0.11429565 0.11004677 0.15233609
0.013203574 -0.10348055 0.0522516 0.107520066 0.062431756 0.053618174 0.035373177 -0.020243173
-0.05434527 -0.008779244 0.03787039 0.055203963 -0.021091966 0.07205337 0.12039292 -0.048053756
0.0065349587 0.07128353 0.038607135 -0.0902913 -0.10216318 0.040826578 -0.046792388 0.008180506

encoder.5.weight f4 [64]
00000000: bfe7 613f cd1d 743f aee7 753f d198 643f
00000010: c98d 8e3f 8a3d 8d3f 9866 6d3f 749a 5b3f
00000020: e90d 893f b987 713f bc7c 8e3f 514d 623f
00000030: 09db 763f b9e3 7b3f 4f27 813f 3ef3 803f
00000040: 06d6 703f 26e6 943f d6db 6e3f 0e79 863f
00000050: 06e7 613f 439e 693f 5b22 893f a5b1 6a3f
00000060: f3e6 653f 05e6 833f f780 893f 78d7 853f
00000070: f6f2 653f 47e7 663f 6f5b 6f3f 3b7e 903f
00000080: 170d 893f 78de 883f b2de 823f e534 913f
00000090: a79c 823f b6a4 843f f96f 753f bde9 7b3f
000000a0: 4e8f 633f 4294 823f 4a31 783f 4bc9 7d3f
000000b0: 9ba6 823f 93da 5b3f 4445 8d3f 1874 893f
000000c0: 50f8 623f 040a 7a3f 27b8 6f3f fffe 843f
000000d0: 852b 843f f396 673f f557 7b3f 0f6a 933f
000000e0: 5d6d 683f 795f 733f 1127 7a3f 6df4 8d3f
000000f0: b68a 703f 5561 5e3f 6c00 763f 6c3b 7f3f
0.8824424 0.9535797 0.9605664 0.8929568 1.1137019 1.1034405 0.9273467 0.8578255
1.070737 0.9434772 1.1131816 0.88399225 0.9642797 0.9839435 1.0090121 1.0074232
0.94076574 1.1632736 0.93304193 1.0505693 0.8824314 0.91257113 1.071361 0.91677314
0.89805526 1.0304571 1.0742482 1.0456381 0.89823854 0.9019665 0.9349889 1.1288522
1.070712 1.0692892 1.0224211 1.1344267 1.0204057 1.0362766 0.9587398 0.9840353
0.8889054 1.0201495 0.9695021 0.99135274 1.0207094 0.8588039 1.1036763 1.0738554
0.88660145 0.9767153 0.9364037 1.0390319 1.0325781 0.90464705 0.98181087 1.1516742
0.90791875 0.95067555 0.9771586 1.1090218 0.93961656 0.86867267 0.96094394 0.99700046

encoder.5.bias f4 [64]
00000000: 0cb6 74bd 06ae f43d 1fce bfbd 8711 ffbd
00000010: 506e a63d 7f2b ae3d de62 883d 14a9 3b3d
00000020: 0e48 9c3b 76fc 063e ca1b 5ebb 29df 92bd
00000030: 82f1 ab3d 780b a8bd a5e2 b13d bef5 173e
00000040: 39bc 003e 72d6 9dbc 88c1 bd3d 30b6 e2bc
00000050: ac75 e6bd 819c 3f3d 8d0e 3d3d 1bf8 8d3d
00000060: 6299 95bd 24e3 6e3d 1dac c73d f291 c83d
00000070: 8458 0dbe 625a 94bb fab7 b2bd 922e e43c
00000080: 2ae9 2c3c a378 79bd 5bd2 b23d 4485 bf3d
00000090: c97e 013e c8a0 b73d 82ae d0bd 442d 913d
000000a0: f712 6fbd c230 693d d69e b9bd 10c0 8a3c
000000b0: 5ada cfbc a533 62bd 3b46 a9bc 19f2 be3d
000000c0: 33d0 c0bd a65f 8b3d 781d 83bd 21b3 ae3d
000000d0: bbd1 193d cf65 b23c 3001 883d 5308 1d3e
000000e0: 075f 7ebd 8d88 c33d 7dfe 4bbd 9348 c13d
000000f0: 02d7 803d 04ba e9bb c33c f8bd 487d f83d
-0.059743926 0.11947255 -0.09365486 -0.12454515 0.08126509 0.0850439 0.066594824 0.045815542
0.004769332 0.13182244 -0.0033891075 -0.07171471 0.08395673 -0.082053125 0.08685807 0.14839837
0.12571801 -0.019267295 0.09265429 -0.027674764 -0.11252913 0.046780113 0.046156455 0.06932088
-0.07304646 0.058322087 0.09749625 0.09793462 -0.13803297 -0.004527376 -0.08726497 0.027854238
0.0105536375 -0.060906064 0.08731528 0.0935159 0.12646021 0.089662135 -0.10189535 0.07088712
-0.058367696 0.056931265 -0.09063499 0.016937286 -0.025372673 -0.055225033 -0.020663371 0.0932352
-0.09414711 0.06805353 -0.06402105 0.0853026 0.03755353 0.021777062 0.066408515 0.15335207
-0.062102344 0.09547529 -0.049803246 0.094376706 0.062910095 -0.0071327705 -0.121209644 0.121332705

encoder.5.running_mean f4 [64]
00000000: 8171 dc3e f8ac ba3e 27ab 1c3f 0e50 c13e
00000010: 796f 023f 2276 bb3e 66af b33e 7555 a63e
00000020: 755b 133f 90f2 f03e 87e6 e23e 3180 cd3e
00000030: 93c8 233f 2364 e63e 1de5 a13e 16b5 803e
00000040: f5a1 c13e 8dd3 ad3e b286 db3e 01d5 c73e
00000050: 41b1 b83e c68f fb3e 1f72 0c3f 283e dd3e
00000060: b259 f23e 6fa6 c43e 1ebc 013f 46f7 ca3e
00000070: 5362 d53e 229c c33e 8af9 b23e 3663 f53e
00000080: aa80 d93e 5bca aa3e 02cf dd3e 3a04 bd3e
00000090: b717 b13e cc40 0a3f 29a9 d13e 4d4a cc3e
000000a0: bb02 b33e ce59 ca3e 058d e03e 29ef fb3e
000000b0: 3433 043f 8119 9d3e fb82 e03e 1ce0 ec3e
000000c0: ded2 be3e 3296 a33e 480a d53e 1d32 df3e
000000d0: 10c3 d93e 4a25 b43e fbdd 113f e0af e63e
000000e0: af50 a43e f40c cf3e d52a d73e 827c e43e
000000f0: 201f d73e c634 ad3e 5767 b43e 788d cc3e
0.43055347 0.3646009 0.6119866 0.3775639 0.50951344 0.36613566 0.35094756 0.32487074
0.5756143 0.4706006 0.44316503 0.40136865 0.63977927 0.44998273 0.31620112 0.25138158
0.37818876 0.33950463 0.42876202 0.39029697 0.36072734 0.49133128 0.54861635 0.43211484
0.47334057 0.3840823 0.5067767 0.3964178 0.41676578 0.38205057 0.34956008 0.47927254
0.42480975 0.3335751 0.43321997 0.36917287 0.34588405 0.5400512 0.4094937 0.39900437
0.3496302 0.3952164 0.4385759 0.49205902 0.5164063 0.3068352 0.4384993 0.46264732
0.37270254 0.31950527 0.41609406 0.4359292 0.42531633 0.351847 0.5697934 0.45056057
0.32092807 0.4043957 0.42024866 0.44626242 0.42015934 0.33829325 0.35235092 0.39951682

encoder.5.running_var f4 [64]
00000000: 59c3 a33e 7183 7d3e 1375 2e3f bc0a 8b3e
00000010: d7bb 453f 30dd e63e 76cc 8d3e 0208 5d3e
00000020: ea18 1d3f eb6b d23e 80d0 203f 0491 813e
00000030: 99a6 1a3f bf92 0f3f f2a4 a83e 1315 2c3e
00000040: ba83 e33e 6850 bc3e d8c6 d53e 2e09 f13e
00000050: d507 8a3e 25d0 c73e 9b0d 413f b771 9c3e
00000060: ecb1 b53e 90fa d63e 6cab 0a3f b64d 033f
00000070: 284c 443e 849a 8c3e 3228 753e 63c3 163f
00000080: e10f f23e d809 9b3e 7729 df3e 66b7 f53e
00000090: 6495 963e 23f2 1c3f ba5d b23e 7092 ee3e
000000a0: 373c 863e 409d eb3e acdb de3e 99bf 113f
000000b0: 1298 053f d4c0 3f3e 5aec 123f 4996 0d3f
000000c0: fb7d c23e d68d 9e3e 6af0 ff3e 0c56 dd3e
000000d0: 8a6b 003f c908 543e b219 2f3f a7f0 1d3f
000000e0: 20e6 873e b817 b73e 8c65 a93e 0704 073f
000000f0: c742 ed3e 245b 803e e2d0 b93e 8f1e ac3e
0.31984976 0.24757172 0.6814739 0.27156627 0.77239746 0.45090628 0.27695054 0.21585086
0.6136614 0.4109796 0.62818146 0.2530595 0.6041046 0.5608329 0.32938343 0.16804914
0.44436437 0.36780095 0.41753268 0.47077316 0.269591 0.3902599 0.75411385 0.30555508
0.35487306 0.4198804 0.5416782 0.5129045 0.19169676 0.27461636 0.23941115 0.58891886
0.4727774 0.30280948 0.43586323 0.47991484 0.2941085 0.6130697 0.34837133 0.46596098
0.26217815 0.4601841 0.4352697 0.5693298 0.52185166 0.18725902 0.57391894 0.5530744
0.3798674 0.30967587 0.4998811 0.4322971 0.5016409 0.20706476 0.6839858 0.6169533
0.2654276 0.35760283 0.33085287 0.5274052 0.4634001 0.25069535 0.36292177 0.33617064

encoder.6.weight f4 [64, 64]
00000000: eb6c 31bb b438 143e 4cfa 543d 9ed1 89bd
00000010: 321d 2bbb 2aa1 afbd bc05 c73d c712 e33c
00000020: 445b a2bd 5209 b33d 7282 5abd 8199 9b3c
00000030: e1c9 d13d 8874 bcbd 5d1d d0bd ae67 e03d
00000040: 0efd cfbd dd5f 95bd 5cc4 9b3b 7116 97bc
00000050: e936 e3bd 0a1c 3ebd 1638 553d b0ee a0bd
00000060: 10f2 76bd 7c09 a9bc ad14 c83d e77c e23d
00000070: b405 10be 41a4 a0bd 54ef 6fbd 542b f9bd
00000080: 8605 2dbc 0e1d bdbd 76a8 f33d 7c50 fabd
00000090: 2d4c dc3c 7072 663b 677a 97bd bbb9 7d3d
000000a0: ff34 e5bd 1178 f1bc 15d6 a1bd 6063 d03d
000000b0: b79f bcbb ca75 0c3d 1f87 68bd 97e3 9a3d
000000c0: 3072 4a3b f816 16bd 5867 4cbc f616 bc3d
000000d0: 6b41 993d cf7f 5ebc 7586 9e3c 4697 8b3c
000000e0: 0224 86bd d5d7 173d 1141 c73d 8286 103d
000000f0: 7f2d 2abd 7e19 acbc e05a 4abd b713 953d
00000100: ff02 abbd 04a9 c03d 6149 21bd 4424 85bc
00000110: 2561 ef3c b54a bcbd 70f9 49bd 2244 11bd
00000120: 51ad 4a3d 43eb b73d 0da1 f13d c751 cabb
00000130: 170c ffbd 67c6 d7bd e964 9bbd a7da bbbb
00000140: f474 773d e8f0 773d 428f 003e 905b 9cbd
00000150: c33b 99bd dd16 f73c ec1a e6bb 370f 6c3d
00000160: 3790 7abd ba6b 2c3e d538 e4bc 99a7 a63b
00000170: b913 babc a886 cbbd a643 c53a 49d3 fd3c
00000180: 6ce3 7f3d 3d40 09be 2a51 3e3d 256a abbd
00000190: 97e5 b13d e14c cabd a6db 3abd 5e91 2b3d
000001a0: 8672 a4bd abce fc3d d12c 9a3d ca16 aa3d
000001b0: 1d37 7d3d cca3 b3bb 4b91 c53c 9bd2 b73d
000001c0: 96d3 c33d dd2b fb3d 742b 853d 927f 093e
000001d0: 93da b6bd 3ea3 a93c 944a 063d e7e6 793d
000001e0: f5b7 8b3d 42c7 413d 69a5 213c 9f8e 2bbd
000001f0: 92ef 1fbd fff6 8f3d 5fff 3dbd 793b 8b3c
00000200: 2a99 b13c 7912 9cbd 9995 8f3d d242 c33c
00000210: 2e21 bf3d b840 203e a052 a83b 5086 513d
00000220: 846d a23b ddcc 2e3d 8e38 fbbd f529 883d
00000230: f275 143c fe87 e63d 5567 963d 1124 223d
00000240: 0032 2e3c de30 013e 068b 243d a019 f63d
00000250: ebc9 31bd 4f5b 23bc 5f08 cb3c 7216 143c
00000260: 3850 02bc 95e8 23bd 324c 81bd 2135 3dbc
00000270: adde 7cbc a78c 173e 1868 c03d b504 01bd
00000280: a00a 4c3d a023 dc3d 8f69 6d3d dfc5 1f3e
00000290: 38fa 60bd 9047 783d c95b 9fbd bb71 0cbb
000002a0: 6f73 213d 1776 493d f330 183c d40f b7bd
000002b0: 1935 bcbc 7ff9 84bd 5688 3fbc 3f8e 8b3d
000002c0: 657c ac3c a178 c73d 2f31 a9bc 5291 e53c
000002d0: d65a ad3c 9bdb 4fbd a4b9 873b bae4 babd
000002e0: af5e 493d 52e9 8ebd 12a0 1cbc 69d6 c8bb
000002f0: fcd4 943d e861 913b b6a8 8d3d eb4b 093a
00000300: 4e8b 6cbb f110 cb3c 2b85 68bc e350 973d
00000310: 44bb 2e3e b7d0 eb3d 5f6c a3bb cb5a ce3b
00000320: 4e5e 41bb 1963 2c3c 2cff 22be 0c9d 243d
00000330: e11e c5bc 7824 243e 557e 123e e6c8 81bd
00000340: 97b5 593d 022c 2b3e 71ec d3bd 6603 a03d
00000350: ac6b 3f3d 510d 223c 7a05 a0bb c708 13bd
00000360: 897d db3c 1b08 cdbd eaaf 7f3d ce0c b4bd
00000370: 1cf0 66bd e2e4 f23d b141 e23d 5d21 133e
00000380: 193b d2ba f455 c33d 7ba4 a03c aff9 1c3e
00000390: ad00 b2bc 2000 8f3d 89c3 023d 79ad 483d
000003a0: b208 883d 1d60 c0bd 5142 aebc 4333 343c
000003b0: 5dec 8f3c 1dc8 87bd 84d7 17bc 9e1b 9b3d
000003c0: 5541 b9bc 3301 b3bc dc25 443d d344 9ebd
000003d0: 95d0 ae3c 749e b0bc 3b15 63bc 1e0c 94bd
000003e0: 406a b9bd 1444 583c 6948 96bb ae59 33bd
000003f0: 0873 e73d 1aa9 4abd 2e2e fc3c b5ac 923c
-0.0027072977 0.14474756 0.051996514 -0.067294344 -0.002610993 -0.085756615 0.097178906 0.027718915
-0.07927564 0.08742012 -0.05334706 0.018994095 0.102435835 -0.09201914 -0.101618506 0.10957275
-0.10155688 -0.07293675 0.0047536325 -0.018443318 -0.11094458 -0.04641346 0.05205544 -0.07858026
-0.060289443 -0.020634405 0.097695686 0.110589795 -0.14064676 -0.07843829 -0.05857785 -0.12166467
-0.010560399 -0.09234057 0.11897366 -0.122223824 0.026891792 0.0035163425 -0.07396393 0.061944705
-0.11191749 -0.029476197 -0.07902161 0.10175204 -0.005756344 0.03429202 -0.056769487 0.075629406
0.0030890815 -0.036643 -0.012475811 0.09184067 0.074831806 -0.013580277 0.019351223 0.017039906
-0.06549837 0.037071068 0.09729207 0.035284527 -0.041547295 -0.02100825 -0.04940307 0.07279151
-0.08350181 0.09407237 -0.03937662 -0.016252644 0.029221127 -0.09193937 -0.049310148 -0.035465367
0.049481694 0.089804195 0.11798296 -0.0061742994 -0.12453478 -0.10535889 -0.075876065 -0.0057328525
0.06041427 0.06053248 0.12554649 -0.07634652 -0.07482102 0.03016227 -0.0070222523 0.057631698
-0.06117269 0.1683797 -0.02785913 0.005085897 -0.022714483 -0.09937793 0.0015050068 0.030984538
0.062472746 -0.13403411 0.046464123 -0.08369855 0.08686369 -0.09877945 -0.04561963 0.04188668
-0.08029656 0.12344106 0.07528079 0.08305128 0.06182014 -0.0054821726 0.024117133 0.08975717
0.09561841 0.12264226 0.06502429 0.1342757 -0.089284085 0.020707723 0.032785967 0.06101122
0.068221964 0.047309168 0.009866097 -0.04188406 -0.03904683 0.07029533 -0.04638612 0.016996132
0.02167948 -0.07620711 0.07010955 0.023835573 0.093325004 0.15649688 0.005136803 0.05115348
0.004956903 0.04267584 -0.12266646 0.06648628 0.0090613235 0.11256407 0.07343928 0.039585177
0.010632038 0.12616298 0.040171646 0.12016606 -0.043405455 -0.0099705 0.024784265 0.0090385545
-0.007953696 -0.04001673 -0.06313361 -0.011548311 -0.015433949 0.14799748 0.09394854 -0.03149863
0.04981482 0.107489824 0.057961997 0.15602826 -0.054926127 0.060615122 -0.077811785 -0.0021430093
0.039416727 0.049184885 0.009289014 -0.08938566 -0.022974538 -0.064929 -0.01169022 0.06814241
0.02105541 0.09739805 -0.020653335 0.028023396 0.021161478 -0.05074654 0.004142003 -0.091256574
0.049162563 -0.06978096 -0.009559648 -0.0061290753 0.07267186 0.00443672 0.06916945 0.0005237448
-0.0036093774 0.024788352 -0.014191906 0.07388475 0.17063624 0.115144186 -0.004987284 0.0062974445
-0.0029505673 0.010521674 -0.15917653 0.040188834 -0.024062576 0.16029537 0.14306004 -0.063371465
0.053151693 0.16716006 -0.10347832 0.07813148 0.046733543 0.00989087 -0.0048834654 -0.035897043
0.026793258 -0.100113116 0.062423624 -0.08791505 -0.05638133 0.11860062 0.11047686 0.14368196
-0.0016039341 0.09537879 0.01960968 0.15329622 -0.021728838 0.06982446 0.031924758 0.04899356
0.066422835 -0.09393332 -0.021271857 0.01099855 0.017568761 -0.066299655 -0.0092676915 0.07573627
-0.02261416 -0.021851158 0.047887668 -0.07727971 0.021339694 -0.021559931 -0.013860042 -0.07228874
-0.09053469 0.013199825 -0.0045862687 -0.043786697 0.11301237 -0.049477674 0.030783739 0.017904619

encoder.6.bias f4 [64]
00000000: a5e4 56ba f984 4c3c dd94 093e d813 b13d
00000010: 5689 f33d d8f3 533d 6791 e63d 4088 be3d
00000020: 1245 283d 39cc 973c 7853 073e 7d5b a93d
00000030: 0272 55bc 38bb f73d 791c ff3d 76fb 893c
00000040: 2f32 d03c 0d2b 4e3d e1b8 1f3d ba1f 023e
00000050: e385 1e3e 449d b43d 5d37 233e 790f acbb
00000060: b31b 643d f0fb 5b3e dea6 a73c 34bc 153c
00000070: 3cee dd3c 42a6 3e3e c690 91bc d833 a03d
00000080: 11c8 343e 0745 193e f38e e13b 1def af3d
00000090: 450b 8e3d b0a2 153e 4005 6a3d 8fdd e83c
000000a0: 6ee3 323d 55d4 233e 4509 bd3d d45b 3b3d
000000b0: 93b6 0c3e 083b a23d 96b4 3d3d 59ef 083d
000000c0: d1e5 423e 8295 9c3d b500 223e 5a64 4d3c
000000d0: d317 383d 7e78 303c e595 f1bc 484d 123e
000000e0: 8d50 d33d aec8 8e3d 0dc6 863d fc48 4b3d
000000f0: 050a b13d 6c32 c63c 1148 493d e23d 7c3d
-0.0008197523 0.012482875 0.13435693 0.08646363 0.11891429 0.05174622 0.11258202 0.093033314
0.041081496 0.018529998 0.13215435 0.08269403 -0.01302767 0.12096256 0.124566026 0.016843539
0.025414554 0.050334025 0.038994674 0.12707415 0.15480761 0.088190585 0.15939088 -0.005250868
0.05569048 0.21482825 0.02046531 0.009139109 0.027091138 0.1861811 -0.017769229 0.078223884
0.17654444 0.14967738 0.006883496 0.08590529 0.06935743 0.14612842 0.057133913 0.02842596
0.043673925 0.15998967 0.09230284 0.04574187 0.13741522 0.079214156 0.0463148 0.033431385
0.1903298 0.07645704 0.15820582 0.012536133 0.044944596 0.010770915 -0.02949042 0.14287293
0.10318098 0.0697187 0.06580744 0.04963015 0.08644489 0.024193965 0.049140994 0.061582454

encoder.8.weight f4 [64]
00000000: 7c94 643f 72a1 683f 4e81 6d3f 8c75 6f3f
00000010: 7466 683f ffa9 673f 59a9 6a3f 71df 663f
00000020: 4296 693f f986 5e3f ef3a 683f 42f1 653f
00000030: 9d4c 673f 3e7d 6e3f a820 693f 9481 693f
00000040: 705e 673f 0e62 703f 01ca 6a3f 7f92 6d3f
00000050: 6f99 6a3f 288b 6e3f b0a9 6c3f 2184 6f3f
00000060: 4460 6d3f 9254 6c3f a0d8 6b3f 4465 6c3f
00000070: 5f23 6b3f d35b 6f3f 961c 6b3f 1ae2 6d3f
00000080: f895 693f 74a1 693f 5805 683f e6fc 693f
00000090: 1b23 693f cf0e 683f 7de9 6c3f 9fe5 663f
000000a0: 49b3 6e3f c34d 6a3f f6d8 693f 0981 6b3f
000000b0: d780 623f c72d 703f 3fd5 683f 3021 663f
000000c0: fc8e 683f 368c 6e3f 824a 703f cb0f 6c3f
000000d0: 9848 6b3f 7c61 6d3f b74e 6a3f ffd7 653f
000000e0: 7bc3 6a3f 903f 6c3f 222b 6e3f 8ec0 683f
000000f0: 2030 683f dc9c 693f 4f76 683f 6eae 6b3f
0.8928907 0.90871346 0.9277543 0.9353874 0.9078133 0.9049377 0.91664654 0.90184695
0.912449 0.869247 0.90714926 0.89821255 0.9035128 0.93159854 0.91065454 0.91213346
0.90378475 0.9389962 0.91714483 0.9280166 0.9164037 0.93181086 0.9244642 0.9356099
0.92725015 0.92316544 0.9212742 0.9234202 0.91850847 0.9349949 0.91840494 0.9292313
0.9124446 0.9126198 0.90633154 0.9140152 0.9106919 0.90647596 0.92543775 0.90194124
0.9324232 0.91524905 0.9134668 0.9199377 0.88477844 0.9381985 0.9095039 0.8989439
0.90843177 0.93182695 0.9386369 0.922116 0.91907644 0.92726874 0.9152636 0.8978271
0.9170453 0.9228449 0.93034565 0.90918815 0.9069843 0.91254973 0.90805525 0.92063034

encoder.8.bias f4 [64]
00000000: bf66 aebd 29d7 353d 0f52 4c3d 6497 3fbd
00000010: 7725 eb3c a70b 86bd 3338 7b3d 6a2f e03c
00000020: 5554 083d bd28 a1bc 5110 5cbd 5442 a4bd
00000030: b452 a23d d67c 143d a577 c93d 75b4 583d
00000040: 2415 1bbd ae65 5bbd 4141 b53d ec22 82bd
00000050: 3227 95bd 4def d03c 5fae 37bd 258d 3d3d
00000060: e430 2d3d b9fe 1a3d 4227 71bc e06f abbc
00000070: 7744 58bd f31b 6c3b 7ff2 16bb 9a50 3bbd
00000080: d2b0 213d ae9c 25bd ecc2 1abd fa40 33bd
00000090: d4bf 68bd 7f5d 7dbc 0f95 8b3d 9d1d 6ebd
000000a0: cc94 c33c 9697 8dbd dad3 953d e3f3 b03b
000000b0: d662 92bd 99bb 3cbd 45e6 9dbd 1df4 47bd
000000c0: ef1e d3bc 41c7 5cbd 5175 a83d acfe 5b3d
000000d0: 56c2 8cbc 52fa 51bd 64af 73bb 546c 6d3d
000000e0: a981 c13d ff88 e53b a286 073d e3df 09bd
000000f0: c28f b7bd 855a fb3c a443 a3bc 123c acbd
-0.08515691 0.044394646 0.049882945 -0.046775237 0.028704388 -0.06545191 0.061332893 0.027366359
0.03328355 -0.019672746 -0.053726498 -0.080204636 0.079259306 0.036251865 0.098372735 0.052906472
-0.03786196 -0.053563766 0.08850337 -0.06354317 -0.072828665 0.025504733 -0.044844028 0.046277184
0.042282954 0.03784058 -0.014718832 -0.02092737 -0.05279967 0.0036027401 -0.0023032723 -0.045731165
0.03947527 -0.040432625 -0.03778355 -0.04376314 -0.056823567 -0.015464186 0.0681554 -0.05813371
0.023874663 -0.06913678 0.07315798 0.0054001673 -0.07147758 -0.046077345 -0.07709936 -0.04881679
-0.025771586 -0.05390096 0.08225501 0.05370967 -0.01718251 -0.051264115 -0.0037183398 0.057964638
0.09448559 0.0070048566 0.03308738 -0.03366078 -0.089629665 0.030682812 -0.019929715 -0.08409895

encoder.8.running_mean f4 [64]
00000000: ca52 383f e5a3 5b3f 672a 273f c5b4 493f
00000010: 34ee 533f ab9e 463f 1252 473f c601 5d3f
00000020: eaca 133f 8103 e43e a582 7d3f b746 4b3f
00000030: 227b 153f c692 533f 710d 713f d69b 7a3f
00000040: c61a 5c3f cf69 4c3f b7d2 593f c826 283f
00000050: f6df 253f c797 2e3f b3b0 363f acad 3a3f
00000060: a2bf 323f 7d84 3d3f 480e 243f 33eb 393f
00000070: 2c3d 3a3f b07d 663f 19df 0e3f 1e86 743f
00000080: c917 1e3f 3a55 283f e807 d93e 549e 2c3f
00000090: 9918 163f 727b 6f3f fca0 2f3f ca59 453f
000000a0: fbd9 353f b5ef 603f a134 383f 9a8d 253f
000000b0: a712 273f a089 403f cbd8 173f fec4 473f
000000c0: 4744 813f 3c2c 3c3f 7569 513f 0dd6 483f
000000d0: 9f57 3f3f 17ae 223f d7ae 133f acfb 113f
000000e0: cadf 5d3f b0df 233f 3b59 1b3f 2ba2 353f
000000f0: ab8a 2c3f f220 e23e 64ed 513f 0d2c 443f
0.72001326 0.8579696 0.65299076 0.7879146 0.82785344 0.7758586 0.77859604 0.8633083
0.577315 0.44533923 0.9902747 0.7940478 0.5839101 0.82645833 0.94161135 0.97894037
0.85978353 0.7984895 0.8508715 0.65684175 0.6479486 0.68200344 0.7136337 0.7292125
0.6982366 0.74030286 0.6408429 0.7262451 0.7274959 0.90035534 0.5580917 0.95517147
0.61755043 0.65755045 0.42388844 0.6742909 0.58631283 0.9354774 0.6860502 0.7709013
0.71035737 0.87865764 0.71955305 0.6466919 0.65262836 0.7521 0.59315175 0.7803496
1.0098962 0.73504996 0.8180154 0.78451616 0.74743074 0.6354689 0.5768866 0.57024646
0.866696 0.64013195 0.6068303 0.70950574 0.6739909 0.4416576 0.82002854 0.76629716

encoder.8.running_var f4 [64]
00000000: c767 4b3f 6afd 1040 94bf dd3f 50ed 1e40
00000010: 3227 0b40 3611 e83f 15d8 ea3f 6936 883f
00000020: 13df 6c3f 95d9 f63e d9de b43f 8f79 2740
00000030: e503 893f e67a 0e40 b416 3a40 2768 b33f
00000040: 2f76 1340 415e 2140 e9ab db3f 27cb e23f
00000050: 16ea b13f d0ff e23f 6c1b c33f 6761 fd3f
00000060: 6652 e63f 20a8 0f40 ac1d dd3f b421 0340
00000070: 34fc c83f 1800 3140 a9ba 9d3f 4096 4540
00000080: 9fe2 c73f 6e60 a03f 1397 d53e 1cbb 8b3f
00000090: e016 b43f 75be a33f 3b44 f33f b0b1 b53f
000000a0: 4560 bf3f fb99 1a40 b2d9 a23f 5e41 b13f
000000b0: 7305 983f 1ef9 e63f 47d7 ab3f 2bcb 673f
000000c0: e780 c33f e2d8 0140 47a2 0840 6c53 0840
000000d0: a12a ab3f 4768 b43f 1ba8 a03f 48ea ad3f
000000e0: f3af a03f 9a0a c53f a865 bf3f 0df7 1e3f
000000f0: c0af e03f 988e eb3e 7c42 d63f bd43 a53f
0.79455227 2.2654672 1.732409 2.4832344 2.1742673 1.8130252 1.8347193 1.0641605
0.92527884 0.48212877 1.4130508 2.6167943 1.0704314 2.2262511 2.9076357 1.401616
2.3040884 2.5213778 1.7161838 1.7718247 1.3899562 1.7734318 1.5242743 1.979535
1.7993896 2.2446365 1.727468 2.048932 1.5701966 2.7656307 1.2322589 3.0872955
1.5616034 1.2529428 0.41716823 1.0916476 1.4069481 1.2792498 1.9005197 1.4194851
1.4951254 2.4156482 1.2722685 1.3848073 1.1876663 1.8044775 1.3425072 0.90544385
1.5273713 2.0288625 2.1349046 2.1300917 1.3372384 1.4094323 1.2551302 1.3587122
1.2553695 1.539386 1.4952898 0.6209572 1.7553635 0.46007228 1.673904 1.2911297

fc_mu.weight f4 [32, 64]
00000000: 7472 92ba d48d 03bc 2588 543c 6ac1 bbbc
00000010: f2a2 82bc af9d f13c 96ed 693b 68c1 313c
00000020: b365 a83c 6224 773b 0f74 bbbc 2b00 a4bd
00000030: 8769 acbc d947 43bd ec7a 4cbd a165 263c
00000040: be5d 663c 8282 92bc 4d7c 823c 9bdd e6bc
00000050: 8fd5 95bc 04fa 113d 9d95 ecbc 2d52 523d
00000060: f764 a2bc 408a 4e3c 8e58 2f3d fdf2 babc
00000070: f71e d13c 3753 453c 2b87 2c3d 3be5 8b3d
00000080: 6f2a 1cbc 06f0 4d3c 0000 4a3b 85da 283c
00000090: b99f ccbc cb8e 4e3c 7737 0fbc 37f6 80bc
000000a0: 79aa 02bd 5d1a 2e3d a5f0 e73c fb5d 39bc
000000b0: 4ef5 7ab8 b668 90ba acf9 47bd eed7 b33a
000000c0: dc70 123b 6a88 38bd fa77 30bd c53e 523d
000000d0: f27c 08bc 57ba 3ebc b1a0 3ebc 5ee9 cb39
000000e0: 4270 40bc 2d58 643c 9241 6e3d e3de aebb
000000f0: 2e57 903d a5fc 96bb 6ec5 63bc 82d0 d1ba
00000100: f9e9 0f3c 4bfe 52bc 942e b0bd 014a 493d
00000110: 412d 1ebd ce5c a33c 5255 1d3d c498 09bc
00000120: bbac 34bb 1982 35bc 87a1 d23c d30a f6bd
00000130: 250a d1bc e978 3ebd a8c2 5fbd 525b 8dbb
00000140: 0166 a43a 0d2c 0a3c c6fd 503d a6d4 1bbd
00000150: 8faa fcbc b4bb 29b9 4d4a 09bd 7318 13bd
00000160: a27a 82bd 53e4 8a3d 7364 423d 2ae1 0cbd
00000170: 1123 2abb 22e9 0d3d af91 57bc 6f88 973d
00000180: 18d3 4c3d 0175 7b3d b6c6 d0bb ba96 bb3b
00000190: 36de 2ebd c838 11bd efab 5e3d 6b69 833c
000001a0: 0fca 773c 0ee3 363d b598 a7bc 2c95 6e3d
000001b0: 68e4 bbbb 4178 96bd 0dcc ef3c 09a8 b4bc
000001c0: bacc bebb c295 383d dd7f 163d fc0d 6bbd
000001d0: 001a 18bc 2aca 713c 4670 cc3c 9485 5eb8
000001e0: 825e bf3c 16d3 b43c c7de df3c f1e4 bc3c
000001f0: a5e4 2bba 5a0e 4e3c db90 3abd 37a9 fdbb
00000200: 1548 19bc 9902 54bd f2cd 90bd 630c 25bd
00000210: 5f3f 203c 5c55 0b3c d034 14bd 23e5 90bb
00000220: 7e0a 02bb 120a afbb 43e0 b33d 47c6 903d
00000230: 925e 1bbc 11ce 7e3d 7a19 a0bd 4cb5 56bd
00000240: a32a 103d 160d b33d f290 153d 3910 ecbc
00000250: b164 2abd 85f3 5ebd 3f30 3d3d 89a5 a2bc
00000260: d7b5 01bd 9652 b73d b16c 9abc 5c55 77bc
00000270: 19c4 b23c 4519 89bc 19cc 20bd 29f9 9d3d
00000280: 1232 f2bc 4aac c4bc 6335 87bb 9266 19bd
00000290: ce86 d5bc f294 9a3c 79a6 4d3d e0dc c43c
000002a0: 62b9 bb3c 3f19 4e3d 8414 30bd f360 c7bc
000002b0: 20f8 00bd 18cf e8bc 4f1c a93c 56d0 173b
000002c0: 531b 0dbd 509f af3d 1024 103d 1859 973c
000002d0: 557e fe3b 7f7e 3fbd 8d4b 01bd 05e5 08bc
000002e0: e536 debc 08d4 40bc cba9 f0bc 6d15 20bb
000002f0: 8750 5c3d 604b 273c 0329 363c 6d3e 903c
00000300: 57d9 50bc 1a27 7e3d e81e 42bd 539f 05bd
00000310: e570 6dbd 2685 d4bc 99f7 5c3d 4934 2b3d
00000320: 7654 d8bb 093f 42bb 4e6d 803d c98c 56bd
00000330: bbe6 ebbc 6228 26bc 2398 5bbd 1b36 8dbd
00000340: 384e 2fbc e569 2b3d 9c15 073d bbf8 b3bd
00000350: 79d5 8d3c dd94 133d 06e0 a23c 2eab a0ba
00000360: f785 41bc db15 603d 191b 0abd ddc9 d73b
00000370: 0292 e2bc 28ae 0e3d 9699 b53c f533 c5bd
00000380: a9f6 1c3d f486 1cbb 8b95 7b3a 8037 a63b
00000390: f5ec b8bc a002 883c 4fc6 343d cb8d 69bd
000003a0: 206b 06bd 6508 953c e4f3 943d c91d c03c
000003b0: 9ccd 283d 3f58 46bd 4cec eebc f803 5ebc
000003c0: 4c19 f9bc bdfa 6e3c 1b35 673d 8ab9 ccbc
000003d0: d4a9 243c 0e72 b13d 83de 46bd 9458 9a3c
000003e0: 8e7c d53b 1a57 fabc 686f 533d eba4 1a3c
000003f0: d415 853d 7a5b 97ba 70c9 83bc 721f 0ebd
-0.0011173026 -0.00802942 0.0129719125 -0.022919375 -0.015946839 0.029494135 0.003569459 0.010849334
0.020556306 0.0037710895 -0.02288249 -0.080078445 -0.021046413 -0.04767594 -0.049921915 0.010156066
0.014060436 -0.017884497 0.015928412 -0.028181842 -0.01829031 0.035638824 -0.028879935 0.0513479
-0.019823534 0.012606204 0.04280906 -0.022820944 0.02552746 0.012043766 0.042121094 0.068308316
-0.009531601 0.012569433 0.0030822754 0.010306005 -0.024978505 0.012607287 -0.008741251 -0.015742404
-0.031900857 0.04250561 0.02831299 -0.011313911 -5.9833103e-05 -0.0011017534 -0.04882209 0.0013720968
0.0022345101 -0.04505197 -0.04308317 0.051329393 -0.0083305705 -0.011641107 -0.0116349915 0.0003889305
-0.011745514 0.013937038 0.058168 -0.0053366288 0.07047878 -0.0046077543 -0.013902051 -0.0016007575
0.008783811 -0.012878011 -0.08602634 0.04914284 -0.038617376 0.019941714 0.038411446 -0.008398239
-0.0027568776 -0.011078381 0.025711788 -0.12013783 -0.025517533 -0.046502028 -0.054628998 -0.0043138647
0.0012542607 0.008433354 0.051023267 -0.038044594 -0.030843047 -0.00016187021 -0.033518124 -0.03591199
-0.063710466 0.06781831 0.047459077 -0.03439442 -0.0025960843 0.03464616 -0.013157292 0.073990695
0.050006002 0.06139088 -0.0063713444 0.005724755 -0.042692386 -0.03545454 0.054363187 0.016041478
0.015123858 0.04465013 -0.020458559 0.05824773 -0.0057340153 -0.07347155 0.029272104 -0.022052782
-0.005822745 0.045064695 0.036743034 -0.057386383 -0.009283543 0.014757672 0.02495588 -5.305333e-05
0.023360495 0.02207331 0.027327908 0.023058387 -0.0006557203 0.012576664 -0.0455483 -0.0077411192
-0.009355565 -0.05176029 -0.07070531 -0.040295016 0.009780734 0.008504238 -0.03618318 -0.0044218465
-0.001984268 -0.0053417766 0.08783009 0.070690684 -0.009482997 0.06220824 -0.07817359 -0.052418992
0.03519691 0.0874273 0.036515184 -0.02881633 -0.041599933 -0.054431457 0.04618859 -0.019854324
-0.031667557 0.08951299 -0.018850656 -0.015096035 0.021822022 -0.016735682 -0.039257143 0.07713539
-0.029564891 -0.024007935 -0.0041262372 -0.037451334 -0.026065256 0.01886985 0.05020759 0.024031103
0.022915546 0.050317045 -0.042988315 -0.024338221 -0.03148663 -0.028419062 0.020643381 0.002316495
-0.034449887 0.08575308 0.035190642 0.0184751 0.007766525 -0.046751495 -0.03156619 -0.008355384
-0.027125785 -0.011769302 -0.029377839 -0.0024426833 0.053787734 0.010210842 0.011118176 0.017607892
-0.01274713 0.06204901 -0.047392756 -0.032622647 -0.057968993 -0.025942396 0.053947065 0.04179791
-0.0066018654 -0.0029639623 0.06270848 -0.052380357 -0.028796544 -0.010141464 -0.053611886 -0.068950854
-0.010699801 0.041849036 0.032979593 -0.08787676 0.017313706 0.03603064 0.019882213 -0.0012258047
-0.011811725 0.054708343 -0.03371725 0.0065853433 -0.027657513 0.034834057 0.022167962 -0.09629051
0.03832117 -0.002388415 0.0009597174 0.005072534 -0.022573927 0.016602814 0.044134434 -0.05701999
-0.032817006 0.01819248 0.07273081 0.023451703 0.04121171 -0.048424 -0.02916541 -0.013550751
-0.03040757 0.014586148 0.05644713 -0.024990816 0.010050256 0.08664332 -0.048552047 0.018841065
0.006515092 -0.030559111 0.051619917 0.009438734 0.06498304 -0.0011547648 -0.016087264 -0.034697957

fc_mu.bias f4 [32]
00000000: 5aa4 86bb 7107 d7ba 21d6 153d 2ec4 c0bc
00000010: 874c 9fbc 8865 a03c c038 49bc 4e51 e43c
00000020: ff95 67bb 4fad 4b3c 8fc2 20bd 24c3 39bc
00000030: 73e6 0ebc fa81 033c 02ad a73c 4956 e03c
00000040: b9b1 1dbb a138 4fbb 498b 06bc 0e9e d33c
00000050: 8be9 82bc 1b05 b8bc c0b0 5ebc 7b61 573a
00000060: f7e9 033c 72f4 883c 606b e5bc 4ecd 10bd
00000070: a370 17bc c6f8 b13b 5fb0 22bd 9f8c 7d3c
-0.0041089477 -0.0016405416 0.036581162 -0.023531046 -0.01944567 0.019579664 -0.012281597 0.0278708
-0.0035337207 0.012431457 -0.039248046 -0.011338029 -0.008721936 0.008026594 0.020468239 0.027384894
-0.002406223 -0.0031619447 -0.008211919 0.025832202 -0.015980503 -0.022463372 -0.013591945 0.0008216125
0.008051387 0.016718123 -0.028005302 -0.035352044 -0.009243163 0.0054312674 -0.03971898 0.015475421
