models/rl_maneuver.onnx (onnx, 543934 bytes, 12 tensors)

actor_logstd f4 [3]
0	0x00000000	0.0
1	0x00000000	0.0
2	0x00000000	0.0

feature_net.0.weight f4 [256, 12]
0	0xbd450eeb	-0.04810993
1	0x3e8d3160	0.27576733
2	0x3e042249	0.12903704
3	0xbcea759f	-0.02862054
4	0xbd873061	-0.066010244
5	0x3ca16a42	0.019703988
6	0x3e36d193	0.17853384
7	0xbdc42e90	-0.095791936
8	0x3e77256d	0.2413537
9	0xbc8e09cf	-0.017338661
10	0xbe6e7f7c	-0.23290819
11	0x3e132175	0.14368232
12	0x3e4253df	0.18977307
13	0x3d8c7261	0.068577535
14	0x3e3851fb	0.18000023
15	0x3e408c61	0.1880355
16	0xbe2bb004	-0.16766363
17	0x3e7502dd	0.23926874
18	0xbd4d9351	-0.05018932
19	0xbe7c8e27	-0.24663602
20	0x3e786671	0.24257828
21	0x3e8e0194	0.2773558
22	0x3dd63709	0.10459716
23	0x3dedbf0a	0.116087034
24	0xbd4dc54b	-0.05023698
25	0x3e45be9d	0.19310994
26	0xbe5f1b62	-0.2178779
27	0x3d689078	0.0567784
28	0x3a97a9a6	0.0011570945
29	0x3d8e2107	0.06939893
30	0xbe754cfb	-0.23955147
31	0xbcd2176d	-0.025645936
32	0xbc956ecc	-0.018241309
33	0x3d9460e2	0.072450414
34	0x3e929c14	0.28634703
35	0x3e1b5897	0.15170513
36	0xbd82ed62	-0.063929334
37	0xbdcc15b5	-0.09965078
38	0x3e206f6f	0.15667509
39	0x3dd571db	0.10422107
40	0xbd41ad09	-0.04728416
41	0x3dca6df8	0.09884256
42	0x3e1b88d8	0.1518892
43	0xbe00f1d9	-0.12592258
44	0x3e406079	0.18786801
45	0x3d516f8f	0.05113178
46	0xbc19e71a	-0.009393478
47	0xbe1d6464	-0.15370327
48	0x3d014f23	0.03156961
49	0xbe348b0e	-0.1763117
50	0xbdf54015	-0.11975113
51	0x3e150b16	0.1455501
52	0xbe557a35	-0.208474
53	0xbd3a3900	-0.045464516
54	0xbda96622	-0.082714334
55	0xbdb7e8f2	-0.08979978
56	0x3e4dbef6	0.20092377
57	0x3e938c65	0.2881805
58	0x3e62aa86	0.22135362
59	0xbe212f42	-0.15740684
60	0xbdb0b2ac	-0.08627829
61	0xbe5e3587	-0.21700107
62	0x3cb8140d	0.022470498
63	0x3deca36f	0.1155461
64	0x3e26707c	0.16253847
65	0xbd327b11	-0.043574397
66	0xbdcb1b51	-0.099173196
67	0xbdc67a3c	-0.09691283
68	0x3e0cb842	0.13742164
69	0xbe359a80	-0.17734718
70	0xbe3142e0	-0.17310667
71	0x3d9f282b	0.07771333
72	0xbe9287ca	-0.28619224
73	0x3e2d1edc	0.16906303
74	0xbe31cabd	-0.17362495
75	0x3e10fc68	0.14158785
76	0xbe2174f7	-0.15767275
77	0xbe1943be	-0.14967248
78	0x3e547b3a	0.20750132
79	0xbe662d04	-0.2247811
80	0x3e72d5b4	0.23714334
81	0xbdbce3af	-0.09223115
82	0xbe3e5203	-0.18585972
83	0x3d265de7	0.040616896
84	0x3dc5f359	0.096655555
85	0x3e76ea23	0.24112754
86	0x3d3bca8c	0.04584746
87	0x3e679c54	0.22618228
88	0x3e00b79e	0.12570044
89	0x3d4c151c	0.04982482
90	0xbd71d2ec	-0.05903904
91	0x3e34071f	0.17580841
92	0x3e1ee841	0.15518285
93	0x3e8b10eb	0.27161345
94	0x3d07abd7	0.033122864
95	0x3e1cc5b6	0.15309796
96	0xbe09f76e	-0.13473293
97	0xbd65a532	-0.056065746
98	0xbdf3f469	-0.11911852
99	0x3e06b97d	0.13156696
100	0x3e900aa4	0.28133118
101	0xbe136f0c	-0.1439783
102	0xbcc37b34	-0.023862459
103	0xbe06b489	-0.13154806
104	0xbe6e3eee	-0.23266193
105	0xbdb81076	-0.08987515
106	0xbd03403c	-0.03204368
107	0x3e7ed713	0.24886732
108	0xbdf6c5af	-0.12049424
109	0x3d5d0409	0.053958926
110	0xbe36c6c4	-0.1784926
111	0x3e7dc245	0.24781139
112	0xbe44dc9e	-0.19224784
113	0x3ded52a8	0.11588031
114	0xbcbb3e12	-0.022856746
115	0xbde434eb	-0.11142906
116	0x3dcb2a79	0.099202104
117	0xbe3ac600	-0.18239594
118	0x3e86a9f4	0.2630154
119	0x3e924f1e	0.28575987
120	0x3e703f31	0.23461606
121	0x3db91fd0	0.09039271
122	0x3daadb8d	0.08342657
123	0x3e1bec4f	0.15226863
124	0x3dd7fa86	0.105458304
125	0xbe819844	-0.25311482
126	0x3ded5599	0.11588592
127	0x3e1ea16e	0.15491268
128	0xbe5596b9	-0.20858277
129	0xbe77b15c	-0.24188751
130	0x3ca603d6	0.020265501
131	0xbde742cb	-0.112920366
132	0x3dae03dc	0.0849683
133	0x3cbe966d	0.023265088
134	0xbe4cacbf	-0.19987772
135	0x3e04eb90	0.12980485
136	0xbdd509b2	-0.1040224
137	0xbd055cc7	-0.032559182
138	0xbe67d870	-0.22641158
139	0x3e781a57	0.24228798
140	0x3e20e989	0.15714087
141	0x3e823bba	0.25436193
142	0x3d5f03c9	0.05444697
143	0x3e1206b1	0.14260365
144	0xbd589aa2	-0.052881844
145	0xbdfcf237	-0.12350886
146	0xbe0b4212	-0.13599423
147	0xbe88dbd5	-0.2673022
148	0xbd752615	-0.05985077
149	0xbe3c6a57	-0.1839994
150	0x3ddde562	0.10834767
151	0xbcb8132f	-0.022470085
152	0x3daaa367	0.08331948
153	0x3e16544d	0.14680596
154	0x3dc63067	0.09677201
155	0xbe55d92e	-0.20883629
156	0xbe5b1f33	-0.2139862
157	0xbdd87315	-0.10568825
158	0x3e907c63	0.282199
159	0x3ca39fc6	0.019973647
160	0x3e91366f	0.28361842
161	0x3dc7bd27	0.09752875
162	0x3d4cc00b	0.049987834
163	0x3a0bc5dc	0.00053319125
164	0x3e734f02	0.23760608
165	0xbe8edc34	-0.27902377
166	0xbd964eaa	-0.07339223
167	0xbd5fd88a	-0.054649867
168	0xbdb4ade0	-0.088222265
169	0xbc88011b	-0.01660209
170	0x3e2b9d61	0.16759254
171	0x3e79aa4e	0.24381372
172	0xbe86a7c6	-0.26299876
173	0xbe5d475c	-0.21609253
174	0x3dbb9b2c	0.09160456
175	0xbd4b629a	-0.04965458
176	0x3d8696bf	0.06571721
177	0xbdd65030	-0.10464513
178	0x3db3ec8d	0.08785353
179	0x3e8a9da5	0.27073398
180	0x3cdf3fb0	0.027252048
181	0x3e22d9fa	0.15903464
182	0x3e827f5c	0.25487792
183	0x3cdae0b5	0.026718477
184	0xbe39663e	-0.18105409
185	0x3d24ede1	0.04026592
186	0x3e761a08	0.24033368
187	0xbe05967f	-0.13045691
188	0xbd7e1971	-0.06203598
189	0x3e03557d	0.1282558
190	0xbe4407fb	-0.1914367
191	0x3e85ae6f	0.26109645
192	0x3e3a9e2a	0.18224397
193	0xbd8de059	-0.069275565
194	0xbe3b6186	-0.18298921
195	0xbe23e952	-0.16006973
196	0x3e5412d8	0.20710313
197	0x3e885f11	0.2663503
198	0xbe4209e9	-0.18949093
199	0x3aa319f9	0.0012443654
200	0x3e6f0771	0.23342682
201	0xbe800227	-0.25001642
202	0xbe62312a	-0.22089067
203	0x3e927add	0.28609362
204	0x3e17837b	0.1479625
205	0xbddf6102	-0.10907175
206	0x3dc6cd56	0.097071335
207	0x3e85c14c	0.26124036
208	0xbdba7ffb	-0.091064416
209	0x3ccdebd5	0.025136868
210	0xbe6755bf	-0.22591303
211	0xbc3735a0	-0.011182219
212	0xbe820a2c	-0.25398386
213	0x3d494e36	0.049146853
214	0x3ded9ca2	0.11602141
215	0xbcf90d83	-0.03040195
216	0x3d3b0df9	0.045667622
217	0x3e015e7b	0.12633698
218	0x3e80847c	0.25101078
219	0x3e56a693	0.2096198
220	0xbdafdd65	-0.085871495
221	0x3e4cee52	0.20012787
222	0x3e46a15b	0.1939749
223	0x3e6b5b92	0.2298415
224	0x3e5d599c	0.21616215
225	0xbe82c031	-0.25537255
226	0xbe37b9a6	-0.17941913
227	0xbe68426b	-0.22681586
228	0xbe556de5	-0.20842703
229	0xbe742bb1	-0.23844792
230	0x3d0443dc	0.03229128
231	0xbe089dd9	-0.13341464
232	0xbdf1af00	-0.11800957
233	0x3e0a779e	0.13522193
234	0x3da5d78b	0.08097752
235	0x3cef7a71	0.02923319
236	0x3e24491e	0.16043517
237	0xbd3f4193	-0.046693396
238	0x3d2ad1ea	0.041704096
239	0x3e3a38d7	0.18185745
240	0xbe7452d6	-0.23859724
241	0xbdce6cff	-0.10079383
242	0x3d22bde2	0.039731868
243	0xbe1813d4	-0.14851314
244	0xbe40cf17	-0.18828999
245	0x3d01a557	0.03165182
246	0x3b425eef	0.0029658636
247	0x3d9228c5	0.071366824
248	0xbe57beda	-0.21068898
249	0x3cdefe28	0.0272208
250	0xbc0a970a	-0.008458862
251	0x3d2d83b5	0.042361934
252	0xbe31ad1b	-0.17351191
253	0x3e4c362c	0.1994254
254	0xbe1b671b	-0.1517605
255	0x3e653653	0.22384004

feature_net.0.bias f4 [256]
0	0x3d691333	0.056903075
1	0xbe8d07f1	-0.2754512
2	0x3e8e8578	0.27836204
3	0xbe596437	-0.21229635
4	0xbe1b10d8	-0.15143144
5	0x3e5ba28e	0.21448728
6	0x3e847e58	0.25877643
7	0x3ddd678f	0.10810768
8	0x3e87a199	0.26490477
9	0xbe1e668c	-0.15468806
10	0xbdb53682	-0.08848287
11	0xbe66bfc1	-0.22534086
12	0xbddaecc3	-0.1068969
13	0x3e5bd856	0.21469244
14	0x3ca60f05	0.020270834
15	0xbd4d9556	-0.050191246
16	0xbe7bbc6a	-0.24583593
17	0x3b718ed5	0.0036858816
18	0x3e93ae78	0.28844047
19	0xbd87d490	-0.0663234
20	0xbcc3b6be	-0.02389085
21	0x3e2dc947	0.16971312
22	0x3cf6544a	0.030069489
23	0xbe3f3e9b	-0.18676226
24	0x3e1080c1	0.14111616
25	0xbd6ac826	-0.057319783
26	0xbdb1b7f5	-0.08677665
27	0x3dd0e22a	0.10199387
28	0xbe8acdf3	-0.27110252
29	0x3dd852c5	0.10562662
30	0x3e11153d	0.14168258
31	0xbdccb6fc	-0.09995839
32	0xbe7d88a2	-0.24759153
33	0xbe04bb18	-0.12961996
34	0x3e819599	0.25309446
35	0x3e81870f	0.25298354
36	0xbe89d329	-0.26918915
37	0xbe071bc1	-0.13194181
38	0xbe42adee	-0.19011661
39	0x3e8ecd40	0.27890968
40	0x3ca3c257	0.01999013
41	0x3e5d1a52	0.21592072
42	0xbd53df50	-0.05172664
43	0xbe539e15	-0.20665772
44	0xbba07190	-0.00489635
45	0xbe76cfbe	-0.24102685
46	0x3e3c8078	0.18408382
47	0xbd28e616	-0.041235052
48	0xbc3b1adb	-0.011419977
49	0x3e3b84da	0.18312398
50	0xbd8ae8cf	-0.06782686
51	0xbd58c99d	-0.05292665
52	0x3cee5d04	0.029097088
53	0x3e22d8f2	0.1590307
54	0xbe7dd48e	-0.24788114
55	0x3c8979d4	0.016781725
56	0xbe61fd2d	-0.22069235
57	0xbe82793d	-0.25483122
58	0xbd11973e	-0.035544626
59	0xbdc291f9	-0.09500498
60	0xbdb8f8aa	-0.09031804
61	0xbe8480e5	-0.2587959
62	0x3e0d9e9c	0.13830036
63	0xbe0f7bd8	-0.14012086
64	0x3e05f3c8	0.13081276
65	0xbd80295f	-0.06257891
66	0x3d8a540c	0.06754312
67	0xbdd1d8b6	-0.102464125
68	0x3e325262	0.17414239
69	0x3d935cea	0.07195456
70	0x3dc0d365	0.0941532
71	0xbe3ce131	-0.18445279
72	0x3d9a5bb1	0.0753702
73	0x3e59b4f7	0.21260439
74	0xbe8d2bbc	-0.2757243
75	0x3e7530c3	0.23944382
76	0x3d3de435	0.046360213
77	0xbc725596	-0.014790913
78	0x3d547e1f	0.05187809
79	0xbe3e9d89	-0.18614782
80	0xbe8d20a5	-0.27563968
81	0x3e0407b3	0.12893562
82	0xbe8d63bd	-0.27615157
83	0xbe2c80ef	-0.1684606
84	0x3d5e8c62	0.0543331
85	0x3e316a67	0.17325746
86	0xbe7d7cbe	-0.24754617
87	0x3e433c66	0.19066009
88	0x3e8242d8	0.25441623
89	0xbe2e6a0a	-0.17032638
90	0x3e680ce3	0.22661166
91	0xbd7bd104	-0.06147863
92	0x3e81e1ce	0.25367588
93	0xbe3046c7	-0.172145
94	0xbd74d67b	-0.059774857
95	0x3c0a414e	0.008438421
96	0x3dddf072	0.10836877
97	0x3d64a28b	0.055819076
98	0x3e7325fd	0.2374496
99	0x3c975c49	0.018476622
100	0x3e1ea365	0.15492018
101	0xbdfebfea	-0.124389485
102	0xbd139465	-0.036030192
103	0xbe77505d	-0.2415175
104	0x3c30f6cc	0.010801028
105	0xbd8b33e6	-0.06797008
106	0x3cdcd963	0.026959127
107	0x3e6c7bcd	0.23094101
108	0x3e68bfd6	0.2272943
109	0xbd306054	-0.043060616
110	0xbe71a13c	-0.23596662
111	0x3e68e534	0.22743684
112	0x3e1feafd	0.15616985
113	0xbe5dfc27	-0.2167822
114	0x3df0e74f	0.117628686
115	0xbc22197c	-0.009893771
116	0xbdba190d	-0.09086809
117	0x3e858207	0.26075765
118	0x3e664da5	0.22490557
119	0x3dbda841	0.092606075
120	0x3e4ea1c3	0.20178895
121	0x3e8a0e45	0.26964012
122	0x3cf10da6	0.029425453
123	0x3e890172	0.26758915
124	0x3d24885f	0.040169116
125	0x3e4273d3	0.18989496
126	0xbe6f35cd	-0.23360367
127	0xbe918492	-0.28421456
128	0xbbeb9e61	-0.007190511
129	0x3d54a5b5	0.051915843
130	0xbe48f722	-0.19625524
131	0x3c92e66e	0.017932143
132	0x3e8409b1	0.25788644
133	0xbdb98670	-0.09058845
134	0x3e81466e	0.25249046
135	0xbdbefe30	-0.09325826
136	0xbdb9fe59	-0.09081716
137	0x3c155d9e	0.009116558
138	0xbd9a37a5	-0.075301446
139	0x3e7520d2	0.23938301
140	0xbe3394c7	-0.17537223
141	0xbd43639b	-0.047702413
142	0x3e939902	0.28827673
143	0xbd061a4b	-0.03273992
144	0x3d9c6951	0.07637275
145	0x3d0c6641	0.034277204
146	0x3dc96d35	0.09835283
147	0xbe63eb4e	-0.2225773
148	0x3ddad4b1	0.10685099
149	0xbdfdcc87	-0.12392526
150	0x3cfb61b2	0.030686233
151	0xbe7ec5bc	-0.24880117
152	0x3deabe1d	0.114620425
153	0xbc9cd232	-0.019143198
154	0xbe631f34	-0.22179872
155	0x3e6c5919	0.23080863
156	0x3c9ac4f3	0.01889274
157	0x3dcf4504	0.101205856
158	0xbd4a433a	-0.04938052
159	0xbe04edd1	-0.12981345
160	0x3db71931	0.08940352
161	0x3e1b3eea	0.15160719
162	0xbe647549	-0.22310366
163	0x3e1801ae	0.14844391
164	0x3e72b736	0.23702702
165	0x3e0e2a82	0.13883403
166	0xbaf04b84	-0.0018333052
167	0xbdaabd67	-0.08336907
168	0x3e65b797	0.22433315
169	0x3e88da89	0.2672923
170	0x3c850e39	0.016242133
171	0x3e04dca9	0.129748
172	0x3e33c6f2	0.1755636
173	0x3cdc1c60	0.026868999
174	0xbdc5e522	-0.09662844
175	0x3e8e2b6e	0.2776751
176	0x3da38fa4	0.07986382
177	0xbe4fe183	-0.2030087
178	0xbe61f4de	-0.22066066
179	0x3e87a495	0.26492754
180	0x3d9f4094	0.07775989
181	0x3d75d13b	0.06001399
182	0x3e19f004	0.15032965
183	0x3e85176b	0.2599443
184	0x3d95be17	0.073116474
185	0x3dbc68e8	0.09199697
186	0xbe3e08c0	-0.18558025
187	0xbe51b4f5	-0.20479186
188	0x3d9610be	0.07327412
189	0x3dbcf8bd	0.092271306
190	0x3e895173	0.26819953
191	0x3a9856db	0.0011622565
192	0x3dea65d6	0.11445205
193	0xbe0956fd	-0.1341209
194	0x3e3d1f5b	0.18468992
195	0xbe8dccab	-0.27695212
196	0xbe5fc463	-0.2185226
197	0x3dd505a8	0.104014695
198	0xbe89a2cd	-0.2688202
199	0x3e8547b4	0.26031268
200	0xbdf49423	-0.11942317
201	0xbe6173a1	-0.22016765
202	0xbdfa0a31	-0.12208975
203	0x3e5b5799	0.21420135
204	0x3e919172	0.28431278
205	0xbe8c9978	-0.27460837
206	0x3da54b7f	0.0807104
207	0x3c8cfdb3	0.017210817
208	0x3e6bc11a	0.23022881
209	0x3e3be91f	0.18350647
210	0xbd4f5329	-0.050616417
211	0x3d65dcb1	0.05611867
212	0xbe4caf43	-0.19988732
213	0xbe625f09	-0.22106566
214	0x3db5acc6	0.088708445
215	0xbe25ae63	-0.16179805
216	0x3e6af744	0.22945887
217	0xbe1eb22c	-0.15497655
218	0x3e29b18c	0.16571635
219	0xbe85d016	-0.2613532
220	0x3b38bc7e	0.0028188522
221	0x3e8ef370	0.27920103
222	0x3caf094f	0.021366743
223	0xbc00d547	-0.007863349
224	0x3bbd7937	0.005782272
225	0xb9f65481	-0.00046983737
226	0x3c9c2ab1	0.019063326
227	0x3dfd7518	0.123758495
228	0x3e791c07	0.24327098
229	0xbded87af	-0.11598145
230	0xbe141b6a	-0.14463583
231	0xbe0cb2bf	-0.13740061
232	0xbe6d9e58	-0.23204935
233	0xbe77b1a1	-0.24188854
234	0xbe93a130	-0.28833914
235	0x3dbd0465	0.09229354
236	0x3e27c4c5	0.16383655
237	0x3e753d77	0.23949228
238	0xba9ba1c9	-0.0011873777
239	0x3e922b9b	0.28548893
240	0x3dc1c8e9	0.09462149
241	0xbe7a4a42	-0.2444239
242	0x3da5306f	0.080658786
243	0x3e7ac37a	0.24488631
244	0xbdf948f6	-0.12172119
245	0xbc86c866	-0.01645298
246	0xbddf2e75	-0.10897533
247	0xbd6f3560	-0.05840051
248	0x3d017efc	0.031615242
249	0x3d9fb7d2	0.07798733
250	0x3e4ec6c6	0.20193014
251	0x3e75e96f	0.24014829
252	0xbe664a61	-0.22489311
253	0xbe7dfe9d	-0.24804159
254	0x3e6189cc	0.22025222
255	0xbe89f66f	-0.26945826

feature_net.2.weight f4 [256, 256]
0	0x3c256720	0.010095388
1	0xbd213150	-0.03935367
2	0xbd484bf2	-0.048900552
3	0xbc3ff498	-0.011716031
4	0xbcc85470	-0.024454325
5	0xbd7f06fa	-0.062262513
6	0x3cd6133c	0.026132219
7	0xbcc7bde8	-0.024382547
8	0xbcf92628	-0.030413702
9	0xbd59595e	-0.053063743
10	0x3d45edd4	0.048322514
11	0x3d3b9df0	0.045804918
12	0xbd3f498e	-0.046701007
13	0xbd439216	-0.04774674
14	0x3ce4ad90	0.027914792
15	0x3d46ca52	0.04853279
16	0x3d278790	0.040900767
17	0x3d769da4	0.06020893
18	0xbd25904c	-0.040420815
19	0x3bba2610	0.005680807
20	0x3b2a2d80	0.0025967062
21	0x3c090768	0.008363582
22	0xbb2cd460	-0.0026371703
23	0xbc810a94	-0.015752114
24	0x3ce81c08	0.028333679
25	0xbd651ff0	-0.05593866
26	0xbc98ba5c	-0.01864355
27	0xbca039b4	-0.019558765
28	0xbd20e1d6	-0.039277874
29	0xbd29a606	-0.041418098
30	0x3c4dd948	0.012564011
31	0xbd305808	-0.043052703
32	0x3c262920	0.010141641
33	0x3d6fece6	0.058575533
34	0xbcb31da0	-0.021864712
35	0x3d0d6152	0.03451664
36	0x3d131ffe	0.035919182
37	0x3cc30a9c	0.02380877
38	0x3d3fd432	0.046833225
39	0xbc4ff3b8	-0.012692384
40	0xbcce40f4	-0.025177456
41	0xbbe469c0	-0.006970614
42	0xbd293a38	-0.041315287
43	0xbd7247f2	-0.059150644
44	0x3d561f40	0.052275896
45	0xbbf86560	-0.007580444
46	0xbd6d50dc	-0.05793844
47	0x3d0ef8a4	0.03490509
48	0x3d2f2d6a	0.04276792
49	0xba6de200	-0.0009074509
50	0xbcc0ca10	-0.02353385
51	0xbd21182a	-0.039329685
52	0x3d5eed1c	0.054425344
53	0x3c67e9d0	0.014154866
54	0xbd703a12	-0.05864913
55	0xbd381828	-0.044944912
56	0xbba9fc10	-0.005187519
57	0x3d74bef8	0.059752434
58	0x3c5f0828	0.013612784
59	0xbcf08540	-0.029360414
60	0x3d59d38e	0.05318027
61	0x3d6ad57a	0.057332493
62	0x3d73911e	0.059464566
63	0xbd42bd1e	-0.047543637
64	0xbbed47b0	-0.007241212
65	0xbd2e82f0	-0.04260534
66	0xbd3bb256	-0.04582437
67	0x3d4863fe	0.048923485
68	0xbd5da4f0	-0.054112375
69	0x3d4623f4	0.04837413
70	0x3cdf5a70	0.027264804
71	0xbd789722	-0.060691006
72	0xbd618386	-0.05505707
73	0x3d05d36c	0.03267233
74	0xbd372676	-0.044714414
75	0xbd6bf9ee	-0.0576114
76	0x3bdee9e0	0.0068027824
77	0xbb0f3340	-0.0021850616
78	0x3d299f54	0.041411713
79	0x3d33d1b2	0.043901153
80	0xbd3eb8fa	-0.046563126
81	0x3d4c5a76	0.049890958
82	0x3d5fa9ea	0.054605402
83	0x3c59f248	0.013302393
84	0xbb598060	-0.003318809
85	0xbca17694	-0.019709863
86	0xba561d80	-0.0008167848
87	0x3d0dc164	0.03460826
88	0xbd30c3c4	-0.043155447
89	0x3cec3888	0.02883555
90	0xbd722514	-0.05911739
91	0xbc8ed268	-0.017434314
92	0x3b56ee00	0.0032795668
93	0x3c020280	0.007935166
94	0xbc76e978	-0.015070312
95	0xbd30763e	-0.043081515
96	0x3d0a54aa	0.03377215
97	0x3d2bd960	0.04195535
98	0x3bab9970	0.005236797
99	0x3c91b428	0.0177861
100	0x3c8d6834	0.017261602
101	0xbcb596b4	-0.022166587
102	0xbd1988f4	-0.037484124
103	0xbbe27cc0	-0.006911844
104	0x3d6a5620	0.05721104
105	0xbc7a5898	-0.015279911
106	0xbd2acaf6	-0.041697465
107	0x3d7742c4	0.060366407
108	0xbcbb80e8	-0.022888616
109	0xbbe56380	-0.0070003867
110	0x3d4e31ce	0.050340466
111	0x3bc8c330	0.006126784
112	0x3d0bffd6	0.03417953
113	0x3d6342b8	0.05548355
114	0x3d408940	0.04700589
115	0x3d3f5634	0.04671307
116	0x3d79604a	0.060882844
117	0x3d201a98	0.03908786
118	0x3cace5a8	0.021105602
119	0xbcd4d55c	-0.025980644
120	0x3ba1e160	0.004940197
121	0xbcfe82b8	-0.031068191
122	0xbce146f8	-0.02749966
123	0x3d0d2a8c	0.034464404
124	0x3c2c2a58	0.010508142
125	0x3ce4e048	0.027938977
126	0xbbf8ab30	-0.0075887665
127	0xbd06d67a	-0.032919385
128	0x3b87ddf0	0.00414633
129	0xbc9e2370	-0.019304007
130	0xbcf93dac	-0.030424915
131	0x3cba0f8c	0.022712491
132	0xbb573140	-0.0032835752
133	0xbd69e790	-0.0571056
134	0x3c9d387c	0.019191973
135	0x3d062644	0.032751337
136	0x3ba92160	0.0051614493
137	0x3d508f00	0.050917625
138	0x3d39b04e	0.045334153
139	0x3c9d93e8	0.019235566
140	0xbd62745a	-0.055286743
141	0xbcab21d8	-0.020890161
142	0xbc60a450	-0.01371105
143	0x3cc3472c	0.023837648
144	0x3cf425ac	0.02980312
145	0x3ca77010	0.020439178
146	0xbd0cd102	-0.034379013
147	0x3d69ee32	0.057111926
148	0xbc9a67d4	-0.018848337
149	0xbd003ab2	-0.031305976
150	0xbca444ec	-0.020052396
151	0xbd019810	-0.03163916
152	0xbd2a82d2	-0.041628666
153	0x3d4c2ac2	0.049845465
154	0x3d206b4e	0.039164834
155	0x3bef7630	0.00730779
156	0x3d3ee2da	0.04660306
157	0xb9faf600	-0.00047867
158	0x3d02bc12	0.03191764
159	0xbce0eb54	-0.027455963
160	0x3d29a976	0.041421376
161	0x3d50ee52	0.05100853
162	0x3d662110	0.056183875
163	0x3d077ca2	0.033077843
164	0xbd40d5d4	-0.047078922
165	0x3d28fe66	0.04125824
166	0x3ca584d4	0.020204939
167	0x3d4c1794	0.049827173
168	0x3d7fd9f0	0.0624637
169	0x3c503b98	0.012709521
170	0xbc152008	-0.009101875
171	0x3c070dd0	0.008243039
172	0xbd3c26a8	-0.045935303
173	0xbd7471e0	-0.059678912
174	0xbcb06648	-0.021533147
175	0x3c97c748	0.018527642
176	0xbd2487e6	-0.040168665
177	0xbcc51fd0	-0.024063021
178	0xbd099fb8	-0.033599585
179	0xbcb87a7c	-0.022519343
180	0x3d63e630	0.055639446
181	0xbcc996d0	-0.024608046
182	0xbcf462e4	-0.029832311
183	0x3cd6072c	0.026126467
184	0x3b3c0460	0.002868913
185	0x3d651d1a	0.055935957
186	0xbcd411dc	-0.025887422
187	0x3d4c7534	0.04991646
188	0x3d7e01c4	0.062013403
189	0x3cdee50c	0.027208827
190	0x3d3f0a42	0.046640642
191	0xbc47b2c8	-0.012188621
192	0x3d7daa30	0.06192988
193	0x3b9e0b70	0.004823141
194	0x3c4e9d80	0.012610793
195	0x3d758ab8	0.059946746
196	0x3c9ee564	0.019396491
197	0xbbfec630	-0.0077750906
198	0x3cba5e14	0.022749938
199	0xbaf511c0	-0.0018697307
200	0x3c298e08	0.010348804
201	0x3d70553a	0.05867503
202	0x3c48aa20	0.012247592
203	0x3cbebdbc	0.023283832
204	0xbc0c01e8	-0.008545376
205	0x3abe1e40	0.0014504865
206	0xbd4d2eb2	-0.05009336
207	0x3c85faac	0.016354881
208	0xbc7a0eb8	-0.015262298
209	0xbd38b51c	-0.045094594
210	0x3bcb8340	0.0062107146
211	0xbd6f6986	-0.058450244
212	0x3d45be9c	0.048277482
213	0xbb5fbea0	-0.003414072
214	0x3beed3a0	0.0072884113
215	0x3d43675e	0.047706
216	0xbc9b9e98	-0.018996522
217	0x3d7c0e66	0.06153717
218	0x3d6b1e98	0.057402223
219	0xbd580346	-0.052737497
220	0xbd064598	-0.032781214
221	0x3cbfc67c	0.023410074
222	0xbc583748	-0.013196774
223	0x3c134258	0.008987986
224	0x3b694f00	0.0035600066
225	0xbcb41e44	-0.021987088
226	0xbb872f70	-0.004125528
227	0x3ccdfd38	0.025145158
228	0xbd51bb70	-0.051204145
229	0x3d767b5c	0.06017624
230	0xbd0ae806	-0.03391268
231	0x3c0f8c38	0.008761458
232	0x3bab82d0	0.0052341
233	0xbd550eb4	-0.052015975
234	0xbd618990	-0.05506283
235	0x3cc279f4	0.023739792
236	0x3cdbc0ac	0.026825272
237	0xbc84aed8	-0.016196653
238	0xbc6ae548	-0.0143368915
239	0xbd31201c	-0.043243513
240	0x3cd13600	0.025538445
241	0x3d02fac0	0.031977415
242	0x3d1abf26	0.03777995
243	0xbd2e2cdc	-0.04252325
244	0x3d356392	0.04428441
245	0xbd370352	-0.0446809
246	0xbd7c1db6	-0.061551772
247	0xbc685d48	-0.014182396
248	0xbcdd7f90	-0.027038366
249	0xbb7d5ce0	-0.0038660094
250	0x3a4ede80	0.00078914315
251	0x3d686628	0.05673805
252	0xbccdcd98	-0.025122449
253	0x3d637b68	0.05553761
254	0xbd12470a	-0.03571228
255	0x3bb904c0	0.005646318

feature_net.2.bias f4 [256]
0	0xbccafbac	-0.02477821
1	0xbcfaa21c	-0.030594878
2	0x3d7cac32	0.061687656
3	0x3d306d7c	0.043073162
4	0xbd2c1e0c	-0.042020842
5	0x3ceffa4c	0.029294156
6	0xbc747ae0	-0.014921874
7	0xbd2e9736	-0.042624675
8	0xbcbdea98	-0.023183152
9	0xbc4771b8	-0.012173109
10	0x3d0afe8a	0.033934154
11	0x3d6cb3b2	0.05778856
12	0xbbe331c0	-0.006933421
13	0x3bc0f790	0.0058888867
14	0xbccad870	-0.024761409
15	0x3c6c26a8	0.014413513
16	0xbd0c4658	-0.034246773
17	0x3d19fc72	0.037594266
18	0xbd145388	-0.036212474
19	0x3d6c6996	0.057717882
20	0xbd646d40	-0.05576825
21	0x3d630ba0	0.05543101
22	0x3d73d456	0.05952867
23	0xbc81b4d8	-0.015833303
24	0xbd016fe8	-0.031600863
25	0xbd378248	-0.04480198
26	0xbd24c982	-0.040231235
27	0x3cfd67f8	0.030933365
28	0xbd0a48b8	-0.033760756
29	0x3d6a68c8	0.057228833
30	0x3b83beb0	0.0040205345
31	0x3c3cdd68	0.011527397
32	0x3d3b5fe0	0.04574573
33	0xbd406e86	-0.046980403
34	0x3c5dce60	0.013537973
35	0xbd7ba6ee	-0.061438493
36	0xbd397d64	-0.045285597
37	0xbd3cc2f8	-0.046084374
38	0xbd099bb6	-0.033595763
39	0x3b7db760	0.0038714036
40	0x3caa0b68	0.020757392
41	0x3d71f2f2	0.05906958
42	0x3cc56ba8	0.024099186
43	0xbd181938	-0.037133425
44	0x3bb3a750	0.0054825917
45	0x3ccddf90	0.025131017
46	0xbd236ffa	-0.03990171
47	0xbccb0bf4	-0.024785973
48	0x3d4552a8	0.04817453
49	0xbc9bf1ac	-0.019036137
50	0xbc81b77c	-0.015834562
51	0xbcce1704	-0.02515746
52	0xbd201d54	-0.03909047
53	0x3d718b4a	0.058970727
54	0xbd20f4e0	-0.03929603
55	0x3d77d0b6	0.060501777
56	0xbcbfefd0	-0.023429781
57	0xbbb13d10	-0.0054088905
58	0x3b2953c0	0.0025837272
59	0xbc0f7b40	-0.008757412
60	0xbd49cb4e	-0.049266152
61	0x3ce640f0	0.028107136
62	0xbd30423c	-0.043031916
63	0x3b0b4020	0.0021247938
64	0xbd239442	-0.03993631
65	0x3c66aae0	0.014078826
66	0x3d054bae	0.032542877
67	0xbc81c230	-0.015839666
68	0xbd0bf8fc	-0.034172997
69	0x3d334f7e	0.04377698
70	0x3cba4d8c	0.022742055
71	0xbd160296	-0.03662356
72	0xba67b380	-0.0008838698
73	0xbcf180f4	-0.029480435
74	0x3d07f7e8	0.033195406
75	0xbd6e9dde	-0.058256023
76	0xbc9150f4	-0.017738797
77	0xbd220fde	-0.039565913
78	0xbc01e298	-0.007927559
79	0x3d64ff4e	0.05590754
80	0x3d03e28e	0.03219848
81	0x3caf383c	0.02138912
82	0x3aa812c0	0.0012822971
83	0x3d12bbe4	0.035823718
84	0xbd26f108	-0.04075721
85	0x3d359ad6	0.044337116
86	0xbd79e2a2	-0.06100715
87	0xbc2c8040	-0.010528624
88	0x3ced50a8	0.028969124
89	0x3d39832a	0.045291103
90	0x3d09d4d6	0.03365024
91	0xbd17cc0a	-0.03705982
92	0x3c6c6ae8	0.014429785
93	0xbc8fc5e8	-0.017550424
94	0xbc470b00	-0.012148619
95	0xbcbb676c	-0.022876464
96	0x3c827ba4	0.015928097
97	0x3d09cfce	0.033645444
98	0x3d5bee82	0.053694256
99	0xbd77e838	-0.060524195
100	0x3b1c4160	0.0023842677
101	0xbd74b6a6	-0.0597445
102	0xbcdbec48	-0.026846066
103	0xbc03ad08	-0.008036859
104	0xbd3b7a50	-0.045770943
105	0xbd6a0e42	-0.057142504
106	0xbca4954c	-0.020090722
107	0xbd0e344a	-0.034717835
108	0x3d7e654a	0.062108316
109	0xbc9aebe8	-0.018911317
110	0x3cd94514	0.026522197
111	0x3c52f5e0	0.012876004
112	0xbd3e9c14	-0.046535566
113	0xbce699b8	-0.02814947
114	0xb903ba00	-0.00012562424
115	0x3d774e26	0.060377263
116	0xbd4e5b92	-0.050380297
117	0xbc139968	-0.009008743
118	0xbd4c4c9c	-0.049877748
119	0xbcba2a98	-0.022725388
120	0xbcebbb5c	-0.028775863
121	0x3cfb9000	0.030708313
122	0x3c934674	0.01797793
123	0x3d56ac00	0.052410126
124	0xbcf51bf0	-0.029920548
125	0xbbbecf40	-0.005823046
126	0xbc5ecc68	-0.013598539
127	0xbd1dda98	-0.038538545
128	0x3d291bfe	0.04128646
129	0xbca23e34	-0.019805051
130	0x3d71789a	0.058952905
131	0xbd7023fa	-0.05862806
132	0xbc9eb7b8	-0.019374713
133	0x3c525520	0.012837678
134	0x3cc60020	0.024169981
135	0xbd0a9370	-0.033832014
136	0xbd62c8ba	-0.05536721
137	0xbaefee80	-0.0018305331
138	0x3cf133c8	0.029443637
139	0xbd1b388c	-0.037895724
140	0x3c1471a8	0.009060301
141	0xbd3e3b74	-0.046443418
142	0x3d76a156	0.060212456
143	0x3c42d9b8	0.0118927285
144	0x3cfda14c	0.030960701
145	0xbc032710	-0.008004919
146	0xbd0a38d0	-0.033745587
147	0xbd6c53b6	-0.05769702
148	0xbd1b217a	-0.037873723
149	0x3d37440a	0.04474262
150	0x3d1c8734	0.038214877
151	0x3d4f6996	0.050637804
152	0xbd1a9348	-0.037738115
153	0xbd7fd636	-0.062460147
154	0x3d44a1bc	0.048005804
155	0x3d63d2b8	0.05562088
156	0x3d5f7900	0.054558754
157	0xbd422094	-0.04739435
158	0xbcc6f2dc	-0.024285726
159	0xbd39b152	-0.04533512
160	0xbc32abe0	-0.010905236
161	0xbcaecabc	-0.021336906
162	0x3d1ca294	0.038240984
163	0xbcb007b0	-0.02148804
164	0xbd16fb1c	-0.03686057
165	0x3d501644	0.050802484
166	0xbc8d76dc	-0.01726859
167	0x3d48d476	0.049030744
168	0xbbb56a70	-0.00553637
169	0x3ca26ba0	0.01982671
170	0xbd02d7da	-0.031944133
171	0xbd60c02c	-0.05487077
172	0x3c090590	0.008363143
173	0x3c759708	0.014989622
174	0xbd4eeaf2	-0.05051703
175	0x3d673850	0.05645019
176	0xbc9e2a1c	-0.019307189
177	0x3beca700	0.0072220564
178	0x3c9d61ec	0.019211732
179	0xbc678190	-0.014130011
180	0x3b8c79f0	0.004286997
181	0xbccb14fc	-0.02479028
182	0xbca7fd38	-0.020506486
183	0xbc908b18	-0.01764445
184	0xbc8f9640	-0.0175277
185	0x3ca96fe0	0.020683229
186	0xbd39aeac	-0.045332596
187	0xbd54ccce	-0.05195313
188	0xbbe21870	-0.006899886
189	0xbd20389a	-0.03911648
190	0xbcad4938	-0.021153077
191	0xbd1d4002	-0.03839112
192	0xbbdc0d80	-0.0067154765
193	0xbce04418	-0.02737622
194	0xbc2947b8	-0.0103320405
195	0xbd757518	-0.059926122
196	0xbd09836a	-0.03357259
197	0xbb051760	-0.0020308122
198	0xbd67ae2e	-0.056562595
199	0xbd46abda	-0.048503734
200	0x3d53024e	0.05151587
201	0x3cd5b8bc	0.026089065
202	0x3d4a242e	0.04935091
203	0xbc4a44a0	-0.012345463
204	0x3d1954b0	0.03743428
205	0xbcb966ac	-0.022631966
206	0x3cdccaf8	0.026952252
207	0xbd59fa78	-0.05321738
208	0xbcb5481c	-0.022129111
209	0x3bd15e40	0.0063894093
210	0x3c481040	0.012210906
211	0x3d66126a	0.056169905
212	0xbcd73b80	-0.026273489
213	0x3cc7b0f8	0.024376377
214	0x3bb05df0	0.005382292
215	0x3d6fc81c	0.05854045
216	0xbc0a4ca0	-0.00844112
217	0xbd21b75e	-0.039481513
218	0xbd3bcb9c	-0.045848474
219	0xbbd22c60	-0.0064139813
220	0x3cbdce1c	0.02316957
221	0xbc19c238	-0.009384684
222	0x3d726838	0.059181422
223	0xbca15e48	-0.019698277
224	0x3d77b606	0.060476325
225	0x3d5ae014	0.053436354
226	0x3d5b1018	0.053482145
227	0x3b191c40	0.0023362786
228	0xbd280f58	-0.041030258
229	0x3d04f4da	0.03246007
230	0x3d5abf3c	0.05340503
231	0x3d316c04	0.043315902
232	0xbb1671c0	-0.0022955984
233	0xbd677452	-0.056507416
234	0xbb8ff870	-0.0043936297
235	0xbd26b28e	-0.040697627
236	0xbd233f06	-0.039855026
237	0xbcb5ea80	-0.022206545
238	0xbd4ee46c	-0.05051081
239	0x3d67ecb2	0.056622215
240	0x3c578e68	0.013156511
241	0xbd3e8330	-0.04651183
242	0xbd245790	-0.04012257
243	0xbd6b9792	-0.057517596
244	0x3d7b4866	0.06134834
245	0xbd4f7144	-0.050645128
246	0x3cb96570	0.022631377
247	0x3ce9f7fc	0.028560631
248	0xbd1d8aac	-0.038462326
249	0xbcebb5e4	-0.028773256
250	0xbd520bc0	-0.051280737
251	0xbc972b1c	-0.018453173
252	0xbcb6dfa4	-0.022323437
253	0x3d1c34a4	0.03813614
254	0xbd7a0b0e	-0.0610457
255	0x3c348e48	0.011020251

actor_mean.0.weight f4 [128, 256]
0	0x3cf16c1c	0.029470496
1	0x3b8c9cb0	0.0042911395
2	0xbbda6b30	-0.00666561
3	0x3d756f12	0.059920378
4	0xbbe3dac0	-0.0069535673
5	0xbc859834	-0.016307928
6	0x3c4875e0	0.012235135
7	0xbce65830	-0.028118223
8	0xbca22cb8	-0.019796714
9	0x3cae594c	0.021282814
10	0xbc887cbc	-0.01666104
11	0x3b90a320	0.0044139773
12	0x3bd7ce10	0.006585844
13	0x3c4bc5e8	0.012437321
14	0xbd6d50ac	-0.057938263
15	0x3c554b50	0.013018444
16	0xbd5c9a08	-0.053857833
17	0x3d12250c	0.035679862
18	0x3d78562c	0.060629055
19	0xbd593828	-0.05303207
20	0x3cf9ad5c	0.030478172
21	0x3d7417d4	0.059593037
22	0x3ce4d0b8	0.027931556
23	0xbd59439e	-0.053043
24	0xbd2e64f0	-0.04257673
25	0x3b9ef900	0.0048514605
26	0xbc3df0f8	-0.011593096
27	0xbd494a52	-0.049143143
28	0xbb43c000	-0.002986908
29	0xbd207f6e	-0.039184026
30	0x3d2ec12c	0.04266469
31	0x3b3aee60	0.002852343
32	0x3cd5799c	0.026058964
33	0xbd5cc046	-0.053894304
34	0xbcd2e1b4	-0.02574239
35	0x3d5c9dd4	0.053861454
36	0x3c816084	0.015793093
37	0x3c6f6bf8	0.014613144
38	0xbd4eb5dc	-0.050466403
39	0xbd30740c	-0.04307942
40	0xbc8d2470	-0.017229289
41	0x3beb80b0	0.0071869716
42	0x3c6e2d88	0.014537223
43	0x3cf78dec	0.03021904
44	0xbc06a2a8	-0.008217491
45	0x3ce70464	0.028200336
46	0x3ceada58	0.028668568
47	0xbd265784	-0.040610805
48	0x3b8f5250	0.004373826
49	0x3d2a7eaa	0.041624703
50	0xbc390490	-0.011292592
51	0x3d2fbdf2	0.042905755
52	0xbd02ecc2	-0.03196407
53	0x3c114878	0.008867376
54	0x3bdf29d0	0.0068104044
55	0xbd026322	-0.03183282
56	0x3af832c0	0.0018936023
57	0x3d29c410	0.041446745
58	0xbd1ec0dc	-0.038758144
59	0xbd76c3d8	-0.060245365
60	0xbd67d35a	-0.056598045
61	0xbca81d10	-0.02052167
62	0xbd307ea4	-0.043089524
63	0xbae06d40	-0.0017122403
64	0x3c322c28	0.0108747855
65	0xbbd489f0	-0.00648617
66	0xbd50f17a	-0.05101154
67	0x3d6064a0	0.054783463
68	0x3d573eb4	0.052550033
69	0x3c1a1f58	0.009406887
70	0x3c8364e4	0.01603932
71	0xbd50f46e	-0.051014356
72	0x3d317c94	0.043331698
73	0x3d2e1a60	0.042505622
74	0x3d37f52a	0.04491154
75	0xbcde4604	-0.027132995
76	0x3ccb1ec4	0.024794944
77	0x3d7b206a	0.06131021
78	0x3d5eb1d0	0.054368794
79	0x3c5f38d0	0.013624385
80	0xbd28ce2c	-0.041212246
81	0xbd08c05a	-0.033386566
82	0x3aa73200	0.001275599
83	0x3d103116	0.035203062
84	0xbd722e04	-0.059125915
85	0x3d779dea	0.060453333
86	0x3d41fa26	0.0473577
87	0x3d259f62	0.040435202
88	0xbcb12a84	-0.021626718
89	0xbd37c518	-0.044865698
90	0xbc9ffd84	-0.019530065
91	0x3d15cb38	0.036570758
92	0xbd16a3c4	-0.036777273
93	0x3ce1a408	0.027544037
94	0x3d2579f0	0.04039949
95	0xbd337cf0	-0.04382032
96	0x3cca30e0	0.024681509
97	0x3c2a89a0	0.010408789
98	0xbd3bf18e	-0.04588466
99	0x3d4b56ee	0.04964345
100	0xbcc2c4d0	-0.023775488
101	0x3d54def2	0.05197043
102	0x3cf42914	0.029804744
103	0xbce41a2c	-0.027844511
104	0x3aff5880	0.0019481331
105	0xbd57fb34	-0.0527298
106	0x3cf16a28	0.029469565
107	0x3cb93ef8	0.022613034
108	0xbd1cb880	-0.03826189
109	0xbc8d3444	-0.017236836
110	0x3c1ed458	0.009694181
111	0x3d1b012e	0.037842922
112	0x3d53cb7e	0.051707737
113	0x3d046bd0	0.03232938
114	0x3b45ff40	0.0030211955
115	0x3d41870c	0.04724793
116	0xbc90d0ac	-0.017677628
117	0x3c12ee28	0.008967914
118	0xbb034ec0	-0.0020035952
119	0xbc532280	-0.012886643
120	0xbc3f1618	-0.011662982
121	0x3cb0ce04	0.02158261
122	0x3b92c3e0	0.0044789165
123	0xbd6f96ac	-0.0584933
124	0x3d025eba	0.03182862
125	0xbb07e0a0	-0.0020733252
126	0x3cd06784	0.025439985
127	0x3c3b2d98	0.011424445
128	0x3cb7e638	0.022448644
129	0xbca0dac8	-0.019635573
130	0xbcee29b4	-0.02907262
131	0xbc9b02b4	-0.018922187
132	0x3d035c2e	0.03207033
133	0x3d5bf0d8	0.053696483
134	0x3c9fa9c8	0.019490138
135	0xbd3fd1da	-0.04683099
136	0xbd2ff2ec	-0.042956278
137	0x3cea2850	0.028583676
138	0xbd0b1900	-0.03395939
139	0xbcd11dac	-0.025526844
140	0xbd4cf626	-0.050039433
141	0x3d69c7b0	0.057075202
142	0xbca802d0	-0.020509154
143	0xbcf78648	-0.030215397
144	0xbd3eca4c	-0.046579644
145	0x3d6c8b32	0.057749934
146	0xbd1e9cac	-0.038723633
147	0xbd27ada0	-0.040937066
148	0x3c884504	0.016634472
149	0x3d4a3f56	0.049376808
150	0x3c9d6080	0.019211054
151	0xbd29cb20	-0.04145348
152	0xbd7e659c	-0.06210862
153	0x3d312f4e	0.043258004
154	0x3b551880	0.0032515824
155	0x3d34a9e4	0.044107333
156	0x3d1a24e4	0.037632838
157	0x3c8b774c	0.017024659
158	0xbd46bac4	-0.048517957
159	0xbc34ae50	-0.011027887
160	0x3d44e68e	0.048071437
161	0x3d35fb34	0.04442902
162	0xbd1c5d80	-0.038175106
163	0xbd580474	-0.05273862
164	0xbd4d6d8e	-0.050153308
165	0xbc9e23a0	-0.019304097
166	0x3a9d5740	0.0012004152
167	0xbd1b778e	-0.037955813
168	0xbced41bc	-0.028962009
169	0x3c40f340	0.011776745
170	0x3c6c6d38	0.014430337
171	0x3c833228	0.016015127
172	0x3d162b6a	0.036662497
173	0xbce418b4	-0.02784381
174	0x3d532ef8	0.051558465
175	0x3d5b81cc	0.05359058
176	0xbc410080	-0.011779904
177	0x3d42d0f2	0.047562547
178	0x3cc076c0	0.023494124
179	0x3d2cef26	0.042220257
180	0x3c0f71b0	0.008755133
181	0x3bf68520	0.007523194
182	0x3c2ec578	0.010667197
183	0x3d5f519c	0.05452119
184	0xbd6352de	-0.05549895
185	0x3d177cda	0.036984302
186	0xbd2a8b22	-0.041636594
187	0x3d644e18	0.05573854
188	0xbd0989cc	-0.03357868
189	0xbd51f65e	-0.051260345
190	0xbd57cb04	-0.052683845
191	0xbc3261b8	-0.010887556
192	0xbd2c2ae6	-0.0420331
193	0xbc1436f0	-0.009046301
194	0xbd26ff98	-0.040771097
195	0xbce4c758	-0.027927086
196	0xbd0d5540	-0.03450513
197	0x3d57c144	0.052674547
198	0xbcc3ad74	-0.02388642
199	0x3caa8614	0.020815887
200	0xbd263970	-0.04058212
201	0x3d01a132	0.03164787
202	0x3c678040	0.014129698
203	0x3c8ef88c	0.0174525
204	0xbd43b80c	-0.047782943
205	0xbc5bbdf8	-0.013411991
206	0xbcafaa70	-0.021443576
207	0xbcfdcb7c	-0.030980818
208	0x3cedaab4	0.029012062
209	0x3c30d068	0.010791875
210	0x3c6ec2e8	0.014572836
211	0xbc11ca18	-0.008898281
212	0xbc9df2ac	-0.019280754
213	0x3d76a808	0.06021884
214	0xbc190e50	-0.009341791
215	0xbd2b73ea	-0.04185859
216	0x3ced4a44	0.028966077
217	0x3d38c406	0.045108818
218	0xbc127690	-0.0089394
219	0xbd3fcfec	-0.04682915
220	0xbd47b3a0	-0.048755288
221	0x3bd35fa0	0.0064506084
222	0x3ca66fdc	0.02031701
223	0xbd1534fe	-0.03642749
224	0xbd40501a	-0.04695139
225	0x3c7df1a8	0.01549951
226	0xbc5be340	-0.01342088
227	0xbb448200	-0.0029984713
228	0x3beff7b0	0.007323228
229	0x3ce3abf0	0.027791947
230	0xbc4e8bd8	-0.012606584
231	0x3d40818e	0.046998553
232	0x3a4da680	0.000784494
233	0xbca6f53c	-0.020380609
234	0xbc6bb698	-0.014386795
235	0x3c95fb5c	0.018308334
236	0x3aea9680	0.0017897636
237	0xbd6f93ba	-0.058490492
238	0xbcb373c8	-0.021905795
239	0xbbd60d40	-0.0065323412
240	0x3cf43394	0.02980975
241	0x3d1838a2	0.037163384
242	0xbc14a770	-0.009073123
243	0xbd53731e	-0.051623456
244	0x3b646e00	0.0034855604
245	0xbd4a5ff0	-0.0494079
246	0xbbc83650	-0.00610999
247	0x3d7eb52c	0.062184498
248	0x3cdeb1b8	0.027184352
249	0xbd44ce06	-0.04804804
250	0x3d16318a	0.036668338
251	0x3d32eba2	0.04368175
252	0x3cf425f4	0.029803254
253	0x3c3d4e28	0.011554278
254	0xbd3c7af8	-0.04601571
255	0xbd719e08	-0.0589886

actor_mean.0.bias f4 [128]
0	0x3c6ec4b8	0.014573269
1	0xbd359ada	-0.04433713
2	0xbd7a8c16	-0.061168753
3	0x3d73d904	0.059533134
4	0xbaad00c0	-0.0013199076
5	0x3d7ab1ac	0.061204597
6	0xbd095f14	-0.03353794
7	0x3d761972	0.06008286
8	0xbd693936	-0.056939326
9	0x3d193cf2	0.037411638
10	0x3d6d0f72	0.057876058
11	0xbce50f34	-0.027961351
12	0x3c9e919c	0.019356541
13	0x3bdbe5c0	0.006710738
14	0x3d3e43d8	0.04645142
15	0xbcd83d94	-0.02639655
16	0xbc83b680	-0.016078234
17	0xbb3fab00	-0.002924621
18	0x3d6b70c4	0.05748059
19	0x3cb44f70	0.022010535
20	0xbd3869f8	-0.045022935
21	0xbd4d605a	-0.050140716
22	0xbc757838	-0.014982276
23	0xbc4f1438	-0.012639098
24	0x3c70b3b0	0.014691278
25	0x3d32bd14	0.04363735
26	0xbcc728c4	-0.02431143
27	0x3d562162	0.05227793
28	0xbc0ba7b8	-0.008523874
29	0xbbfbb900	-0.007681966
30	0x3d29555e	0.041341178
31	0x3c1e9ce0	0.009680957
32	0xbd66db58	-0.056361526
33	0x3d4856e2	0.048910983
34	0x3d084d2c	0.03327672
35	0x3a743400	0.000931561
36	0x3a7e1680	0.0009692684
37	0xbb8e4030	-0.004341148
38	0xbcbdda88	-0.023175493
39	0x3d2e279c	0.042518243
40	0xbcc94820	-0.024570525
41	0xbd543502	-0.051808365
42	0x3cc07798	0.023494527
43	0x3d6e045a	0.05810962
44	0xbcf31048	-0.02967085
45	0xbd28813c	-0.041138873
46	0xbcc654fc	-0.024210446
47	0x3d7449f8	0.059640855
48	0xbc3db930	-0.011579797
49	0xbc3fa400	-0.0116968155
50	0x3d3cc1e2	0.04608334
51	0xbd674aa2	-0.05646766
52	0x3d0be862	0.034157164
53	0xbd202e1a	-0.039106466
54	0x3d3da55c	0.046300277
55	0xbce04c18	-0.027380034
56	0x3ca29a04	0.019848831
57	0x3d0916b6	0.033468924
58	0xbccba340	-0.024858117
59	0x3c9c81a8	0.019104794
60	0xbceab708	-0.02865173
61	0x3d6bd0be	0.05757212
62	0x3cd4af64	0.025962539
63	0xbd2a1f48	-0.04153374
64	0xbc4cc3d8	-0.012497865
65	0x3cb392c4	0.02192057
66	0x3d0b0df2	0.033948846
67	0xbcfb1e68	-0.030654147
68	0x3b6daf60	0.0036267862
69	0xbd0e57a6	-0.034751557
70	0xbc620038	-0.0137939975
71	0xbc8b4860	-0.017002285
72	0xbd23e7d6	-0.040016018
73	0xbc1b78f8	-0.00948929
74	0x3ced1ef4	0.028945424
75	0xbd6286be	-0.05530428
76	0xbd25e934	-0.040505603
77	0xbd374dc2	-0.04475189
78	0xbd75cbd2	-0.06000883
79	0xbccb1184	-0.024788626
80	0xbc90d098	-0.01767759
81	0x3d633778	0.05547282
82	0xbd6d910c	-0.057999656
83	0x3d686444	0.056736246
84	0xbd290362	-0.04126299
85	0x3d0653f4	0.032794908
86	0x3d01e2f6	0.031710587
87	0x3d5080ce	0.050904088
88	0x3bebb670	0.007193379
89	0xbc2a5540	-0.010396302
90	0x3d5c2e1e	0.05375492
91	0xbc9437dc	-0.018093042
92	0x3cde735c	0.027154617
93	0x3b4d14a0	0.003129281
94	0x3abf6fc0	0.0014605448
95	0xbd5486f2	-0.051886506
96	0xbd049392	-0.032367297
97	0x3d69a6b0	0.05704373
98	0xbd5a5e04	-0.053312317
99	0xbd2ae166	-0.041718863
100	0x3bc76d10	0.0060859993
101	0xbc800304	-0.015626438
102	0x3bbdcdf0	0.005792372
103	0x3caed2b4	0.021340705
104	0xbc3da750	-0.011575535
105	0x3d37fcf4	0.04491897
106	0xbb005540	-0.0019582063
107	0x3cf4fec8	0.029906645
108	0xbd01dc8a	-0.031704463
109	0x3d53949c	0.051655397
110	0xbd792058	-0.06082186
111	0xbd19e80e	-0.03757482
112	0x3d48b0e4	0.04899682
113	0x3bf745f0	0.007546179
114	0x3bcb4020	0.0062027127
115	0xbd412b62	-0.047160514
116	0x3d05a6b8	0.0326297
117	0xbb4dc520	-0.0031398013
118	0xbcbef49c	-0.023309998
119	0xbd78cc7e	-0.060741894
120	0x3d4cab28	0.049967915
121	0xbd1b12fa	-0.037859894
122	0xbc56ae98	-0.01310315
123	0xbc9ac8e0	-0.018894613
124	0xbd5a1d2e	-0.053250484
125	0x3d10a0a6	0.035309456
126	0xbcf92e34	-0.03041754
127	0xbd49bf68	-0.049254805

actor_mean.2.weight f4 [3, 128]
0	0xbd67663f	-0.056493994
1	0xbd8c5884	-0.068528205
2	0xbcdd8832	-0.027042482
3	0x3d352fbb	0.044234972
4	0xbd671c6e	-0.056423597
5	0xbb633311	-0.003466789
6	0x3d9bbefa	0.07604785
7	0xbd1404a3	-0.036137234
8	0xbd9276b1	-0.07151545
9	0x3d98d4dc	0.07462475
10	0xbda724a9	-0.08161289
11	0xbdaa3edd	-0.083127715
12	0xbdaa92d6	-0.08328788
13	0x3d59da3b	0.053186636
14	0x3d340c86	0.043957256
15	0x3d518034	0.051147655
16	0xbdb1a564	-0.08674124
17	0x3d9768a7	0.07393008
18	0x3d861109	0.06546218
19	0x3c1de6dd	0.009637562
20	0x3d5cf9bc	0.053949103
21	0x3d38e8e6	0.045143984
22	0xbbbda100	-0.005787015
23	0x3da0ab50	0.07845175
24	0xbb27ca70	-0.002560284
25	0x3d5eb2a0	0.05436957
26	0x3daaba6f	0.08336341
27	0x3be4c717	0.006981741
28	0x3c7444cf	0.014908983
29	0xbcbec3ff	-0.023286818
30	0xbd815e17	-0.06316774
31	0x3c579511	0.013158099
32	0x3d91777b	0.07102867
33	0x3d4448cf	0.047921
34	0x3d642bf0	0.055705965
35	0x3da791f9	0.08182139
36	0xbb99c97f	-0.0046932097
37	0xbced6dc0	-0.028982997
38	0x3dabdacf	0.08391344
39	0x3d98b063	0.07455518
40	0xbc34cd9e	-0.011035351
41	0x3d4eb94c	0.05046968
42	0x3d8c12a2	0.068394914
43	0x3d6fde86	0.058561824
44	0xbd69daff	-0.057093617
45	0xbd188d87	-0.037244346
46	0x3b9c3245	0.004766735
47	0x3da558f9	0.08073611
48	0xbbeacecb	-0.007165765
49	0xbd9198c8	-0.07109219
50	0xbd02a0ba	-0.031891562
51	0x3dafd260	0.08585048
52	0xbdab31a2	-0.08359076
53	0xbd1db81e	-0.038505666
54	0xbd903dc7	-0.07043033
55	0x3b1bbf47	0.0023765133
56	0x3d9a479d	0.075331904
57	0xbce53bbe	-0.027982589
58	0xbd88a5cb	-0.066722475
59	0xbd704d2c	-0.058667347
60	0xbbfe289b	-0.0077563054
61	0xbcf2bc96	-0.02963094
62	0x3d8fd68c	0.070233434
63	0xbd442b4c	-0.047892854
64	0x3ae59cba	0.0017518022
65	0xbcc05164	-0.02347631
66	0xbd35c0d4	-0.04437335
67	0xbdb388c1	-0.08766318
68	0x3bb6e89c	0.0055819284
69	0xbdb12966	-0.08650474
70	0x3db16fbe	0.08663891
71	0x3cf5c9fc	0.03000354
72	0xbd82d4a0	-0.06388211
73	0xbb6d063f	-0.0036167053
74	0xbd6e0709	-0.058112178
75	0x3d878003	0.06616213
76	0x3da50afa	0.08058734
77	0xbd40f4d2	-0.04710848
78	0x3d30b002	0.043136604
79	0x3d7574a5	0.059925694
80	0xbd1d8c17	-0.03846368
81	0xbd155dc8	-0.03646639
82	0x3d0d1284	0.034441486
83	0xbc85247e	-0.016252752
84	0x3d83f337	0.06442874
85	0xbd9a6a34	-0.07539788
86	0xbda56bc7	-0.080771975
87	0x3baf0123	0.0053407117
88	0xbd233343	-0.03984381
89	0xbd93f219	-0.07223911
90	0xbd37c75c	-0.04486786
91	0xbc465ba3	-0.012106809
92	0xbd33d761	-0.043906573
93	0x3a335926	0.0006841592
94	0xbd735cc2	-0.059414633
95	0x3d204fc8	0.039138585
96	0x3d834cf0	0.06411159
97	0xbc212a66	-0.009836769
98	0x3cf7d7eb	0.030254325
99	0x3d19a7b8	0.037513465
100	0x3cac01ba	0.020996917
101	0x3c5a5974	0.013326991
102	0xbd7705af	-0.060308155
103	0xbce897e4	-0.02839274
104	0x3c14f9f0	0.009092793
105	0x3c457256	0.012051186
106	0x3bd59d9b	0.006519032
107	0x3d672c9b	0.056439023
108	0x3da05280	0.078282356
109	0xbd3239cd	-0.043512154
110	0xbbca8c0d	-0.006181246
111	0xbda3bd95	-0.07995144
112	0xbd939327	-0.072058015
113	0x3d8635f5	0.0655326
114	0x3d1f8ff2	0.038955636
115	0x3dabbfc6	0.08386187
116	0xbd5732fa	-0.05253885
117	0xbc868140	-0.016419053
118	0x3d9bb396	0.07602613
119	0x3c1b81b7	0.009491376
120	0xbc6ec759	-0.014573895
121	0xbd0c1c3f	-0.034206625
122	0x3d666b25	0.056254525
123	0xbdb24c77	-0.08705991
124	0x3d19be64	0.037535086
125	0x3c9ef955	0.019406
126	0xbd820216	-0.06348054
127	0x3c3016fc	0.010747667
128	0x3d8d1b9e	0.06890033
129	0xbd3528fb	-0.044228535
130	0xbca0fe94	-0.019652642
131	0xbc0f7a21	-0.008757145
132	0xbd29679c	-0.041358575
133	0x3d892c03	0.06697848
134	0x3da8de9e	0.08245586
135	0xbcf01985	-0.029309044
136	0x3d88e71a	0.06684704
137	0xbd476976	-0.04868456
138	0x3d36cf33	0.044631194
139	0x3c39094e	0.011293722
140	0xbcac7573	-0.021052098
141	0x3d4b5380	0.04964018
142	0x3d246c4f	0.040142354
143	0xbd94e95a	-0.07271071
144	0xbc1fcb25	-0.009753023
145	0xbcc65c85	-0.024214039
146	0xbda14a7d	-0.07875536
147	0x3d979167	0.0740078
148	0xbc753c1f	-0.014967947
149	0x3d8b111c	0.06790373
150	0x3d8c1f5b	0.06841918
151	0xbd8b7eda	-0.068113044
152	0x3d1b1c71	0.03786892
153	0xbcd5e7d4	-0.02611152
154	0xbdb4d44b	-0.08829554
155	0xbd1c8046	-0.03820827
156	0xbdae27b2	-0.08503665
157	0xbd7e6fb4	-0.062118247
158	0xbd9f99c4	-0.07793
159	0xbd467f11	-0.048461024
160	0xbdaac90c	-0.08339128
161	0xbce8e6cd	-0.028430367
162	0xbd21374e	-0.039359383
163	0xbd2152d6	-0.03938564
164	0xbd8a04f0	-0.06739223
165	0xba890e49	-0.0010456528
166	0xbd4873d8	-0.048938602
167	0xbd9f4ac2	-0.07777931
168	0xbafa80ed	-0.0019111909
169	0x3d36cf44	0.044631258
170	0x3d34abd8	0.044109195
171	0xbc97cea8	-0.018531159
172	0x3cfe28ac	0.031025253
173	0xbab9f04e	-0.0014185996
174	0xbd2f996b	-0.04287092
175	0x3ce71230	0.028206915
176	0x3d9e71ec	0.077365726
177	0xbd816f69	-0.06320078
178	0xbd89c7c9	-0.06727559
179	0xbd8c7acb	-0.068593584
180	0xbc9008ae	-0.017582264
181	0x3d7d5a9b	0.061853986
182	0x3dabe45d	0.08393166
183	0x3db3b569	0.087748356
184	0xbd158c54	-0.03651078
185	0xbd89b05b	-0.0672309
186	0x3bc7b0a3	0.006094055
187	0xbc9a1051	-0.018806608
188	0xbd072056	-0.032989822
189	0x3d4e87ad	0.05042236
190	0x3c7271e6	0.014797663
191	0x3d7413ca	0.059589185
192	0xbdac635e	-0.0841739
193	0xbd5d9b90	-0.054103434
194	0xbc018d9b	-0.0079072965
195	0x3c500ad7	0.012697897
196	0x3db169c3	0.086627506
197	0x3d1ecc79	0.03876922
198	0x3d9d1dc6	0.076716945
199	0xbbd947d9	-0.0066308794
200	0xbbefafb8	-0.0073146485
201	0x3c46479d	0.012102035
202	0xbb8ebca0	-0.004355982
203	0x3c7169f9	0.0147347385
204	0x3c31e711	0.010858313
205	0xbc58400d	-0.013198865
206	0x3d752ea7	0.059858944
207	0x3d358769	0.04431859
208	0xbad55de0	-0.0016278587
209	0xbd9d0a47	-0.07667976
210	0x3d26192e	0.040551357
211	0xbd27e020	-0.040985227
212	0xbc7b91a6	-0.0153545495
213	0xbd7d9489	-0.061909232
214	0xbcdda85e	-0.027057823
215	0x3d5560d1	0.052094284
216	0x3d776747	0.060401227
217	0xbcf64fac	-0.030067287
218	0x3c861fb1	0.016372534
219	0xbd0ac5d7	-0.03388008
220	0xbdad543e	-0.084633335
221	0x3d22895e	0.039681785
222	0xbd8f5fba	-0.0700068
223	0xbd850668	-0.064953625
224	0x3d66f080	0.056381702
225	0xbc400f2b	-0.011722366
226	0x3cfcd3c8	0.030862704
227	0x3c788d01	0.015170337
228	0x3d26b831	0.040703002
229	0xbb1175d5	-0.0022195478
230	0x3c342f0d	0.010997546
231	0x3d302841	0.04300714
232	0x3da86131	0.08221663
233	0x3aab1eae	0.0013055408
234	0xbd9cfd5e	-0.076655135
235	0x3cfb63b0	0.030687183
236	0x3d265617	0.040609445
237	0x3d0b332d	0.033984352
238	0x3d03c3b3	0.032169055
239	0xbd1adffc	-0.037811264
240	0x3c85c276	0.016328078
241	0xbc9521c1	-0.018204572
242	0xbd56cae0	-0.05243957
243	0xbd35fd88	-0.04443124
244	0xbd524dd7	-0.051343765
245	0x3d6d152f	0.05788153
246	0xbd9f23aa	-0.07770474
247	0x3c9053e0	0.01761812
248	0xbd3c2d35	-0.04594155
249	0x3da1e5fa	0.07905193
250	0xbb11461b	-0.002216703
251	0x3cfc6108	0.030807987
252	0xbc75d9b8	-0.0150055215
253	0x3d6f2025	0.058380265
254	0x3d4be4f4	0.049778894
255	0xbd6e6e46	-0.058210634

actor_mean.2.bias f4 [3]
0	0x3db49c89	0.08818919
1	0x3da25a43	0.07927372
2	0xbd0ba618	-0.034093946
