models/threat_detector.onnx (onnx, 153779 bytes, 11 tensors)

feature_extractor.0.weight f4 [128, 32]
00000000: ee39 b9bd 3c06 8abd 3939 c13d b5aa 13be
00000010: bbcb 293d 6990 d1bc 3f37 c7bd d58d 07be
00000020: 089b 8bbc aa31 b53d 53b3 383d 7d44 ddbd
00000030: fa01 ad3d 670f d2bd 3f10 ef3d 18b7 2dbd
00000040: ec8e a0bd c980 d43d 2e50 72bc 82a7 bf3d
00000050: 0ebd 2bbe 8d19 cf3d c007 e0bd b2e2 8f3c
00000060: 5015 f23d c633 a83d fb98 e73d 2a03 ae3d
00000070: 5d7a 33be 1215 343e 68dc 313e 024e f73c
00000080: 96aa 193e 3cf9 0f3c fc6c 523d 77a6 e8bd
00000090: 70ca e43d 0937 d23d 13a0 dabc 8eec 1bbe
000000a0: 5fc8 64bd c758 843d c499 6dbc e169 143e
000000b0: 8121 123d 3ec0 a93d 326e b1bd f778 4d3b
000000c0: 9492 033e 3bd5 cfbd 821c e7bb 8fd6 25be
000000d0: 38d2 6e3d 1ae7 f03d ae0a e6b9 c119 21be
000000e0: 3156 2cbe d683 b03c 1279 3dbd ce57 88bc
000000f0: 26c6 1ebe c289 453d ab21 b2bc cabd 0bbd
00000100: af30 5e3d 4134 a73d d588 12bd cbb5 273e
00000110: 9592 953c b3d2 053e 1737 02bd 5777 263e
00000120: 14f1 df3d 9599 02be 6055 dcbc d727 303e
00000130: 3baf 93bb efe9 c13d d429 313a bae7 0bbe
00000140: ba66 5b3c 9554 8c3d 25c9 0e3e 198c 263e
00000150: 4d42 f2bc efe9 183e b186 d7bd 53e8 00be
00000160: df9c b6bd 82e3 303e bd75 23be e95a 95bd
00000170: 6a75 ce3d 903b e53d 4dbb 9fbd 56d7 74bd
00000180: 74ec 31be d0fc f63d 9cde 343d 5e7f b13d
00000190: 8297 adbd 5641 10be 8df2 243e bb24 dc3d
000001a0: aeba 0bbe fc02 823d 1b74 7f3d d73b 35bc
000001b0: d579 eebd 9929 1fbe 606d 073e dffb d7bd
000001c0: 839c 34be a017 fcbd e8ed dbbd af63 5e3d
000001d0: 3a2d d83c 0668 fa3d c457 fb3d 1ab3 ebbc
000001e0: cdd2 c53d e1ca ba3d e1d9 10be d05d dbbd
000001f0: 8933 5a3d 7af6 233c d2f0 233c e4ca 8a3d
00000200: e79d 4f3d d296 05bd 0bfa e93d 7314 b3bd
00000210: 323d 2dbe 2225 d93d 72c2 e13c b0e9 dfbd
00000220: 73be f1bd 269f cd3b 1f24 c73d 346b c83d
00000230: fd1f 143e caad 26be 25ca 7c3d de5d fd3d
00000240: 43a9 b5bd b056 933d 47de fe3d 39e1 0bbe
00000250: c80b c53d 2409 c7bd 2b31 1abe c407 6abd
00000260: 927e 96bd 4e51 1ebe b89d 76bd 9ef2 b03d
00000270: 66a0 923d f499 563c 5c66 dabd 7a1b 33be
00000280: 3f2a f93d cdb3 313d 2d0e 28be 7771 bc3d
00000290: ac4b 12be 5738 9dbb 0f92 853d 6db3 2bbe
000002a0: ae21 edbd 0bb4 12be 9cde 18be d041 f7bc
000002b0: 1090 373d c365 9bbd cf8f 783d 5b73 81bd
000002c0: 7380 cebc 6a67 ca3c ed61 ebbd 2aa8 cb3d
000002d0: 8040 033d befb 003e 0485 823d cde7 82bd
000002e0: beee da3d afc9 343d 16d6 98bd 0622 bcbd
000002f0: d4fb 2cbe af9b 87bd 532b e7bd 97cb 983d
00000300: f201 2bbe a7ff f6bc 5ad7 47bc 4eeb 2cbe
00000310: e5f5 8d3d 9638 cbbc 2120 103e 5373 5bbd
00000320: 741b 89bc 8187 e03d b544 2d3e 365c 4e3c
00000330: c459 023e 4948 013d ac1c cebd 850b 7b3a
00000340: c4ac d0bd 2683 2c3e 3854 15be 6476 cfbc
00000350: 4478 253e 2f92 0c3e d32a f63d cd01 48bd
00000360: 27e4 233e 693e 593d bb85 df3c 3a41 ad3c
00000370: b84d 28bd 9e95 03be d429 063e b8ad 29be
00000380: d576 a33d 7e67 5d3d d28a bebd 542b 0e3e
00000390: 5296 f3bd 9037 c63d b887 afbd a7ce 003e
000003a0: 75f3 ef3d 3843 b5bd 9a6c a3bd b1d9 00be
000003b0: e55f 903c dd84 d8bb b26f 23be 3cd4 1e3e
000003c0: 7997 18bd 1172 783d 2f6f ccbc 6fca 13bd
000003d0: b0cc 023d ec31 73bd 156d 80bd f6bc f93d
000003e0: 5077 763c b660 993d 393b fcbc cc84 9d3c
000003f0: 5e70 ed3d ef1e c2bb 3b38 cbbd ae24 193e
-0.09044252 -0.0673947 0.094347425 -0.14420588 0.04145406 -0.025581555 -0.09727334 -0.13237698
-0.017041698 0.08847363 0.045092892 -0.10804079 0.084476426 -0.10256844 0.116730206 -0.04241094
-0.0783976 0.10376126 -0.014789624 0.093581215 -0.16771337 0.10112295 -0.10938978 0.017564151
0.11820471 0.08213 0.113084756 0.08496697 -0.17527147 0.17586163 0.17369235 0.030188564
0.1500648 0.008787449 0.051373467 -0.11359876 0.111714244 0.102644034 -0.026687657 -0.15226957
-0.05585515 0.064622454 -0.014501993 0.14493515 0.035676483 0.082886204 -0.08663596 0.0031352618
0.12848884 -0.10148092 -0.007052959 -0.16195129 0.05830595 0.11762829 -0.00043876976 -0.1573248
-0.16829754 0.02154724 -0.04625804 -0.016643431 -0.15505275 0.04822708 -0.02174457 -0.034116544
0.054245647 0.081642635 -0.035775024 0.16377942 0.018258372 0.13068657 -0.03179082 0.16256462
0.10934654 -0.127539 -0.026896179 0.17202698 -0.004506973 0.094684474 0.0006758247 -0.13662615
0.013391191 0.0685207 0.13943918 0.1626438 -0.02957263 0.14932989 -0.10523737 -0.12588625
-0.089166395 0.17274287 -0.15962882 -0.0729273 0.10080989 0.11193001 -0.07799397 -0.059775673
-0.17375356 0.12059939 0.04415761 0.086668715 -0.084761634 -0.14087424 0.16108151 0.10749193
-0.13645431 0.063482255 0.062366586 -0.01106163 -0.11644331 -0.15543212 0.13225317 -0.105460875
-0.1763783 -0.123091936 -0.107387364 0.054294284 0.026388753 0.12226872 0.12272599 -0.028771926
0.09659348 0.09120727 -0.14145614 -0.10711253 0.053271804 0.010007495 0.0100061465 0.067769796
0.050687697 -0.032614537 0.11424645 -0.08744135 -0.16917875 0.10602786 0.027558539 -0.10933244
-0.118039034 0.0062750755 0.097236864 0.097860724 0.14465328 -0.16277233 0.061716218 0.12371419
-0.08870175 0.07194269 0.1244474 -0.13660134 0.09621388 -0.0971854 -0.15057819 -0.057136312
-0.0734836 -0.15460703 -0.060209006 0.086400256 0.071595 0.013098229 -0.10664055 -0.1749095
0.12166261 0.043384362 -0.16411658 0.09201329 -0.14286679 -0.004797976 0.06521999 -0.16767664
-0.115786895 -0.14326493 -0.14928669 -0.030182749 0.044815123 -0.07587769 0.06068402 -0.063208304
-0.025207734 0.024707515 -0.11493287 0.09944184 0.032043934 0.12596032 0.06373027 -0.06391869
0.10690068 0.044137653 -0.07462709 -0.09186177 -0.1689294 -0.06621491 -0.1128756 0.07460707
-0.16699961 -0.030151201 -0.01219734 -0.16886637 0.06931666 -0.024807256 0.14074756 -0.05357678
-0.016736723 0.10963345 0.16920741 0.012595227 0.12729555 0.031563077 -0.100640625 0.00095766067
-0.101892024 0.16846904 -0.14582908 -0.025325008 0.16159159 0.1372764 0.12019887 -0.048829842
0.16005002 0.053038035 0.027285447 0.021149267 -0.041089743 -0.12850043 0.13101894 -0.16570175
0.0798165 0.054053776 -0.093038216 0.13883716 -0.11893906 0.096785665 -0.08570808 0.12578832
0.117163576 -0.088507116 -0.079796985 -0.12583043 0.017623851 -0.0066076354 -0.15960577 0.15510648
-0.03725383 0.060655657 -0.02495536 -0.036081728 0.031933486 -0.05937378 -0.06270806 0.121942446
0.015043095 0.07489149 -0.030789958 0.019228362 0.11593698 -0.0059240977 -0.099228345 0.14955398

feature_extractor.0.bias f4 [128]
00000000: 9f95 523d 6125 54bd 607f e03d 030f 09bd
00000010: 43da eebc fe61 edbb 1f7e 50bd 976d 26be
00000020: ebb9 75bd 892b 6bbd 49b7 50bd a35c 0f3e
00000030: 3768 ae3d 5f5d 8f3d 1d16 b63d 85df 01bd
00000040: 05d6 f23d 05a9 2dbe 97ab 143e 5d58 ee3d
00000050: 1fc9 08bd 2adb 06bd d92b 51bd 94bd 133e
00000060: ade7 f2bd 9b70 20bd ba80 953d 1ea9 023e
00000070: a260 1cbe 9271 15bd 4193 adbc 321b 8c3c
00000080: 3296 783d 821c 80bd d960 e83c 0a03 953c
00000090: 8edf 08be b48f 8a3c 09cc ccbd 1fa8 d5bc
000000a0: c088 14be e8dd e2bc d54e 0d3d d949 21be
000000b0: e941 dc3d 3a80 53bc 599f 8a3d ad8c f73d
000000c0: 2f98 1f3e 0753 073e 0086 e93d da98 923c
000000d0: 781c 28be 3504 27be 7c93 6ebd da80 14be
000000e0: 885c d9bc 379c d73d 2edf 6c3d edfc bdba
000000f0: 1f1e 03be d77b e23c ee17 1d3e 8aef 0c3e
00000100: 88cc 0ebe f350 3c3d b12f a33d 4874 34bd
00000110: a2c7 77bc 9e03 993d d861 81bd eae0 33be
00000120: dc34 ed3d 603f a83c e98d cebd 4e3a 053e
00000130: aaff 4abd 2aa5 9e3c 86bd 3e3d ac8e 8f3d
00000140: 92b7 f2bd 9e78 3f3d 0462 3fbd 984d c43d
00000150: 8608 313e 9cf1 b33d c30d 22be 1d29 02be
00000160: 5541 b03d 2e2a 873c 0e2e 1d3e 6f4e a03d
00000170: 378a b1bd b3c0 e73d c09b 1abe 01d2 e939
00000180: c1b9 e0bd c87d 1b3e f24d 833d fb0c 223e
00000190: d169 d83b 708e 32be cb34 82bc 73af 2f3e
000001a0: ee7f c2bd 54ac 993d 11ba 29be 6d72 b83c
000001b0: b062 41bd f124 32bd a743 913d e5d1 143d
000001c0: cdfa 2dbd efa4 273e 2127 203e 35d8 303e
000001d0: 12f5 a6bd 4a68 263d cb90 583d 4f19 ec3d
000001e0: 14db c03b aeb2 063e 2401 13be 6538 9bbb
000001f0: 96c1 0b3e 26f6 66bc 9ac8 c9bd cc72 d63c
0.05141222 -0.05179346 0.10961795 -0.033461582 -0.02915681 -0.0072443476 -0.05090153 -0.16252743
-0.05999176 -0.057414565 -0.050956044 0.14000182 0.08515971 0.07000231 0.088909365 -0.031707305
0.11857227 -0.16959007 0.14518581 0.11637948 -0.03339493 -0.032923855 -0.051067207 0.14427787
-0.11860595 -0.03916989 0.07299943 0.12759826 -0.15271237 -0.036485262 -0.02118838 0.017102811
0.060690112 -0.062554374 0.028366493 0.018189926 -0.1336653 0.016914226 -0.09999854 -0.026081143
-0.14505291 -0.027693704 0.03449901 -0.15750827 0.10754759 -0.01290899 0.067686744 0.12087379
0.15585397 0.13215266 0.114025116 0.01789515 -0.1641711 -0.16310199 -0.05824612 -0.14502278
-0.02653338 0.105278425 0.05783003 -0.0014494933 -0.12804459 0.027646942 0.1534116 0.13763252
-0.1394521 0.045975637 0.07968081 -0.044056207 -0.01512328 0.07471393 -0.0631749 -0.17566267
0.11582348 0.020538032 -0.10085661 0.13010523 -0.049560227 0.019365866 0.046567462 0.070096344
-0.118514195 0.04674589 -0.046724334 0.09585112 0.17288408 0.08786318 -0.15825562 -0.12710996
0.08606211 0.016499605 0.153496 0.0782746 -0.086689405 0.11316051 -0.15098476 0.00044597688
-0.1097293 0.151847 0.06411351 0.15825264 0.006604411 -0.17437148 -0.015894314 0.17156772
-0.09497057 0.07503572 -0.16574885 0.0225155 -0.047213256 -0.04349226 0.07092982 0.036332984
-0.04247551 0.16371511 0.15639926 0.17269976 -0.08152212 0.0406268 0.05287246 0.11528265
0.005885491 0.13154098 -0.14355904 -0.0047369474 0.13648066 -0.014096772 -0.09852715 0.026177786

feature_extractor.3.weight f4 [128, 128]
00000000: 1d38 99bd f782 4f3d adee 733d 69fc 64bd
00000010: 9514 d9ba 81d7 aabc dec4 0a3d 9419 693d
00000020: 2763 e33c aea4 cc3c 3eef 07bd 7472 69bd
00000030: 8fe4 b4bd bd36 6d3d 3c91 563d 0387 743d
00000040: 6242 86bc e8af 54bd 6539 553d c57c af3d
00000050: 185c 04bd 91c2 153d 25a4 7fbd 9823 843d
00000060: 2d90 aa3c ed45 91bb df9b 093d f8b9 a8bb
00000070: df8c 1bbd e5b8 84bd 2b7e 343d cf46 1ebd
00000080: 83b1 903d 5262 a23c 4310 22bd 6817 b33d
00000090: d494 6b3d d8b8 2e3d a99a 93bc 5a0f 0abd
000000a0: 1753 f3bc 3bee 933c 02d0 96bd 3b82 11bd
000000b0: 15f3 8a3d e9b5 e2bb 9d20 973d e0d5 663d
000000c0: a221 4a3c 63bb a1bd 9ece 6abd 88bb 9d3d
000000d0: 7292 863d dc5a 233d e90c bc3c 53a0 20bd
000000e0: 916a 433b 32eb e4bc d5ab 253d 706c ac3d
000000f0: 58ff 833d 5e0a 0ebd bacd 7c3c f6c8 90bd
00000100: 937e 96bd a6df 9dbd dc82 5dbd e9ee fd3c
00000110: c9db 94bd 02ac 473d 320b 6dbd f888 48bd
00000120: 0b70 65bd 2500 803c 4304 e8bb c138 96bd
00000130: 5fdb 763d 57a0 acbd d05b 20bd 9cfe 033d
00000140: 47f6 a9bd 087b f53c 700b bfbc 6575 0c3c
00000150: f948 99bd 03a9 853d e97b 943d 8913 a7bd
00000160: c8e2 8d3d 0184 1a3d cf1a 73bd 7752 443d
00000170: 1f1b 823d ab40 63bd 34e6 0ebd c78c 873c
00000180: 45be 003d 9c94 513b 4958 123b be88 d1bc
00000190: 4a31 113c 0ce9 26ba cee3 b8bc 3597 a83d
000001a0: dc18 c6bc f679 793d 8729 debc e896 083d
000001b0: bd59 0fbd 551c bdbb cb88 d43c 583d 02bd
000001c0: b813 59bd 0f57 2d3d 3577 4b3d 5321 4ebd
000001d0: 1d86 1f3d f2b4 95bc 65a5 9cbd cbc2 753d
000001e0: 254b 2c3d 01c3 5b3b 7584 a73d 261c a53c
000001f0: 99c5 e63c 79e9 343d 794f bb3c 3c65 853d
00000200: 91c1 ec3b 3937 97bd 106b f83b 1be0 7f3d
00000210: 7394 76bd 2cd4 793d 8c58 36bd f15e 0d3d
00000220: 16b0 b23d 6dd2 7d3c 587e 2c3d 21e8 76bd
00000230: 8236 8cba 611e 913d c737 8b3d bcbd bcbc
00000240: cf69 853d 1ae4 a33d 0577 c5bc cfaa 9ebd
00000250: 6181 33bd 4df5 84bd 3cbe a43d 7eaf 4f3c
00000260: eca6 13bb a127 ea3c 4a48 b23d eb33 d0bc
00000270: de0a 91bd 0ba2 f33c a8f2 4fbd 3dae dabc
00000280: 6506 27bc ff10 c1bc 895a c13a d566 bfbc
00000290: 1e87 8cbd f881 363d ea65 b23d 51ce 683d
000002a0: eaae 88bb dcd1 213d ae2e f6bc 7aaf 4bbd
000002b0: 01c0 ad3d 87a4 8abd 769c 873d 47f0 2e3d
000002c0: 1038 613d 9d32 8abd 3bd8 b23d a0ab 29bc
000002d0: 4509 703d d69a 52bd d2a9 343c a835 c5bc
000002e0: 990f 91bd a40e 4c3d c97a c7bc 4c4c 0c3d
000002f0: 7c84 4cbb 9f32 ba3c 6271 4e3c a417 033c
00000300: 6896 653c a238 dbbc 556c 84bd 78dc c0bc
00000310: 1d80 103b c658 37bc 8ae9 53bd 5213 ae3d
00000320: 0cfe adbd 0cb9 a33b 0603 2fbd ec15 92bd
00000330: 170c 69bd 55f9 31bd aec4 8d3d 82df 233d
00000340: ebba ac3d d9d1 7abd 84f0 a3bd 1ab1 363c
00000350: a206 69bd 83c7 fdbc 98a4 413d 2300 b03b
00000360: 9f45 85bd e4a8 96bd 05d0 f9bc b504 91bd
00000370: 56a1 3cbd dc35 f2bc 408f aa3d d7b4 48bd
00000380: 8938 9ebc 01b3 83bc d4ba fd3a ef14 513d
00000390: 31db f63c 8c32 9bbd d065 f6bb 41a8 7f3c
000003a0: 2dda 203d bf27 38bd 54f9 053b 805f adbc
000003b0: 404c 173d 4543 0e3c 76e2 9ebd 6c7d 5fbd
000003c0: 0866 853d ecd6 9f3d 32b4 8c3b e934 9a3c
000003d0: e4c3 a7bd a870 9e3d 8c48 acbb 7c14 dbbc
000003e0: cf52 9f3d 210f 95bd f6da 28bd af38 a33c
000003f0: e172 f93c f4a8 463d eb3f 9d3d 8edf 8e3d
-0.07481406 0.050662007 0.05955379 -0.05590478 -0.001656192 -0.020854713 0.033879153 0.05690916
0.02775724 0.02498087 -0.033187144 -0.056993917 -0.088326566 0.05791353 0.0523846 0.05969907
-0.016389076 -0.05192557 0.05205669 0.0856872 -0.03231439 0.036562506 -0.0624124 0.064521015
0.020820701 -0.0044333846 0.033595916 -0.0051491223 -0.037976142 -0.06480578 0.044065636 -0.038641747
0.07065108 0.019822273 -0.03956629 0.08744699 0.05751498 0.04265675 -0.018018084 -0.033706047
-0.029702706 0.018057933 -0.07363893 -0.035524588 0.067846455 -0.006918658 0.07379267 0.05635631
0.01233712 -0.07897069 -0.05732595 0.07701784 0.06570901 0.039881572 0.022955375 -0.039215397
0.0029818157 -0.027944181 0.040447075 0.0841912 0.06445187 -0.034677856 0.015429908 -0.0706958
-0.07348361 -0.07708673 -0.054079875 0.03099771 -0.07268483 0.048748024 -0.057872005 -0.04895875
-0.056015056 0.015625069 -0.007080586 -0.07335044 0.060267802 -0.0842902 -0.03915006 0.032225236
-0.08298927 0.029965892 -0.023320884 0.008572911 -0.074846216 0.06526377 0.072501965 -0.08158023
0.06928021 0.037723545 -0.05935174 0.047930207 0.06352829 -0.055481594 -0.034887508 0.01654662
0.031431455 0.0031979447 0.0022330454 -0.025577899 0.008861849 -0.0006367124 -0.022569563 0.082319655
-0.024181776 0.060907327 -0.027119411 0.03334704 -0.03499769 -0.0057711997 0.025944134 -0.031796783
-0.05299732 0.042319354 0.04967423 -0.05032475 0.03894626 -0.018274758 -0.07648734 0.060000222
0.04206385 0.003353298 0.08179561 0.020155024 0.028170394 0.04416797 0.022865044 0.065134495
0.0072252234 -0.0738358 0.007581122 0.062469583 -0.060200166 0.06099336 -0.04451804 0.03451437
0.08724992 0.015492064 0.04211268 -0.06027997 -0.0010697397 0.070858724 0.06797748 -0.023039691
0.06514322 0.08002491 -0.024104604 -0.07747423 -0.043824557 -0.064921 0.08044097 0.012676118
-0.0022529913 0.02858335 0.08705194 -0.025415381 -0.07082151 0.029740354 -0.050768524 -0.026694411
-0.010194396 -0.023567675 0.0014751713 -0.023364464 -0.06861709 0.04455754 0.08710845 0.056837384
-0.004171242 0.039506778 -0.030051555 -0.049727894 0.084838875 -0.06769662 0.066216394 0.042709615
0.054985106 -0.06747935 0.08732649 -0.01035586 0.05860259 -0.051417194 0.011026816 -0.024073437
-0.07083053 0.04981865 -0.02435054 0.03425245 -0.0031206897 0.022729216 0.012600275 0.008001242
0.01401291 -0.026760403 -0.06465975 -0.023542628 0.0022049018 -0.011190599 -0.051736392 0.08499779
-0.08495721 0.0049964245 -0.042727493 -0.071330875 -0.056896295 -0.043450672 0.06922279 0.040008076
0.08434089 -0.061235283 -0.08004859 0.011150623 -0.05689109 -0.030978924 0.04727611 0.00537111
-0.0650742 -0.07356432 -0.0304947 -0.07080976 -0.0460523 -0.029566698 0.08328104 -0.049000587
-0.019314067 -0.016076567 0.0019358047 0.051045354 0.030133815 -0.075780004 -0.007519461 0.01560408
0.03927057 -0.04495978 0.00204428 -0.021163702 0.036937952 0.0086830305 -0.07758038 -0.05456297
0.065136015 0.07804665 0.004293942 0.018824058 -0.0819166 0.07736331 -0.0052576717 -0.026743166
0.07779466 -0.07278276 -0.041224442 0.01992449 0.030450286 0.04850097 0.07678207 0.069762334

feature_extractor.3.bias f4 [128]
00000000: c700 73bd e49c a83d 097f 70bc fb6b 8cbc
00000010: de1e 1e3d 91ac 313d 4ec7 8ebd 9d15 e73a
00000020: 32c9 96bd bc39 cf3c 7bad fdbc 32ed 9bbc
00000030: 224a a93c 3bb3 973d b529 f63b ebae a03d
00000040: a3e0 0dbd 5ce4 963d 2a3f 903d 874a cb3c
00000050: 2af8 833d 7698 aebd 9b46 8abc 6c17 093d
00000060: 946b 1ebb 7a5f 683a 4838 39bd 1c75 533d
00000070: 5687 193d 5b55 b23d 91e5 0f3c c1fc 403d
00000080: d3c8 89bd 51f0 073d a07e 99bd 8188 f2bc
00000090: 6df6 c23a 2d3b 59bd e8db 4fbc 78dd b33c
000000a0: c99c 813c f78a f537 ddf7 5b3a d744 863d
000000b0: ce7f 96bd aac1 5abc 3162 9d3c 1b64 a03d
000000c0: 8eda 8dbd 06fd ddbc bb8e 5ebd 578a 7abd
000000d0: 7650 913d 83b3 8cbc fbfe d6bb d6df 15bc
000000e0: 811c 20bb e63e b7bc c9af efbc d79c 5abd
000000f0: 8db1 93bd 7ac8 7a3c bbbd 9b3d b90e 68bd
00000100: 62c1 283d dd15 b03d a770 eb3c ed7a a4bc
00000110: 4da6 9a3d 9217 b2bd dbaa 04bd e5d1 58bc
00000120: 9015 cf3c 7bbf eabc fc6d 73bd 9d79 ae3c
00000130: 861a ffbc 539b b03d 412b f6bc 7f2c 2ebd
00000140: ada4 6abc b951 07bd 09c8 913d 4822 ea3c
00000150: 9225 9f3d b7fb ab3c f815 c13c 8cdc ba3c
00000160: a6c5 15bd bd09 98bd 4abc 8f3c 34ad 5ebd
00000170: 71a6 b8bb 8664 2c3d cc1f 39bd 3567 9b3d
00000180: e2d6 803d 415d b43d 8b5c a8bc bbc1 64bd
00000190: cd3d f53c 9ed4 8bbc 782c 42bd c20d 993d
000001a0: f7bb 16bd 3596 54bc 75b1 36bb faf6 8bbd
000001b0: 6652 463d 01ce 993b b80d b13d e7ef 5a3d
000001c0: 041f 323d e3e5 cc3a 2cbf 85bc 30fe 1f3c
000001d0: cbb3 48bb c89a d03c e9b2 4c3d e23c 9fbc
000001e0: 653c 8a3d 237f 67bd 5e0f ff3c a730 b2bd
000001f0: 57cb 6dbd ed3a 3fbd 2248 943d 6ef0 7cbd
-0.059326913 0.082330495 -0.014678725 -0.017141333 0.038603656 0.043377463 -0.06971608 0.0017630343
-0.07362594 0.025296085 -0.030966511 -0.019034002 0.020665232 0.074072324 0.007512296 0.07845863
-0.03463806 0.07367775 0.070432976 0.02481581 0.06443818 -0.08525173 -0.01687937 0.033469602
-0.0024173008 0.0008864325 -0.04521969 0.051625356 0.037482582 0.087076865 0.00878276 0.047116045
-0.06727757 0.033188168 -0.07494855 -0.029606106 0.0014874466 -0.05303495 -0.012686707 0.02195619
0.015821831 2.9270986e-05 0.00083911215 0.06556099 -0.073485956 -0.013351837 0.01921186 0.078315936
-0.069264516 -0.02709819 -0.054335337 -0.061167087 0.07095425 -0.017175442 -0.0065611578 -0.009147605
-0.0024431052 -0.02236886 -0.029258626 -0.05337223 -0.072115995 0.015306586 0.076045476 -0.056654666
0.04120005 0.0859792 0.02874024 -0.020078147 0.075512506 -0.08695902 -0.032389503 -0.0132336365
0.025278836 -0.028655758 -0.05943106 0.021298224 -0.031140577 0.08623376 -0.030049922 -0.042522904
-0.014321488 -0.03303692 0.07118232 0.0285808 0.07770838 0.02099405 0.023570046 0.022810243
-0.036565445 -0.074237324 0.017545838 -0.054364398 -0.0056350757 0.042088054 -0.04519634 0.075880446
0.06290986 0.08806849 -0.02055194 -0.05584882 0.029936695 -0.017069157 -0.04740569 0.07473327
-0.03680035 -0.012975265 -0.0027876769 -0.068342164 0.048418425 0.004693747 0.08645195 0.053451445
0.04348661 0.0015632476 -0.01632651 0.009765193 -0.0030624743 0.02546443 0.04997531 -0.01943821
0.067498006 -0.05651773 0.031135257 -0.08700686 -0.058055248 -0.046687055 0.07240321 -0.06175273

attention.attention.0.bias f4 [64]
00000000: e95a 2e3d 4cf8 2a3d c36c 903d e3f9 173d
00000010: 2c2e 9dbd 2106 18bd ec30 1ebd 0ac3 6abc
00000020: 99e0 2ebd 3d08 a93d c4d1 9b3d f904 04bd
00000030: 0fe4 a93c e5bd 80bd 4766 4e3d 2e2c 683d
00000040: 91c3 3a3d b911 8bbc 9741 773d 8df1 27bc
00000050: d508 62bd 5eab 83bd 5aa8 6d3c 1eab cf38
00000060: 043a c4bc 6cc6 17bd 9e22 95bd 199e 0a3d
00000070: 2009 6e3d daec 193c c6e6 84bd d234 82bd
00000080: ce0c 863d 6e44 683b 9b3d fdbc 1bd7 a4bd
00000090: 0249 88bd 455c 2a3c 7682 093d f31d 2dbd
000000a0: 131b 88bd 2bdc 063d 162a 99bd 7185 963d
000000b0: baff e83b 0a85 ed3c 3af9 a33d 9147 8dbd
000000c0: 2e69 6c3c 73c1 a1bd d2a4 873c 8a2f 7f3d
000000d0: 2982 b3bd 52f5 4abd b2bb 083d b75a 8fbd
000000e0: 0a06 a83d 78e4 75bd a498 233d d08c 09bc
000000f0: 01f6 59bd 2432 563d fa59 7f3d e7e3 d43a
0.042567167 0.0417407 0.07051995 0.037103545 -0.07674822 -0.03711522 -0.038620874 -0.0143287275
-0.04269466 0.082535245 0.07608369 -0.032231305 0.02073863 -0.062862195 0.050390508 0.056682758
0.045596663 -0.016976224 0.060365286 -0.010250461 -0.055184204 -0.0642917 0.01450547 9.902402e-05
-0.023953445 -0.037054464 -0.07281993 0.03384218 0.05811417 0.009394849 -0.06489329 -0.06357731
0.06545411 0.0035441178 -0.030913165 -0.080488406 -0.0665455 0.010397975 0.033571683 -0.04226489
-0.06645789 0.032924812 -0.074787304 0.07349671 0.007110563 0.028994102 0.080065206 -0.06898416
0.014429374 -0.07898226 0.016558085 0.062301196 -0.087650605 -0.049550362 0.033382125 -0.06999724
0.08204277 -0.060032338 0.03994049 -0.008395389 -0.053213123 0.05229391 0.062341668 0.0016242237

classifier.0.weight f4 [64, 128]
00000000: f16e b4bd 7663 a33d bf6a 75bc 0679 afbd
00000010: ce00 1c3d 5005 07bd 14a4 90bd 9e8d 6a3d
00000020: e135 b83c c4cf c0bb e1d2 273d 118d c2ba
00000030: 9647 153d 9690 733d 6594 94bd 66e8 413d
00000040: c39a a53c 9c51 87bd 3136 9cbd 06c5 cdbc
00000050: 44eb b23d fd21 58bd 5894 123d 8bb5 10bc
00000060: 8b1c 9ebd fddc babc 0184 a23d af23 2f3d
00000070: 06a2 14bd e496 c83c f34b 5f3d d8de 9d3c
00000080: bfac 003d 1605 52bc 1676 313d b315 953d
00000090: c2f2 7fbd 2c5a 89bd 432c 723d 19bf dabc
000000a0: fef1 403d dbdc b6bc 2fd4 bc3c 8e01 b13d
000000b0: 8197 a63d 39e7 ac3d 2897 803d f6fa 9c3d
000000c0: 2c98 a33d d9f0 a43d c437 a1bc 677f 96bd
000000d0: 2543 ac3d a13c a7bd 8ac8 7dbd 89e8 053d
000000e0: 4b0c 163c 84dc 033d 6b84 5dbc 6306 3d3d
000000f0: d35e a6bd e5d5 36bd c758 58bd d74b 7abd
00000100: 159a a43c b968 343c 1824 973d 92c2 91bd
00000110: 1c61 36bc cd81 023d f8f6 f23b 7c70 eebc
00000120: 1b41 6c3d 86b7 27bb 5eb0 ff3c c29f 933d
00000130: 13f2 b93a b973 24ba 3b21 443d 731e 1e3d
00000140: c824 fa3c 3507 8dbd a2c5 163d 3b6e 483c
00000150: de42 503d 920e 98bd a84d 98bd 29aa 563d
00000160: 84de 42bd 3f6b 9abb 7ffb ddbc 20de 0ebd
00000170: 8dbc 933d 7852 ef3b 50f7 993d 71a6 8abc
00000180: 64e4 94bd b9e6 013d cca2 3e3d 1e7b 47bc
00000190: 8da4 a3bd a645 d73c cfbd 51bd e299 a33d
000001a0: e9d0 b03b 0e46 0ebc aeb7 42bd e313 20bd
000001b0: 0117 b5bc 8a9a 9abd ff28 383d 823e 513d
000001c0: 76e7 0cbd 6f7e cbbc 3c29 003d a879 133d
000001d0: 692e 60bd e756 32bd 35cd ad3d 47f4 babc
000001e0: ebbf 21bd 8280 83bd d011 323d fb4e 4dbd
000001f0: 5533 46bd adb7 73bd 6abd 85bd 854d 02bd
00000200: 53f5 26bd 0281 b03c 00c7 773d e09b a8bc
00000210: 379e 44bd 3ad1 7abd d149 7a3c a0cc 8abc
00000220: b77a 9a3c 1696 153d 3aaa ac3d 38a3 573d
00000230: 57fc 873d 1f7c 0fbc 3d06 293d 9ea7 88bd
00000240: c647 9bbb 9f35 6fbd b556 873c 06b3 323d
00000250: 926b 3dbd 6eb3 063c ca68 6b3d c462 9cbd
00000260: 1b04 cb3c 81bc b1bd 934d 653d e110 6abd
00000270: a665 67bd b189 b0bd 694a 893d 05e1 123d
00000280: c662 8b3c 18cc ef3c 5cec b43d fd2e 723c
00000290: e919 963d 76fd 423d b6b6 61bd cc4c b1bd
000002a0: 2b76 b03d fb03 7e3d 1739 94bd 0024 3fbd
000002b0: 08bc 36bd 5d44 c73c 7de3 223d 0aa8 903d
000002c0: 05f9 c03c 2d89 5b3d 4edc be3c 2145 553d
000002d0: 5d77 ba3b de47 38bb 084b b3bc a441 963d
000002e0: 1dcd 893c 08d2 a4bb 4db6 0bbc 805a 84bd
000002f0: af98 953d d8bc 9b3d 38cd 82bb 7d33 69bd
00000300: 68fe d23c 9488 90bd 701d 453c b3bb 943d
00000310: c41d 3bbd 0d8a 8a3d 353f 2f3d 1bd8 253a
00000320: 5c2d 0a3d a72c a53d 6cea 21bd 3d30 81bd
00000330: c9b8 87bd 9843 8b3d a9b6 7b3d 8bc5 01bd
00000340: 95a8 1f3c 46e8 8dbd a96e 5dbd 8ad8 55bd
00000350: ffd9 1a3b f2a2 933b d80c 5ebc 013e 8e3d
00000360: d4b9 e5bc e3c5 94bd ae93 a53d 3a88 1a3d
00000370: f28a 39bd 7bfb 43bd 2531 26bd 2ad2 61bd
00000380: 036e a93d 2659 96bd bd7d b23d 7b0d bd3c
00000390: 84df 433d f7ba 2ebd 5b1f 893d e684 5ebd
000003a0: 6a0f 41bd 44c6 b2bd 2d71 94bc 1976 e1bc
000003b0: 2652 3fbc 5103 633d 72f1 65bd cf35 4e3c
000003c0: cd67 33bd 1312 9dbd 4b90 6cbc 09e4 103d
000003d0: eff1 883c 8c0c cf3b 875d bbbb 1bbf a23c
000003e0: de9a 483c e9f9 0a3d 3b92 54bc 36e0 95bd
000003f0: 9473 5d3b 3180 21bd 0c54 a6bc 7262 acbb
-0.08810223 0.07977955 -0.0149790635 -0.08568005 0.038086705 -0.03296405 -0.070625454 0.057263963
0.022486629 -0.0058841426 0.040972594 -0.0014843066 0.036445223 0.05946406 -0.072548665 0.047340773
0.020215398 -0.06607363 -0.07627524 -0.025118362 0.087362796 -0.05276679 0.035786003 -0.008832346
-0.07720288 -0.022810454 0.07935334 0.04275864 -0.03628733 0.024486013 0.05451579 0.0192713
0.031414744 -0.012818595 0.043325506 0.072795294 -0.06248737 -0.06706652 0.059124243 -0.02670245
0.04710578 -0.022322109 0.023050396 0.08642875 0.08134366 0.0844254 0.06278831 0.076650545
0.07988009 0.080537505 -0.019679911 -0.07348519 0.08411244 -0.08165861 -0.061958827 0.032692466
0.009158204 0.032192722 -0.01352034 0.04614867 -0.08123555 -0.04463758 -0.05281904 -0.061107483
0.020093003 0.011011296 0.07379931 -0.071171895 -0.011131551 0.03186207 0.007414695 -0.029106371
0.057679277 -0.0025591566 0.031212028 0.07208206 0.0014186524 -0.00062733475 0.047883254 0.038603257
0.030535117 -0.0688614 0.03680957 0.012233312 0.05084502 -0.07424654 -0.07436687 0.05240837
-0.04757549 -0.0047124918 -0.027097462 -0.034879804 0.072136976 0.007303532 0.07517874 -0.016925069
-0.072701246 0.031714175 0.046541974 -0.0121753495 -0.0799037 0.026278328 -0.051206406 0.07988335
0.005395998 -0.0086836945 -0.04753845 -0.039081465 -0.022105696 -0.07549007 0.044960972 0.051085003
-0.034400426 -0.024840562 0.031289324 0.036004692 -0.05473176 -0.043539908 0.08486406 -0.022821559
-0.039489668 -0.06420995 0.04347402 -0.05012415 -0.048388798 -0.05950134 -0.065302685 -0.03181221
-0.040761303 0.02154589 0.060492516 -0.02058214 -0.048002448 -0.06123469 0.015276388 -0.016943276
0.018857343 0.036520086 0.08430906 0.052645892 0.06639927 -0.00875762 0.041265715 -0.066725954
-0.0047387807 -0.058400746 0.016520837 0.04362776 -0.046245165 0.00822149 0.05747298 -0.076360255
0.024782231 -0.086785324 0.055982184 -0.057145003 -0.056493424 -0.086200126 0.06703646 0.035859127
0.017014872 0.029272124 0.088341445 0.014781711 0.07329161 0.047605 -0.055105887 -0.08657226
0.08616289 0.062015515 -0.072374515 -0.04666519 -0.044612914 0.02432459 0.03976773 0.07063301
0.023556242 0.053597618 0.023298409 0.05206788 0.0056904987 -0.0028119008 -0.021886364 0.07336739
0.016821438 -0.0050299205 -0.008527351 -0.06462574 0.07304513 0.076043785 -0.003991749 -0.05693387
0.025756076 -0.070573 0.012030944 0.07262363 -0.045682684 0.06764612 0.04278489 0.0006326453
0.033734664 0.080651574 -0.039530203 -0.06308029 -0.06627042 0.06800002 0.061453495 -0.031682532
0.009744783 -0.06929068 -0.054060612 -0.05220846 0.002362847 0.0045055086 -0.013552867 0.0694542
-0.028042711 -0.072643064 0.08084808 0.037727572 -0.045298524 -0.047847252 -0.04057421 -0.05513207
0.08272936 -0.073412225 0.08715389 0.023077717 0.047820583 -0.042658772 0.06695434 -0.05432596
-0.04713384 -0.087292224 -0.018120373 -0.027522134 -0.011677301 0.055423085 -0.056138463 0.012586071
-0.043800164 -0.07669463 -0.014438699 0.03537372 0.016716925 0.0063186344 -0.0057179364 0.019866517
0.012243954 0.03392974 -0.012974317 -0.073181555 0.0033790814 -0.039428893 -0.020303749 -0.005260759

classifier.0.bias f4 [64]
00000000: 0c31 303d 3576 2b3d 09a3 b2bd 50f6 98bd
00000010: 788d 5a3c cafc 9e3d 5a45 1e3c 8a4f 3d3d
00000020: 4feb 46bc e96b 843d 47a2 a5bb 250a 39bc
00000030: e508 b3bd 10ab 033d 98c6 2dbd 79ef 773d
00000040: 1165 713c a97e 92bd 5795 ee3c 15e5 76bd
00000050: c7b7 733d 16cf 023d 8ef7 843d 7371 923d
00000060: 2328 463d 0bf5 59bd 15ee c0bb 100f 9b3d
00000070: b1b2 bf3c 023f b33d 05d2 f23b 9b27 eabc
00000080: e32a 4b3d e4f3 9ebd 3c64 9bbd ec25 ae3d
00000090: 8c57 a03c cdd2 123d 0f95 c3bc 3eb1 8ebd
000000a0: a21c 03bc 969a 803d 0fd8 dc3c 363e 7b3c
000000b0: 20c4 3b3d 7862 4b3d 08d6 9cbc 2b72 edbc
000000c0: 2253 98bd a67a 373d 28b1 2ebd 7c19 f73c
000000d0: 465c 8fbd 0177 6e3c d7e4 a8bc 7cf5 a73c
000000e0: 9920 21bd 8699 9fbd 3036 753d 46fa bd3c
000000f0: 4ff5 b1bd 29b1 f73c be7e 883b 3f63 9dbd
0.043015525 0.041860778 -0.08722503 -0.074688554 0.013339393 0.077630594 0.009660089 0.046218432
-0.012141063 0.06465895 -0.0050547454 -0.011293923 -0.08741931 0.03214556 -0.042425722 0.060531113
0.014733569 -0.07153065 0.029123945 -0.060277063 0.059501436 0.031935774 0.0649253 0.07150545
0.04837812 -0.053212207 -0.0058877566 0.07571232 0.023400636 0.08752252 0.00741029 -0.028583338
0.049601447 -0.07761362 -0.075874776 0.08503327 0.019572996 0.035845567 -0.023874788 -0.069674
-0.008002432 0.06279485 0.026958494 0.015334656 0.045841336 0.049654454 -0.019145027 -0.028985104
-0.07437731 0.0447947 -0.042649418 0.03016352 -0.07000022 0.01455474 -0.020616932 0.020502798
-0.03933773 -0.07792954 0.05986613 0.023190629 -0.08689367 0.030235844 0.0041654995 -0.07684945

classifier.3.weight f4 [4, 64]
00000000: 169a 883d 8c00 253d 0219 893d 8653 f7bd
00000010: 90e4 f8bd 2401 43bd e062 c6bc a8e1 35bd
00000020: 5090 f4bc 5007 fe3d 1099 83bc 9c43 78bd
00000030: 56e3 fb3d faca a43d e0ec b6bd d837 11bd
00000040: 5880 763d b076 0f3d f08d 0cbd 8eb6 cd3d
00000050: ac77 f73d 3495 5abd 283e e9bc 3866 75bd
00000060: 260f e4bd 68cb c33d e004 db3d b2cf adbd
00000070: 94e2 eb3d 76ab ee3d e43b 1bbd 182e 8f3d
00000080: aa96 833d 14d3 e8bd e055 3d3d a850 b33d
00000090: 9a48 d7bd 8acd b03d 3ce4 e03d 0474 f3bd
000000a0: e07b 0fbd 606f b5bb 800a cebd 68f8 e7bd
000000b0: 6618 af3d e8a7 e73c 805a a53c f881 e03c
000000c0: ec10 92bd fc4c bfbd a8a4 963c 1cb2 63bd
000000d0: e8b3 7f3d 58a0 533d f005 09bc b85f 4a3d
000000e0: cc0c 053d 9099 1cbd 60ca ce3b 00c0 fb3b
000000f0: 80c5 97bc 5ab8 cc3d ba44 883d e434 5a3d
00000100: 2235 90bd 502b 3a3c 9825 c8bd 00c0 6db8
00000110: 3edc cb3d cc85 073d c038 37bd 38f5 a8bd
00000120: 26bb 83bd 14a7 19bd 5c38 6dbd 90f0 ff3c
00000130: 148a c2bd da01 a0bd 1658 8bbd e027 70bc
00000140: 6846 fabc 4067 7bbc acc7 0ebd e20d c53d
00000150: 10a1 ac3d ecba eabd 80a2 91ba e8eb 6fbd
00000160: 2469 6a3d cc4e 15bd 2084 f23b 1876 86bc
00000170: 8025 a8bc 4088 cdbc 80a0 a23b 4072 c2bd
00000180: de9f c63d 9cbb 55bd 8cea 5b3d 6ea8 bc3d
00000190: 10c2 e2bc 9e09 9bbd 5016 c5bc 007b 24bc
000001a0: 72f3 cdbd 485c 30bd 8441 d93d ec3b 5c3d
000001b0: 8c44 35bd 841f 863d 38af 3cbd ea4a cbbd
000001c0: cc47 903d 8015 e73c 10bf 1ebc 146d 443d
000001d0: 4090 813c 7c84 b7bd 64ac f1bd 40c3 8e3c
000001e0: ee07 c7bd 4862 a7bc e0bb debd 002d 593c
000001f0: dec2 923d 741f 3e3d e414 95bd 40dc 803c
00000200: 20d2 07bc 5e4a dabd 3cdd b6bd 4c9b c3bd
00000210: f88c 1ebd 5c85 983d acc5 673d 28f4 e2bc
00000220: d2c7 b03d da47 8cbd 6045 af3c a6ea e83d
00000230: a654 8a3d 4c49 5b3d f086 f9bc 424a 893d
00000240: eccd 503d 0653 edbd 80d3 25bd 70dc 52bc
00000250: a035 213c bee0 b4bd f8ce 46bd 2873 75bd
00000260: 8496 9dbd 6eca febd 0813 ec3c 4874 08bd
00000270: 0ced b4bd 3c6c 64bd f8da 21bd 80ed abbc
00000280: 6e1f d73d f0d3 4c3c 7049 93bd e06a 2fbd
00000290: 3ac3 c93d c441 c13d b0a1 73bd 10d3 bd3d
000002a0: 9061 573c e076 c53d 2c75 f8bd 4067 543c
000002b0: 4407 983d 22bb f53d 7c5a bc3d b8fd 15bd
000002c0: 28a4 ce3d 804b 85bd 1815 9e3c f8a2 85bd
000002d0: 00ba 743a 8492 1dbd 68d0 0fbd 46fe bbbd
000002e0: 304b 3fbd 0432 8ebd 0852 a3bd d0b7 443d
000002f0: 4ef0 a4bd 6c5f 19bd 2ce0 4bbd c819 93bd
00000300: 34bd 083d d018 d23c d05b 613d 76b8 e0bd
00000310: 804c d23a 589e e63d 4048 433c a29f e8bd
00000320: d0f2 633c 2669 b63d 5036 8ebc 0096 0b3a
00000330: d0e1 ed3c 7088 d6bd 80ee e6bb 38fe a83d
00000340: f8d9 d8bc aa12 cdbd 1817 7bbd e0b9 9fbd
00000350: d8b7 9c3d 60a0 003d b891 fdbd 9ee5 bd3d
00000360: 24bf 96bd 028e f9bd 1432 aa3d 405b eebd
00000370: aa08 98bd 806c 073c 3051 eebc b639 f13d
00000380: 9641 8ebd aabf 953d 14d6 073d 8847 dabd
00000390: 94a7 37bd 38a9 b5bc 7cf9 343d b406 243d
000003a0: 50c4 54bc 58ff 26bd 806c ddba 26e7 acbd
000003b0: 2031 f1bb d0f8 67bd 186a bfbd cad3 b9bd
000003c0: 1a68 9abd 9ec3 eebd 96b3 86bd 406a 0ebc
000003d0: 48d2 9c3c 004d 983a fc36 ddbd b2fe d23d
000003e0: 80df c73b a85c 4fbd e62b 87bd b475 fc3d
000003f0: d2ca b8bd 801a 323b 4c81 6fbd be7e e5bd
0.066700146 0.040283725 0.06694223 -0.12076478 -0.1215297 -0.04760851 -0.02421707 -0.044404656
-0.02985397 0.124037385 -0.016064197 -0.060611352 0.1229922 0.08046527 -0.08931899 -0.035453647
0.060180992 0.0350253 -0.03431505 0.10044585 0.120833725 -0.053364947 -0.028472021 -0.059911937
-0.11135702 0.09560281 0.10694289 -0.0848688 0.11517826 0.11653797 -0.037898913 0.069912136
0.06425221 -0.11368385 0.046224475 0.08755618 -0.105118945 0.086329535 0.10981032 -0.118873626
-0.035030246 -0.0055369586 -0.100605965 -0.113266766 0.085495755 0.028278306 0.020184755 0.027405724
-0.07132134 -0.093408555 0.018389061 -0.05558978 0.06242743 0.051666588 -0.008363232 0.04940769
0.032482907 -0.038232386 0.006310746 0.0076828003 -0.018526793 0.099961 0.066537336 0.053273097
-0.07041384 0.011362866 -0.097727954 -5.6684017e-05 0.09954117 0.033086583 -0.044731855 -0.08249897
-0.0643218 -0.037512854 -0.057915077 0.031242639 -0.094989926 -0.07812853 -0.068039104 -0.014657944
-0.03055115 -0.015344441 -0.03485839 0.096217886 0.08429158 -0.11461434 -0.0011111051 -0.058574587
0.057229176 -0.0364521 0.0074010044 -0.016413733 -0.020525694 -0.025089383 0.0049629807 -0.09494448
0.09698461 -0.05218087 0.05369048 0.09211813 -0.027680427 -0.07570194 -0.024058491 -0.010039091
-0.10056199 -0.043056756 0.10608199 0.053768083 -0.044254825 0.0654898 -0.04606554 -0.09926398
0.07044944 0.028208494 -0.009689108 0.047955588 0.015815854 -0.08960816 -0.11800459 0.017427087
-0.09718309 -0.020432606 -0.10875678 0.013255358 0.07166074 0.046416715 -0.07279375 0.015730023
-0.008289844 -0.10658716 -0.08928916 -0.09551105 -0.038708657 0.07447311 0.056585 -0.027704313
0.08631863 -0.06849642 0.021395385 0.11372881 0.06754427 0.0535367 -0.030459851 0.06703617
0.050977632 -0.11588101 -0.040484905 -0.012869939 0.009839445 -0.08831929 -0.048537225 -0.059924275
-0.07694724 -0.12440954 0.028817669 -0.03331402 -0.088342756 -0.055767283 -0.039515465 -0.020987272
0.105040416 0.012501702 -0.071917415 -0.042826533 0.0985169 0.09436372 -0.05948037 0.092687726
0.013145819 0.09641814 -0.12131724 0.01296407 0.07423261 0.119985834 0.09196946 -0.03661892
0.10089904 -0.06508541 0.019297168 -0.065252244 0.00093355775 -0.038469806 -0.03511086 -0.09179358
-0.046702564 -0.069431335 -0.079746306 0.04802686 -0.08053647 -0.037444517 -0.049774334 -0.07182652
0.033383563 0.025646597 0.0550192 -0.10972683 0.0016044527 0.112606704 0.011919081 -0.113585725
0.0139128715 0.08906774 -0.017359883 0.0005324781 0.02903834 -0.10475242 -0.0070474744 0.082516134
-0.026471123 -0.100133255 -0.06130132 -0.07799125 0.07652253 0.031402946 -0.12381309 0.09272312
-0.07360676 -0.12185289 0.08310333 -0.11638498 -0.074235275 0.0082656145 -0.029091448 0.117785856
-0.06946103 0.07311948 0.033163145 -0.10658175 -0.04483755 -0.022175416 0.04418324 0.040045455
-0.012986258 -0.04077086 -0.0016893297 -0.084425256 -0.0073605925 -0.05663377 -0.09346408 -0.09073599
-0.07539387 -0.11658405 -0.06577222 -0.008692324 0.019143239 0.0011619627 -0.10801503 0.103024855
0.0060996413 -0.050625473 -0.0660017 0.123271376 -0.0902306 0.002717644 -0.058472916 -0.11205815

classifier.3.bias f4 [4]
00000000: 901a 1f3c 100a 333c 583d c93c 1208 db3d
0.009710923 0.010927692 0.024565384 0.10694899

onnx::MatMul_33 f4 [128, 64]
00000000: ac0d 0c3c 09e4 8fbd 08c6 79bc d85d e83c
00000010: c8b2 62bd a4ad 303d 7356 e2bc 8649 383d
00000020: 840b 813d b17b 67bd 4411 9a3b 9b5d 41bd
00000030: c685 b3bd 5542 a53c 0fd3 223d b705 1939
00000040: 2976 e6b9 1a42 87bd 9ef2 e5bc 20a0 59bd
00000050: 953f 48bd 2572 04bd cc89 88bd c936 eabc
00000060: fe97 51bd 539b a33d 376d 3b3d 7302 27bd
00000070: c936 34bc 3830 aebd 24a0 9a3d 4d05 1c3d
00000080: 4858 54bd 9ba8 30bb e27b adbd c1af 6bbd
00000090: 524a 3abd f313 3c3d b367 d3bc f70d 24bd
000000a0: d702 9ebd 7ae6 8abd 4a88 c73c d385 983d
000000b0: 3001 453d 28a9 583d a963 a4bd 7bb9 f93c
000000c0: 4d48 573d e95a 6b3d 828f 853c 2ff0 373b
000000d0: 43d6 d13c 2076 103d 9db0 9d3d fc42 d13c
000000e0: 183b 8ebd 7acb 85bc 21ef 253c c9e1 adb9
000000f0: 8efb 973d 6491 b43d be63 a53d 9286 b13c
00000100: 5f89 71bd e6ad b4bd 7f30 303d b014 9cbd
00000110: 8766 bebc a5b7 f93c 858a 563d a346 983d
00000120: e911 113c 9d29 1d3d 547c 55bd e0d3 9e3c
00000130: 5fad 14bd 5276 e1bc 1c4d a4bd 7a91 92bd
00000140: dc05 67bd 8417 ef3c 1405 3c3d ea6a b03d
00000150: 06cf 833d f73d 08bd 3b48 a93c dd88 9c3d
00000160: 5be9 9e3b 9805 b03c eaf3 603d a2a6 993d
00000170: 231c 6abd 7bfd da3c 2b6f 2dbd 92f3 063d
00000180: 38b0 36bd bf69 003c ce4d 113d 64eb 563d
00000190: 5b03 b2bd 23ef 7c3c c9c5 06bd 4630 94bd
000001a0: d919 6dbd 0a36 2abb f44b 9e3d 5c7b bb3c
000001b0: 40e4 a23c c244 993d 399b a73d 07a7 3cbd
000001c0: 8924 46bd 3bac 5e3d 1149 a63c c8fc 4c3c
000001d0: 3069 933d badd 21bd 388b 62bd 6ba1 333d
000001e0: 1bab 88bd 084a a6bd 44c4 9ebd 61ad 5a3d
000001f0: fd68 92bc f1a3 ef3c 1c32 25bc cafd 6b3c
00000200: 53f0 af3d 5917 26bc 7389 d1bc 86dc 8bbd
00000210: 2448 1f3d 6c3c 16bd 58c0 b0bd 2463 453d
00000220: 6d8d 45bc 7614 74bc 7225 923d 3cc8 ae3c
00000230: f86b 303b 38b0 ed3c fe05 5ebc 3abb 87b9
00000240: 214e b43d e3cc 2ebd be48 0bbb 4a21 283d
00000250: 29de a93c 9ee8 6b3c 3ebc 9fbd de03 b13d
00000260: fdf6 aabd b889 acbd 86ea 6cbd 0b64 96bd
00000270: a473 823d d4d8 b2bd 6f31 81bd 29ee 5dbd
00000280: fc35 ac3d 2bd6 ef3c 92b1 5fbc a1d3 a8bd
00000290: 6ca2 7b3d 4c57 86bd 12e3 80bd 5651 3abd
000002a0: 9d49 793d 23d3 863d 5732 86bb 2ede 34bd
000002b0: a270 97bb 68b0 08bd ca60 303d d854 2c3d
000002c0: 5ab8 27bd e5a1 b2bd 55df a53d c779 67bd
000002d0: cab4 063d 7ffe 2ebd beb6 2f3d 3eb4 3e3c
000002e0: 67d5 c43b a1bf 823c 752f ad3d e51d 82bd
000002f0: dc57 acbd dff9 8b3c 4e08 87bd c726 87bc
00000300: 7d1b 913d c1fa a6bd 9d7e 983c 0581 e0bb
00000310: 06a8 823d c511 41bd 658d 643d 48bb 983d
00000320: d6d6 1e3d bafd 553d 4d8a 10bd 065d 9d3c
00000330: 03fd 33bd 8f09 4ebd 5967 b53c 9115 f43c
00000340: 0e40 21bd 8da4 ed3c 2ac1 b0bd cb4b 87bc
00000350: f539 66bd 43a5 833d 7f64 70bd 9fbe 963d
00000360: 0158 913c 0352 5bbd e477 08bc a6df b4bd
00000370: eab4 6f3d 111a 5cbd 2e14 9f3d 4e2e 92bd
00000380: e906 0c3d a5dd 243d 2b96 253d 575f 26bc
00000390: 9759 2d3d ac0a 333d df0e a43d ed3f b13d
000003a0: 75ef 7a3c a4c1 99bd cb93 623c e3c3 cbbb
000003b0: 6ac4 063d 2124 283d 5d94 823d b6eb 3f3d
000003c0: c09a 043d 5ae9 36bd 48f7 a1bd 8186 553d
000003d0: 6ed5 793d c7c1 683d c785 1bbd c001 d63c
000003e0: 67c2 aa3b 1013 433d e762 c23c d180 5f3d
000003f0: 11c8 b1bd b876 af3d 0a60 3c3d a637 a73c
0.0085481815 -0.07025916 -0.015244968 0.02836506 -0.05534628 0.043134347 -0.027629113 0.044991992
0.063010246 -0.056514446 0.0047017653 -0.04720841 -0.0876575 0.020173231 0.039752062 0.00014593346
-0.00043957055 -0.06604405 -0.02806979 -0.053131223 -0.04888876 -0.03233542 -0.06666908 -0.028590577
-0.05117034 0.0798861 0.045758452 -0.04077382 -0.01099939 -0.08505291 0.07550076 0.038090993
-0.051842004 -0.0026955965 -0.084708944 -0.05754066 -0.045481034 0.045917463 -0.025806284 -0.04005238
-0.077153854 -0.06782241 0.02435698 0.074474 0.048096836 0.052895695 -0.08026821 0.030483952
0.052559186 0.057459746 0.016303781 0.0028066745 0.025614863 0.035268903 0.07699702 0.025544636
-0.06944865 -0.016332377 0.010127814 -0.00033165354 0.07421027 0.088167936 0.08075665 0.021670613
-0.058968898 -0.08822231 0.043015 -0.07621133 -0.023242248 0.030483076 0.052378196 0.07435348
0.008854368 0.038369764 -0.05212052 0.01938814 -0.036298152 -0.02752224 -0.0802252 -0.07156654
-0.056402072 0.029186018 0.04590328 0.08614142 0.06435971 -0.03326222 0.020664325 0.07643292
0.0048495955 0.021487042 0.054920115 0.07502486 -0.05715574 0.026732197 -0.042342346 0.03294713
-0.04460165 0.007837712 0.03547459 0.05247058 -0.08692046 0.015437874 -0.032903466 -0.0723577
-0.05788598 -0.0025972151 0.07729331 0.02288597 0.019884229 0.07483818 0.08183903 -0.046057727
-0.048374686 0.05436347 0.020298513 0.01251144 0.07197797 -0.039518096 -0.05530855 0.043855112
-0.06673261 -0.08119589 -0.077522784 0.053388003 -0.017872328 0.029252978 -0.010082748 0.01440377
0.0859076 -0.010137402 -0.025578236 -0.06829171 0.038887158 -0.036678717 -0.08630437 0.04819025
-0.012057644 -0.014897456 0.071360484 0.021335714 0.0026919823 0.029014692 -0.013551233 -0.000258887
0.088039644 -0.042675864 -0.0021253075 0.041047372 0.020735817 0.014398722 -0.07799576 0.08643316
-0.083478905 -0.08424705 -0.057840846 -0.073433004 0.06369713 -0.08732763 -0.06308257 -0.054182205
0.08408734 0.029276928 -0.013653176 -0.0824349 0.061434194 -0.06559619 -0.0629331 -0.045487724
0.06086122 0.0658324 -0.0040953564 -0.0441572 -0.004621581 -0.03337136 0.043061055 0.0420731
-0.040947296 -0.08722285 0.08099238 -0.05651262 0.032887258 -0.042723175 0.042898886 0.011639653
0.006006885 0.015960516 0.08456317 -0.06353358 -0.08415195 0.017086921 -0.06593381 -0.016497983
0.07085321 -0.08153296 0.018615061 -0.006851318 0.06379704 -0.047136087 0.055798907 0.07457596
0.038779102 0.052243926 -0.035288144 0.019209396 -0.043942463 -0.050302085 0.022144007 0.02979544
-0.039367728 0.029009128 -0.08630593 -0.016515633 -0.056207616 0.064280055 -0.05868959 0.07360577
0.017742159 -0.05354501 -0.008329365 -0.0883172 0.058522142 -0.053735796 0.07767521 -0.07137738
0.034186278 0.04025044 0.040426414 -0.010154567 0.042321768 0.04371135 0.08010649 0.08654771
0.01531588 -0.07507637 0.013829182 -0.00621842 0.03290216 0.04105008 0.06375954 0.04685565
0.032374144 -0.044656135 -0.07908493 0.052130226 0.060994558 0.056825425 -0.037969377 0.026123881
0.005211163 0.0476256 0.023728801 0.05456621 -0.08680738 0.08567566 0.045990027 0.020412277

onnx::MatMul_34 f4 [64, 1]
00000000: 001f d73d 2aae 96bd e00a f63b ae5f 833d
00000010: 280d 81bd f04f 40bd aca9 a13d 24da dd3d
00000020: 46d4 be3d 7422 d53d 5046 b3bc c8a2 90bc
00000030: e038 e33b 1878 eebc b048 dfbd 121f b4bd
00000040: 10a0 02bd 20d3 6e3d 0005 16bd b852 b23d
00000050: 24cf 40bd 00f4 4839 a829 89bd d073 dcbc
00000060: a669 ecbd 3497 353d b04d 39bc aa08 aebd
00000070: a00c e23c 4833 e2bc cec0 fe3d dc5e b0bd
00000080: 24cb 62bd 9079 3f3c 32d3 dfbd 6822 d3bd
00000090: 56db ce3d f050 a83c b05b 52bc 5c2e cdbd
000000a0: ec9b 083d c81d 9d3d c003 42bc f090 2b3c
000000b0: 4030 b63d acaa 8a3d 108e 95bd 580c a93d
000000c0: 18a7 9e3d 0098 5eb9 94b3 4dbd 9057 11bd
000000d0: d889 d23c b4c6 dfbd 402f dcbd 88d8 8f3c
000000e0: 600a a53b 9492 41bd 80fa f4bc d2a4 c0bd
000000f0: f0b2 9bbc 183b ca3c 9607 ea3d 2c5b 1bbd
0.1050396 -0.07357438 0.0075086206 0.06414734 -0.063013375 -0.046951234 0.078936905 0.10832623
0.09317832 0.10406962 -0.021884114 -0.017655745 0.0069342703 -0.02911 -0.10902536 -0.08794989
-0.03189093 0.058306813 -0.036625862 0.087071836 -0.047072545 0.00019164383 -0.066973984 -0.026910692
-0.11543588 0.04433365 -0.011310026 -0.08497746 0.02759391 -0.027612343 0.12439118 -0.08611843
-0.05536951 0.011686698 -0.10928954 -0.10309297 0.10100429 0.020546407 -0.012839243 -0.10018608
0.033351824 0.07671696 -0.011841714 0.0104715675 0.08895922 0.06770834 -0.07302487 0.082543075
0.07746714 -0.00021228194 -0.050220087 -0.035483897 0.025700495 -0.109265715 -0.107512 0.017559305
0.005036637 -0.04725893 -0.029904604 -0.09406437 -0.019006222 0.024686381 0.11427228 -0.037928745
